map/log/simple_spread_cond_elign_team/critic2_0.pkl (torch, 91607 bytes, 6 tensors)

model.0.weight f4 [128, 40]
0.028993005 -0.1521813 -0.3355055 -0.37478164 -0.29181048 0.20588508 0.08410494 0.06879584
0.09484191 0.1945475 -0.53314066 -0.046691198 0.025461407 -0.09098638 -0.30348313 -0.3712796
-0.36080208 -0.6119648 -0.64038193 -0.07788032 9.458921e-05 0.04955472 -0.0077763307 0.028870516
-0.018056208 0.1022278 -0.015661571 -0.039161798 0.035778522 -0.052860834 0.35738647 0.085189626
0.53918725 0.03429107 0.58437866 0.08739926 0.2655152 -0.021980619 0.3005784 0.023950925
0.0013738205 0.015272487 -0.003221642 0.011599092 0.04374065 -0.25553173 0.08231986 -0.17207038
0.05128991 0.14952098 0.39135212 0.33987305 0.049043406 0.04394408 0.06521427 0.014871025
0.01405791 0.022759343 -0.021690894 -0.07061699 0.0046848548 0.028254716 -0.009412835 -0.015199361
-0.036822017 -0.025051141 0.013439578 -0.02369341 -0.012556501 -0.025818115 0.42868447 0.30069554
-0.543372 -0.5901095 0.21670371 0.3041635 -0.40863696 -0.3573223 -0.5589716 -0.6088113
-0.14837475 -0.00031852067 -0.012864839 0.00580414 0.0112147955 -0.010760554 0.06673652 0.33523384
0.34016228 -0.011889185 0.41810194 -0.7716202 0.01161397 0.0025810113 0.023643425 0.008675363
0.011929933 -0.009391432 0.018827053 -0.017670121 0.029411549 -0.050515573 -0.013180291 0.000651851
-0.015696323 0.009797049 -0.008811021 -0.014494208 -0.0043635936 0.007100801 -0.025007607 -0.0034114742
-0.06194966 -0.16600426 -0.41334495 0.80370766 -0.42649153 0.77783734 -0.018033119 -0.022009423
-0.49481213 -0.044296477 0.039269306 -0.027611524 -0.060314957 0.5426047 0.3353507 0.43748558
0.4337731 0.37472335 -0.011731612 -0.025311824 -0.11387093 0.010632424 -0.1164632 0.044279914
-0.19266814 -0.12014525 -0.08547843 0.1704062 -0.025527747 0.06844639 -0.0015395121 -0.013784535
0.030718643 0.01522896 -0.058592245 0.0019592745 -0.026357934 -0.021107187 0.37273607 -0.49527562
0.5994912 -0.015063033 0.5533012 0.10658214 0.18417722 0.39801708 0.41265097 -0.07721174
-0.071197994 0.11600472 -0.040301222 0.050731827 0.06773836 -0.06438709 0.39834762 -0.5874286
0.30916145 0.07510891 -0.6940027 -0.19037026 0.08471729 -0.10189549 -0.1743129 0.20271511
-0.004312266 -0.010446093 0.07829457 -0.10856242 -0.13786983 -0.003041249 -0.024678139 -0.032923404
0.016684014 0.081772566 -0.014347156 -0.002229106 0.009408057 0.03221211 0.0014716217 0.11820421
0.821313 -0.30040815 -0.2186586 0.7810161 0.7507835 -0.14561348 0.05379788 -0.0050233686
0.19234307 0.19751555 0.07539544 0.075899914 0.08685082 -0.042032328 -0.35544157 -0.36082074
-0.4542122 -0.12592937 0.27907094 0.22301537 -0.16169618 0.22251442 -0.13703875 0.046898704
-0.29857957 0.13648081 -0.0847532 0.012487543 0.0128730945 0.12710688 -0.01625836 0.009354896
-0.014235318 0.035007134 -0.09950454 -0.010665042 -0.037353285 0.009144868 -0.16531298 -0.15042986
0.49868622 0.06215764 -0.2516385 -0.41757324 -0.3421256 -0.46940282 0.43692172 -0.29158196
0.2761193 -0.02670568 -0.1404695 -0.09582349 0.036412805 -0.50614345 -0.2177713 -0.48533115
-0.6313902 -0.26240268 0.039976124 -0.20746785 -0.06891557 -0.0060978755 0.27240083 0.07046071
00000000: bd82 ed3c 6ad5 1bbe 60c7 abbe 61e3 bfbe
00000010: 2f68 95be 8ad3 523e 363f ac3d d5e4 8c3d
00000020: 7a3c c23d 7637 473e e87b 08bf 453f 3fbd
00000030: 7194 d03c 1157 babd 2462 9bbe 5c18 bebe
00000040: 0dbb b8be baa9 1cbf 12f0 23bf b87f 9fbd
00000050: 325e c638 e4f9 4a3d 97d0 febb dc81 ec3c
00000060: 9dea 93bc cf5c d13d b24c 80bc 1f68 20bd
00000070: 808c 123d 9a84 58bd 5cfb b63e e677 ae3d
00000080: 2d08 0a3f cb74 0c3d d799 153f 62fe b23d
00000090: 9cf1 873e b310 b4bc 69e5 993e bb34 c43c
000000a0: c411 b43a 7439 7a3c 2f22 53bb 1e0a 3e3c
000000b0: 6529 333d 0ed5 82be 5197 a83d 3833 30be
000000c0: 5e15 523d 071c 193e 4e5f c83e d703 ae3e
000000d0: bde1 483d b5fe 333d 0f8f 853d 9aa5 733c
000000e0: 2653 663c cd71 ba3c 1ab1 b1bc a49f 90bd
000000f0: 6983 993b 6f76 e73c 4b38 1abc be06 79bc
00000100: afd2 16bd 0d38 cdbc ad31 5c3c af18 c2bc
00000110: c8b9 4dbc 8380 d3bc 887c db3e c4f4 993e
00000120: 6d1a 0bbf 6b11 17bf 94e7 5d3e 51bb 9b3e
00000130: dd38 d1be f3f2 b6be c318 0fbf 0fdb 1bbf
00000140: 8def 17be 1fff a6b9 0cc7 52bc a830 be3b
00000150: 43be 373c 094d 30bc 28ad 883d c5a3 ab3e
00000160: c029 ae3e dbca 42bc 7511 d63e e788 45bf
00000170: 8548 3e3c 2f26 293b dbaf c13c 1c23 0e3c
00000180: c475 433c 85de 19bc 313b 9a3c eec0 90bc
00000190: 7df0 f03c 6be9 4ebd 26f2 57bc fbe0 2a3a
000001a0: 9395 80bc cd83 203c 1a5c 10bc 1d79 6dbc
000001b0: 7afc 8ebb d6ad e83b c1dc ccbc 0a93 5fbb
000001c0: edbe 7dbd 05fd 29be f3a1 d3be c9bf 4d3f
000001d0: 195d dabe 5920 473f 31ba 93bc 1b4d b4bc
000001e0: 0458 fdbe 3970 35bd dad8 203d 9031 e2bc
000001f0: d10c 77bd 24e8 0a3f 16b3 ab3e 1cfe df3e
00000200: 8217 de3e bddb bf3e f235 40bc be5a cfbc
00000210: 2a35 e9bd 9e33 2e3c 4284 eebd db5e 353d
00000220: cc4a 45be b60e f6bd 510f afbd f77e 2e3e
00000230: 911f d1bc 9f2d 8c3d 74c9 c9ba 88d8 61bc
00000240: aaa5 fb3c e382 793c 6cfe 6fbd 2c67 003b
00000250: 98ec d7bc fbe8 acbc 43d7 be3e c494 fdbe
00000260: 4178 193f f1ca 76bc 26a5 0d3f bd47 da3d
00000270: f498 3c3e e5c8 cb3e fd46 d33e 3021 9ebd
00000280: 41d0 91bd e293 ed3d e512 25bd 2dcc 4f3d
00000290: 69ba 8a3d 61dd 83bd 38f4 cb3e b961 16bf
000002a0: 694a 9e3e b3d2 993d 29aa 31bf 6cf0 42be
000002b0: 4280 ad3d 95ae d0bd 157f 32be 8d94 4f3e
000002c0: e94d 8dbb 1726 2bbc e758 a03d f955 debd
000002d0: c02d 0dbe b14f 47bb cf29 cabc b1da 06bd
000002e0: eaac 883c 6078 a73d 5510 6bbc 3116 12bb
000002f0: 4024 1a3c d8f0 033d 6ee3 c03a 0d15 f23d
00000300: 9241 523f 19cf 99be 0ae8 5fbe acf0 473f
00000310: 5933 403f b31b 15be 2a5b 5c3d 129b a4bb
00000320: 95f5 443e 8441 4a3e ed68 9a3d 6a71 9b3d
00000330: d8de b13d 172a 2cbd 70fc b5be 7fbd b8be
00000340: 808e e8be a1f3 00be 63e2 8e3e 245e 643e
00000350: af93 25be d2da 633e e353 0cbe db18 403d
00000360: 6cdf 98be a0c1 0b3e 1693 adbd 8d98 4c3c
00000370: ace9 523c 4e28 023e 4130 85bc 4745 193c
00000380: 403b 69bc a463 0f3d 09c9 cbbd 6ebc 2ebc
00000390: c2ff 18bd 5bd4 153c ce47 29be 490a 1abe
000003a0: cd53 ff3e 0299 7e3d c3d6 80be 29cc d5be
000003b0: 162b afbe 9155 f0be 34b4 df3e 3b4a 95be
000003c0: 825f 8d3e dfc5 dabc 3dd7 0fbe 1b3f c4bd
000003d0: 9825 153d 9e92 01bf 71ff 5ebe 537d f8be
000003e0: caa2 21bf a559 86be 01be 233d 7472 54be
000003f0: 9b23 8dbd b0d0 c7bb 1f78 8b3e b44d 903d

model.0.bias f4 [128]
-0.050644115 -0.046874624 -0.1792932 -0.4304606 -0.041009456 0.091977574 0.24564506 0.02649251
0.09363132 0.08797218 -0.004885082 0.15431441 0.025366414 0.090742715 0.0697275 0.121750794
-0.22197796 0.07380026 0.05152947 -0.0541562 -0.24450895 0.06974826 0.06001789 0.13392091
-0.091656424 -0.012666905 0.03988119 -0.08160023 0.014708005 -0.00036671478 -0.084364675 0.032278683
0.3282402 0.011039915 -0.057723757 -0.18764898 -0.0015431434 0.11903761 -0.15723485 0.0035098863
0.03299904 -0.06802782 -0.02813695 0.108532846 -0.0527445 0.053829018 0.122547545 0.22092156
-0.048627373 0.034503844 -0.12215505 -0.085191116 -0.03236488 -0.019844586 -0.035028007 -0.15881431
-0.13850611 -0.12533444 0.15119506 -0.030650873 0.16504267 -0.12017917 0.03361589 -0.18167154
-0.04681009 0.006173594 -0.1856862 0.06496093 -0.13606086 -0.12376233 -0.27022213 -0.11519261
-0.012893638 -0.017820679 0.043966714 0.05903 -0.030112432 0.006637284 0.26056877 -0.07938304
0.019539934 -0.027170181 0.08397269 0.028813103 -0.010379626 -0.01779307 -0.093456514 0.10368383
-0.010162767 -0.18700892 -0.0004461884 0.18669857 0.06135853 0.15107128 -0.15576433 -0.18187813
-0.0502278 -0.10289393 -0.043529995 -0.17329052 -0.057987876 0.023225633 0.020535337 -0.115359314
0.19159982 -0.20772186 -0.18446559 0.091543205 -0.29381493 -0.1139525 -0.105518624 -0.09165002
0.14590876 -0.13582167 0.0730196 -0.036570024 -0.23827997 -0.1243067 -0.06889017 -0.11488732
-0.25153297 -0.16650306 -0.052608717 -0.11907647 -0.2234778 -0.36019042 0.028526956 -0.06601578
00000000: 3470 4fbd 9bff 3fbd a398 37be 5565 dcbe
00000010: 88f9 27bd bd5e bc3d 618a 7b3e d206 d93c
00000020: c7c1 bf3d c22a b43d 0a13 a0bb 9904 1e3e
00000030: 3acd cf3c 51d7 b93d 4bcd 8e3d 7b58 f93d
00000040: 314e 63be 9724 973d 9110 533d e4d2 5dbd
00000050: 8e60 7abe 2dd8 8e3d 52d5 753d 9022 093e
00000060: 5db6 bbbd da88 4fbc 755a 233d 051e a7bd
00000070: d8f9 703c a043 c0b9 63c7 acbd a736 043d
00000080: 190f a83e c2e0 343c bf6f 6cbd 0e27 40be
00000090: 4d43 caba fec9 f33d 2c02 21be 1f06 663b
000000a0: 002a 073d 2b52 8bbd 767f e6bc 7846 de3d
000000b0: 9e0a 58bd d17b 5c3d 35fa fa3d 4339 623e
000000c0: 7f2d 47bd e753 0d3d 6d2c fabd ae78 aebd
000000d0: 0991 04bd 1d91 a2bc 8779 0fbd 38a0 22be
000000e0: 8cd4 0dbe ac57 00be e1d2 1a3e 8a17 fbbc
000000f0: f200 293e 7f20 f6bd d1b0 093d 1b08 3abe
00000100: f0bb 3fbd dc4b ca3b 8624 3ebe 3c0a 853d
00000110: 8a53 0bbe 1b77 fdbd 8e5a 8abe 1aea ebbd
00000120: d63f 53bc acfc 91bc 7116 343d 71c9 713d
00000130: 59ae f6bc 937d d93b 4569 853e 9393 a2bd
00000140: 3612 a03c 0094 debc e0f9 ab3d 7509 ec3c
00000150: 4f0f 2abc c6c2 91bc 2166 bfbd 3058 d43d
00000160: bc81 26bc 447f 3fbe 65ee e9b9 e92d 3f3e
00000170: 1553 7b3d 6eb2 1a3e af80 1fbe 433e 3abe
00000180: aabb 4dbd 0eba d2bd 824c 32bd 1273 31be
00000190: b284 6dbd af43 be3c b939 a83c 8141 ecbd
000001a0: be32 443e 0ab5 54be 8ce4 3cbe 017b bb3d
000001b0: e96e 96be ee5f e9bd 261a d8bd 01b3 bbbd
000001c0: 1b69 153e d614 0bbe 4d8b 953d 73ca 15bd
000001d0: aaff 73be 8394 febd 4a16 8dbd 0b4a ebbd
000001e0: eec8 80be c77f 2abe 3d7c 57bd 5dde f3bd
000001f0: 5dd7 64be e16a b8be 5db1 e93c 4833 87bd

model.2.weight f4 [128, 128]
-0.0014720568 -0.6838711 -0.34726807 -0.3632804 -0.4622712 0.39711854 0.24938248 0.44561145
0.040708467 -0.3226677 -0.2859298 0.042780805 0.2799267 0.033707716 0.55409575 -0.053343482
-0.9319687 -0.38541538 0.047302235 0.13569483 0.1032208 -0.07728349 0.008639421 0.33246824
0.13727905 -0.25655168 0.09970577 -0.32410812 0.0028742126 -0.114603855 -0.121156454 -0.13126233
-0.11382918 0.06885245 0.18583928 0.033416815 0.07008873 0.045925412 -0.6215041 0.090401866
0.116506524 -0.04000971 0.035228368 0.29621616 -0.7205418 0.33771095 -0.07748904 0.29432297
-0.0062791724 0.074926324 -0.34447518 0.43459487 -0.16596706 -0.28135926 0.051537592 -0.09108988
-0.4819326 -0.33055004 0.34113634 -0.3733943 0.030826647 -0.79054534 -0.84913737 -0.47156906
-0.30907413 -0.05154664 -0.6291131 0.30722302 -0.27491197 -0.029456276 0.03764804 -0.61783665
-0.69615155 -0.13612975 -0.4745519 0.42453405 -0.21085724 -0.04333551 -0.22896826 -0.0065963916
0.033450827 0.06058692 -0.31905723 0.5574989 -0.04348013 0.39911166 -0.47026554 -0.1634214
0.0055604223 -0.15406914 0.027836906 0.05847344 0.30238697 0.21613464 -0.17068006 0.113499224
-0.36015198 0.077951066 0.044974938 -0.5984466 -0.33126307 0.09982166 0.43498927 -0.14387627
-0.5279033 -0.33935902 -0.48456553 0.092901 -0.6482509 0.052438416 -0.27053398 -0.2701122
0.096543565 -0.16399246 -0.14275557 -0.29502296 -0.39224726 -0.38089928 0.02775378 -0.4414211
0.3850103 -0.17486222 -0.13415945 -0.42122623 -0.61879545 -0.6051866 0.3570004 -0.10807487
0.07011072 -0.39543173 -0.6817208 -0.3170584 -0.0377801 -0.08912564 -0.09104843 0.15842134
0.14763378 -0.09514752 0.29387757 0.016303852 0.0011433706 0.1184792 0.24695058 0.15284938
-0.0035087347 -0.044406 0.16133936 0.17298397 -0.12724654 -0.037301086 0.12439957 0.0681489
0.14027934 -0.13960902 -0.090154715 -0.13509123 0.23780762 0.21455267 -0.24845518 0.013072971
-0.53379756 0.054297194 0.28121585 -0.3475089 0.039925914 0.10849142 -0.17841256 -0.051763114
0.09186561 0.10529482 -0.026636641 0.25077093 -0.2066001 -0.012315768 -0.06133512 -0.046676084
0.24975169 0.23220122 -0.13634637 0.35717204 -0.4430236 -0.053797483 0.10982931 0.27303177
0.06508623 -0.63823193 0.0495523 -0.09438225 -0.022787524 -0.4002575 -0.23030159 -0.043108508
-0.033153802 0.012006307 -0.42201462 0.2270843 -0.012543269 -0.1875486 -0.39231434 -0.52986205
-0.25695565 -0.064145096 -0.74669397 0.1187339 -0.19481054 -0.053127736 -0.20181702 0.00067569275
0.036373124 -0.038908415 -0.7623621 -0.07896895 0.110254794 -0.020279277 0.051948875 0.15135723
0.110601135 -0.088864796 -0.16803811 0.009667188 0.19659872 0.33161756 0.0075216927 -0.14010438
-0.12350215 0.32993484 0.09447139 -0.31952977 -0.21501538 0.23039433 0.15305908 0.09229009
-0.3177226 -0.27273673 -0.05359975 0.054705117 -0.040018108 0.32930675 -0.09124043 -0.17885964
0.22818705 -0.012266886 -0.09097854 -0.18441544 0.08053888 0.15592843 0.17513834 -0.27751458
-0.49373394 0.2546709 0.23438977 0.14494629 -0.28583667 -0.41937417 -0.1890489 -0.4879341
00000000: 08f2 c0ba 2d12 2fbf 1fcd b1be e3ff b9be
00000010: d0ae ecbe 1f53 cb3e 1f5e 7f3e 2f27 e43e
00000020: ecbd 263d b334 a5be 6465 92be ed3a 2f3d
00000030: 8d52 8f3e 1a11 0a3d 38d9 0d3f b27e 5abd
00000040: 8095 6ebf 2a55 c5be fdbf 413d 96f3 0a3e
00000050: 6d65 d33d ce46 9ebd 5c8c 0d3c 4739 aa3e
00000060: e192 0c3e be5a 83be 8a32 cc3d 80f1 a5be
00000070: 495d 3c3b 6db5 eabd e020 f8bd a269 06be
00000080: 461f e9bd 8302 8d3d a74c 3e3e 12e0 083d
00000090: ae8a 8f3d 491c 3c3d e51a 1fbf 9d24 b93d
000000a0: f99a ee3d 39e1 23bd 9f4b 103d a5a9 973e
000000b0: 6d75 38bf 73e8 ac3e 93b2 9ebd 80b1 963e
000000c0: 84c1 cdbb f972 993d 0d5f b0be 3883 de3e
000000d0: 45f3 29be 520e 90be 1519 533d 558d babd
000000e0: dfbf f6be db3d a9be 6ca9 ae3e 8a2d bfbe
000000f0: 2a88 fc3c 2e61 4abf 1161 59bf 8071 f1be
00000100: f73e 9ebe 9222 53bd 8e0d 21bf 564c 9d3e
00000110: 43c1 8cbe 4a4e f1bc d534 1a3d 8b2a 1ebf
00000120: fd36 32bf 9965 0bbe 77f8 f2be 875c d93e
00000130: f6ea 57be 9380 31bd a876 6abe 8b26 d8bb
00000140: bc03 093d fd29 783d 785b a3be 3fb8 0e3f
00000150: 3918 32bd 5d58 cc3e a5c6 f0be f157 27be
00000160: 3434 b63b 4dc4 1dbe 390a e43c d981 6f3d
00000170: 77d2 9a3e 6652 5d3e c1c6 2ebe 4872 e83d
00000180: d765 b8be cfa4 9f3d a437 383d cc33 19bf
00000190: 509b a9be 4c6f cc3d eab6 de3e 4d54 13be
000001a0: ac24 07bf 77c0 adbe f918 f8be e142 be3d
000001b0: c5f3 25bf aac9 563d 6e83 8abe 254c 8abe
000001c0: a2b8 c53d a4ed 27be 842e 12be 400d 97be
000001d0: a2d4 c8be 3b05 c3be e55b e33c f201 e2be
000001e0: 1220 c53e 150f 33be 1861 09be f7aa d7be
000001f0: 6169 1ebf 82ed 1abf c2c8 b63e 5c56 ddbd
00000200: 3696 8f3d 0776 cabe 4185 2ebf 7b55 a2be
00000210: 4ebf 1abd 8187 b6bd 9977 babd 3439 223e
00000220: 4f2d 173e b4dc c2bd 1f77 963e a88f 853c
00000230: 27dd 953a 39a5 f23d 9de0 7c3e 8c84 1c3e
00000240: cdf2 65bb 11e3 35bd 2536 253e b622 313e
00000250: eb4c 02be 06c9 18bd 34c5 fe3d a791 8b3d
00000260: 63a5 0f3e abf5 0ebe 09a3 b8bd 5b55 0abe
00000270: d783 733e b2b3 5b3e 096b 7ebe 0430 563c
00000280: f5a6 08bf bc66 5e3d 86fb 8f3e b0ec b1be
00000290: 5b89 233d c030 de3d c8b1 36be 8f05 54bd
000002a0: 0924 bc3d d0a4 d73d 1635 dabc 0c65 803e
000002b0: fa8e 53be 13c8 49bc 893a 7bbd 6c2f 3fbd
000002c0: e8be 7f3e 28c6 6d3e 629e 0bbe 41df b63e
000002d0: fdd3 e2be c05a 5cbd 30ee e03d d2ca 8b3e
000002e0: ee4b 853d 2b63 23bf 5af7 4a3d 7b4b c1bd
000002f0: e7ac babc 8dee ccbe 2ed4 6bbe 8c92 30bd
00000300: 48cc 07bd 1ab6 443c 4d12 d8be c988 683e
00000310: 4982 4dbc bd0c 40be 6ddd c8be 0aa5 07bf
00000320: b18f 83be 815e 83bd 5627 3fbf c22a f33d
00000330: 6a7c 47be 789c 59bd 1fa9 4ebe f920 313a
00000340: fcfb 143d 6e5e 1fbd 2a2a 43bf 79ba a1bd
00000350: 44cd e13d ba20 a6bc 58c8 543d 64fd 1a3e
00000360: d982 e23d bffe b5bd 2f12 2cbe 2063 1e3c
00000370: 2d51 493e c7c9 a93e 8878 f63b 8677 0fbe
00000380: b2ee fcbd 38ed a83e 377a c13d 6899 a3be
00000390: fe2c 5cbe 7eec 6b3e 85bb 1c3e 9602 bd3d
000003a0: 89ac a2be 26a4 8bbe 698b 5bbd 7912 603d
000003b0: 07ea 23bd e59a a83e 43dc babd fb26 37be
000003c0: dea9 693e 0dfb 48bc f552 babd 67d7 3cbe
000003d0: 91f1 a43d b4ab 1f3e 7757 333e 6416 8ebe
000003e0: b2ca fcbe 3964 823e df03 703e cd6c 143e
000003f0: 2f59 92be 36b8 d6be 0996 41be 80d2 f9be

model.2.bias f4 [128]
0.13535438 0.1352051 0.14116491 0.16111244 0.1806417 0.09735237 0.0641416 0.1359489
0.12921663 0.14204545 -0.3390439 0.1259637 -0.06672108 -0.036597632 0.07995593 -0.005459426
0.1158208 0.104184575 0.13965704 0.10481316 0.019735467 0.17741811 -0.051702082 -0.04269549
0.070653304 -0.06855206 -0.15672159 0.22969002 0.18716072 -0.084687054 0.17289172 -0.09592795
-0.1940955 0.10626849 0.099589 0.12886268 0.2587016 0.16571517 0.20920259 -0.15041843
-0.120642915 0.1974065 -0.012195912 0.167084 -0.02471836 0.07494083 0.15395585 0.19586723
0.11583551 0.07977527 -0.055629935 0.11650179 -0.036457073 -0.2801927 -0.15162238 0.15915243
0.083953574 0.19935367 0.13663727 0.29802325 0.03887884 0.080033556 0.30417937 0.10766235
0.10880065 -0.20042516 0.11858065 0.115351655 0.1078037 -0.14653699 0.17653118 -0.06470722
0.2819298 0.22515042 -0.30837417 -0.18409623 0.20977356 -0.35221633 0.16315992 -0.1056148
0.11675402 -0.064737216 -0.09276647 -0.15085924 0.18666093 0.13844706 -0.17016013 0.019767128
-0.036449734 0.03387224 -0.17204459 -0.2089482 0.030983338 -0.12420873 -0.17288357 -0.18279877
0.004818327 0.04725768 -0.15413857 0.2847448 -0.10608414 0.11384173 0.110114664 0.13712282
0.24040839 0.005063212 0.16372849 0.11371365 -0.12387716 -0.22359648 -0.12244066 0.2629384
0.14962773 0.060673546 0.08851743 0.114422314 0.13676101 0.09193967 0.036817458 0.16855797
0.048917037 0.11456167 0.18672156 -0.03051858 0.13131373 0.08093934 0.06141142 -0.01543439
00000000: 579a 0a3e 3573 0a3e 898d 103e a9fa 243e
00000010: 23fa 383e ae60 c73d ac5c 833d 3036 0b3e
00000020: 5d51 043e 5d74 113e 2997 adbe a1fc 003e
00000030: 10a5 88bd 66e7 15bd efbf a33d fce4 b2bb
00000040: 7533 ed3d b95e d53d 4102 0f3e 48a8 d63d
00000050: 46ac a13c 18ad 353e 90c5 53bd 77e1 2ebd
00000060: aeb2 903d 0665 8cbd a07b 20be dc33 6b3e
00000070: 0fa7 3f3e 6870 adbd 870a 313e e075 c4bd
00000080: f9c0 46be 4ba3 d93d 51f5 cb3d 94f4 033e
00000090: 8974 843e 3db1 293e 3439 563e 4a07 1abe
000000a0: a213 f7bd ee24 4a3e 5dd1 47bc 1118 2b3e
000000b0: 287e cabc 947a 993d 9aa6 1d3e 6b91 483e
000000c0: 2b3b ed3d 3761 a33d 37dc 63bd 7e98 ee3d
000000d0: 0354 15bd 6b75 8fbe e642 1bbe dbf8 223e
000000e0: daef ab3d 5e23 4c3e a4ea 0b3e 8196 983e
000000f0: 6b3f 1f3d a2e8 a33d 66bd 9b3e 147e dc3d
00000100: e0d2 de3d 413c 4dbe 69da f23d 7d3d ec3d
00000110: 30c8 dc3d cb0d 16be 97c4 343e 3885 84bd
00000120: 1a59 903e d58d 663e 38e3 9dbe b983 3cbe
00000130: e1ce 563e b355 b4be 6513 273e 924c d8bd
00000140: bb1c ef3d f294 84bd 59fc bdbd d87a 1abe
00000150: 0b24 3f3e 11c5 0d3e 753e 2ebe acee a13c
00000160: 514c 15bd 9ebd 0a3d 752c 30be 84f6 55be
00000170: c5d0 fd3c 2661 febd 6408 31be 9a2f 3bbe
00000180: 0ee3 9d3b 4591 413d 80d6 1dbe 12ca 913e
00000190: a442 d9bd da25 e93d cc83 e13d ed69 0c3e
000001a0: 9e2d 763e 4de9 a53b 71a8 273e b4e2 e83d
000001b0: 4fb3 fdbd 7af6 64be 2bc2 fabd dd9f 863e
000001c0: 0338 193e d384 783d a048 b53d 3f56 ea3d
000001d0: 140b 0c3e de4a bc3d e7cd 163d 769a 2c3e
000001e0: 3b5d 483d 4f9f ea3d f033 3f3e 1a02 fabc
000001f0: 1b77 063e 86c3 a53d 8b8a 7b3d 86e0 7cbc

model.4.weight f4 [5, 128]
0.9814299 0.28322735 -1.2293121 0.2598081 0.6676421 0.4990872 -0.23242387 0.09319618
0.5653658 -0.6487947 -0.95871484 0.80803406 -0.38723534 -0.9892157 0.051387567 -0.7251953
0.1597812 0.5503268 0.3182771 0.13861033 -0.77359533 0.98296416 -0.7528328 -0.49356136
-0.23898044 -0.53250474 -0.42579344 -0.009162889 0.77349555 -0.64823157 1.1415082 0.54404896
-0.5084535 0.13760391 -0.6594904 0.14719899 0.8037905 0.27906317 -1.1497774 -0.70714
-0.52767885 0.7322167 -0.6134933 0.79933214 0.11280967 -0.49084064 -0.8664709 0.9332536
0.6106742 0.18853417 -0.58021134 0.5666899 -0.6355521 -0.5769673 -0.7228514 0.6260098
0.09413878 0.64064944 0.8215509 0.72822446 0.2646918 0.00536257 0.36006337 0.20336923
0.2710659 -0.64389503 0.8178866 0.16106893 0.40860054 -0.7880522 0.4169347 -0.7485534
0.60514194 -0.12805708 -0.7928957 -0.74356353 -0.40438443 -0.87215334 0.98318243 -0.84007454
0.25147942 -0.6293883 -0.51192117 -0.7275348 0.9088505 0.20544788 -0.9577056 -0.8238251
-0.08110227 -0.16269593 -0.9294597 -0.39530125 -0.22450708 -0.9295108 -0.3119361 -0.28872636
-0.4784759 0.5185765 0.12671149 0.13910097 -0.5933921 0.18844804 0.08946551 0.29738432
-0.4618884 -0.37443736 0.14768405 0.16507055 -0.74716425 -0.6689202 -0.6699555 1.2155538
-0.45005345 0.61924165 0.13940981 0.22389285 0.8131959 0.09706832 0.4605754 0.66165394
-0.37802637 0.24153647 0.8160978 -0.8912249 0.29176685 0.46615818 0.6816218 -0.07823753
0.8660356 0.32059044 -1.3083156 0.12165621 0.68415326 0.3894099 -0.2006266 0.14461817
0.84512943 -0.66145444 -0.85290486 0.8153449 -0.44582862 -0.7910359 0.04543168 -0.4055576
0.15148409 0.6840135 0.25240847 0.08337635 -0.74434763 0.880182 -0.67395765 -0.5244841
-0.24888779 -0.61037034 -0.6285758 0.56870484 0.758213 -0.5734385 1.1084279 0.44891536
-0.46306282 0.19002876 -0.57370216 0.1277337 1.04352 0.050277412 -0.6190861 -0.5580402
-0.5726107 0.77688485 -0.6547231 0.7497777 0.17256005 -0.10211184 -0.79958117 0.76805586
0.5279063 0.29657435 -0.4283255 0.45549813 -0.6333282 -0.6239483 -0.7795307 0.61411035
0.1531398 0.0150258 0.70961607 0.9909227 0.20927618 0.034060646 0.54204124 0.1299703
0.2579883 -0.5614541 0.97143924 0.23049547 0.44435152 -0.71213096 0.4655097 -0.7637264
0.97996575 -0.35854983 -0.78390026 -0.75575227 -0.20375726 -0.8457875 0.81465006 -0.8433072
-0.14354108 -0.6033813 -0.47595617 -0.58219135 0.8784978 0.18240476 -0.7805857 -0.65733844
-0.084577955 -0.052866764 -0.6497749 -0.47167906 -0.13370696 -1.3419082 -0.5282747 -0.42295587
-0.49887678 0.4736973 0.4049908 0.16394094 -0.56037545 0.1901361 0.22544259 0.2659817
-0.29573628 -0.30246258 0.031146942 0.14294702 -0.55116546 -0.78638166 -0.46963266 0.8729712
-0.47495428 0.520614 0.1986198 0.2701837 0.99881226 0.3310247 -0.28680393 0.46815118
-0.3510499 0.13142498 0.80693 -0.83527535 0.08758564 0.47648028 0.3861665 0.124164954
00000000: fd3e 7b3f 2d03 913e 195a 9dbf 9105 853e
00000010: 98ea 2a3f 5c88 ff3e 8600 6ebe a4dd be3d
00000020: d0bb 103f 6917 26bf 566e 75bf 52db 4e3f
00000030: b643 c6be 3d3d 7dbf c57b 523d 66a6 39bf
00000040: af9d 233e 38e2 0c3f 37f5 a23e deef 0d3e
00000050: 580a 46bf 8aa3 7b3f a6b9 40bf 13b4 fcbe
00000060: 4ab7 74be 3b52 08bf 9901 dabe f11f 16bc
00000070: ce03 463f 81f2 25bf f11c 923f cb46 0b3f
00000080: 022a 02bf 0ae8 0c3e 5dd4 28bf 55bb 163e
00000090: 37c5 4d3f 5ee1 8e3e e82b 93bf 2107 35bf
000000a0: f615 07bf 8e72 3b3f e60d 1dbf 08a1 4c3f
000000b0: c208 e73d 774f fbbe 09d1 5dbf b5e9 6e3f
000000c0: 2555 1c3f 1a0f 413e bb88 14bf 9712 113f
000000d0: 8bb3 22bf 21b4 13bf ca0c 39bf 2e42 203f
000000e0: d5cb c03d 9a01 243f 2951 523f eb6c 3a3f
000000f0: af85 873e 7fb8 af3b 3a5a b83e 0640 503e
00000100: 26c9 8a3e 4ed6 24bf 0461 513f 41ef 243e
00000110: 1734 d13e cabd 49bf 7778 d53e 32a1 3fbf
00000120: 95ea 1a3f 6521 03be 36fb 4abf 2e5a 3ebf
00000130: 7a0b cfbe 7145 5fbf d8b1 7b3f 200f 57bf
00000140: e9c1 803e 971f 21bf 440d 03bf b83f 3abf
00000150: 6daa 683f ee60 523e 322c 75bf 34e6 52bf
00000160: f218 a6bd c399 26be 12f1 6dbf ed64 cabe
00000170: 2fe5 65be 6bf4 6dbf 17b6 9fbe f1d3 93be
00000180: cbfa f4be 6ec1 043f a8c0 013e 7c70 0e3e
00000190: 8be8 17bf 86f8 403e b139 b73d c242 983e
000001a0: a37c ecbe 41b6 bfbe 7d3a 173e 4108 293e
000001b0: 2846 3fbf 5b3e 2bbf 3482 2bbf 4497 9b3f
000001c0: 686d e6be 9f86 1e3f 72c1 0e3e 2b44 653e
000001d0: 9b2d 503f c1cb c63d 8ad0 eb3e 2762 293f
000001e0: ac8c c1be 5655 773e c9eb 503f 5127 64bf
000001f0: 7762 953e 49ac ee3e c47e 2e3f 003b a0bd
00000200: 82b4 5d3f 6e24 a43e e376 a7bf e426 f93d
00000210: ab24 2f3f bc60 c73e 0f71 4dbe c916 143e
00000220: 675a 583f 1455 29bf f957 5abf 72ba 503f
00000230: a643 e4be 5481 4abf 9216 3a3d 3fa5 cfbe
00000240: a51e 1b3e 821b 2f3f af3b 813e 38c1 aa3d
00000250: 918d 3ebf 9c53 613f 7d88 2cbf 9744 06bf
00000260: 71dc 7ebe 3b41 1cbf 58ea 20bf a496 113f
00000270: 3f1a 423f decc 12bf f7e0 8d3f 3cd8 e53e
00000280: 9216 edbe e696 423e 25de 12bf a0cc 023e
00000290: 1092 853f b0ef 4d3d 6d7c 1ebf b9db 0ebf
000002a0: 9d96 12bf ede1 463f ef9b 27bf 6ef1 3f3f
000002b0: 95b3 303e 0320 d1bd 5ab1 4cbf 4f9f 443f
000002c0: de24 073f 98d8 973e 7b4d dbbe 0d37 e93e
000002d0: cc21 22bf 13bb 1fbf 538f 47bf 5636 1d3f
000002e0: aed0 1c3e c62e 763c 66a9 353f 1cad 7d3f
000002f0: 7f4c 563e 2d83 0b3d 37c3 0a3f ef16 053e
00000300: 0b17 843e 75bb 0fbf 3eb0 783f 0107 6c3e
00000310: 0b82 e33e 374e 36bf 4a57 ee3e 9383 43bf
00000320: 09df 7a3f d893 b7be b0ad 48bf fb78 41bf
00000330: bea5 50be 8885 58bf e88c 503f fbe2 57bf
00000340: 6ffc 12be 3277 1abf 87b0 f3be 7e0a 15bf
00000350: 3be5 603f 50c8 3a3e 77d4 47bf 5547 28bf
00000360: 3537 adbd d28a 58bd a657 26bf eb7f f1be
00000370: 7aea 08be a6c3 abbf 033d 07bf ac8d d8be
00000380: c76c ffbe 7488 f23e f45a cf3e 22e0 273e
00000390: c474 0fbf 0ab3 423e 6cda 663e c12e 883e
000003a0: bf6a 97be 60dc 9abe df27 ff3c b460 123e
000003b0: 2e19 0dbf 4f50 49bf b173 f0be 0a7b 5f3f
000003c0: 352d f3be f646 053f fd62 4b3e 8555 8a3e
000003d0: 29b2 7f3f 127c a93e f7d7 92be 83b1 ef3e
000003e0: d0bc b3be 4594 063e f792 4e3f 9bd4 55bf
000003f0: 1a60 b33d 39f5 f33e 9eb7 c53e 324a fe3d

model.4.bias f4 [5]
0.26235867 -0.020286024 0.08352466 0.091585085 -0.050983693
00000000: e053 863e e02e a6bc fa0e ab3d f690 bb3d
00000010: 47d4 50bd
