map/log/simple_adversary_cond_elign_team/actor_2.pkl (torch, 95191 bytes, 6 tensors)

model.0.weight f4 [128, 47]
00000000: 5ecc 5abe 4ce2 e53d 4730 73be 1d4b 16bd
00000010: 2ebe 6f3e 3872 1cbd 029f d0bc adc8 813d
00000020: c572 2a3e e1b9 c43d 122b 50ba 29c8 89bf
00000030: 67ff 2ebf 91b0 6d3e 905a 803e 4d4f a7be
00000040: 9d86 013d 9030 5e3d bdf0 4f3e 7bf5 243e
00000050: 00eb 1b3f 593b 203e 977f 833e ae9a 30be
00000060: 925f 49be cee2 3c3e fe06 b03d 4be7 223e
00000070: 7a1b 873e b7e6 443c 0640 273e a126 b5bd
00000080: 5200 813e 93f9 983d 705d b53d 2c1a 5b3d
00000090: 940d d13d 7404 07be e37b 903d a3b0 a8bc
000000a0: 00de 943e 0266 253d f4f6 5e3d d998 fc3d
000000b0: 4a11 353c d466 c43e d4a8 20bf ed73 eabe
000000c0: 5c83 9fbe c216 3abc d05d 393d bc1f 1d3d
000000d0: c208 ba3d 3701 913c 5b5f c53c 2008 25ba
000000e0: 68f6 923c e980 fd3c 2c01 26bf 4a40 b1be
000000f0: 1055 fd3d 18c1 a53e 51a2 883f c836 1e3f
00000100: 0177 ef3b aaf9 663d ce03 88bd 1074 783c
00000110: 38c9 a63c 9374 823d 7544 72bd 6ffc c1bd
00000120: 3cd8 ee3d 8a7f d6bb 2729 5d3e 949b 1e3e
00000130: d25c f2bc b7da 44bc fbd7 4b3d 014e 73bb
00000140: c54a 9f3d 0bb8 59bc ddfc ab3c ac4b 3837
00000150: bf9f 723c dea6 38bd ddec 183d 83a1 adbc
00000160: 18c5 af3c 53a0 72bc 60b8 ebbc edeb 2abd
00000170: 9dd6 83bf f190 18bf e9bf 45bf d9f8 b9be
00000180: 2257 f0bc e07c 91be 24b1 a0be e9c6 69bd
00000190: b161 bcbd 3b5d 01be cffa 8e3d df6f 413d
000001a0: 6b52 f53c d11f 583d b072 c53e 7b4b 453e
000001b0: b8d1 0e3e d8f3 693f 8507 07bd dbf2 483e
000001c0: 3346 883e 5a1d aebe 2a39 e0bd 38e2 d63d
000001d0: 05ff 9bbc 8de1 ed3e ff0d 333c f889 8c3e
000001e0: b3d4 cfbd 55d4 a1bd 12fa ba3a 8b68 103e
000001f0: ff0b 13bd 2daf 133d 6a73 2dbe d8b7 0ebc
00000200: 9cad 143d 36a5 863e a11f 0abd 385a d03b
00000210: 7305 50bd 4669 e43c b96e 8fbe e861 dbbd
00000220: b5a6 45bc fd0d 8bbd 8b58 76be 6290 c63d
00000230: 780d 62bd ce98 9bbd 06d4 87bd adcd 8fbe
00000240: 6572 193e c440 523d 1952 9cbd 856f a6bc
00000250: 88cc 3b3d b0ca 903d 39ca 9a3d abc4 1a3e
00000260: ca5c 3ebf 3a4b 8c3d 62ec 7cbe 0d67 03bf
00000270: 9091 363f c7fd 2d3e 532c 00be 3420 b33d
00000280: 9a9e 6ebe 6e82 8e3e e708 b6bd 16b8 503d
00000290: d3b5 1bbe 7ad6 0c3d ce0c 4e3c 731e 75be
000002a0: 813e 73bd a53a 6a3e ef32 91bd f356 463e
000002b0: 1567 073b a17c 0fbe 72b1 393c 8406 7e3d
000002c0: a3e7 c33d 37e4 9439 a768 793e ee81 0cbd
000002d0: e818 83bd dabe ff3d eced a23d 65c1 ba3d
000002e0: 4e06 e2bc 6a1b 6cbd 8bfd 2ebf bcf4 5fbe
000002f0: 02e1 803e 05c0 6b3c 1604 0ebe 199b 2dbe
00000300: f774 413e 5433 59bc 8f4a f5bd eaea 31be
00000310: 81d0 1dbe db0a 51be 8e96 44be 04ac 15be
00000320: 969b 2f3e a047 4fbd 4c34 95be b753 a43e
00000330: f225 7a3d c10b 0d3e 97f8 53be b674 803d
00000340: 63df 663d 42f2 e43d 4c8e c9bd 509c b83d
00000350: c846 9c3d c45f 6d3d 1395 c2bd 4c28 ffbe
00000360: 31d2 8e3e dff2 213d 89ee 293e d148 173e
00000370: 365b a9be 9509 d73d 636f 8b3e 1cac 153d
00000380: 2e9a 8dbe 1898 59be 861f 66be e4fe 823e
00000390: fd87 74be 7202 a63d b685 afbe 3cf1 913e
000003a0: 7d94 e8bd c739 83be 50cd adbd 2d27 b6be
000003b0: fe49 51be 8055 31be 4877 b53d 3720 08be
000003c0: 15ac a4bd 1397 72bd c7d3 61bd 3326 56bd
000003d0: 17d9 35be 098f acbd ad6a 29bf 57b2 c53e
000003e0: b292 fdbd f25b 3ebf b6b9 50bf 0509 3b3e
000003f0: 49b5 023e 3fd6 47be 09a0 b93e 706a 06be
-0.21367022 0.11224803 -0.23748885 -0.036692727 0.23412392 -0.038194865 -0.025466446 0.06337104
0.16645344 0.09605766 -0.0007940988 -1.0764209 -0.68358463 0.23211886 0.25069094 -0.3267769
0.031622518 0.05424553 0.20306678 0.16109268 0.60905457 0.1564764 0.2568328 -0.17246506
-0.19665363 0.18445894 0.08595084 0.15908544 0.2638815 0.012017897 0.16333017 -0.088452585
0.25195557 0.074694775 0.088557124 0.053491756 0.10207668 -0.13185292 0.070548795 -0.02059204
0.29075623 0.040380485 0.05443473 0.12333841 0.011051485 0.38359702 -0.6275761 -0.4579157
-0.31154907 -0.011357965 0.045255482 0.038360342 0.09083702 0.017700775 0.02409332 -0.0006295461
0.017939761 0.030945258 -0.6484554 -0.3461936 0.1236974 0.3237388 1.0674535 0.6180234
0.0073078875 0.056390442 -0.06641351 0.01516439 0.02035962 0.06369891 -0.059147317 -0.09471976
0.11662337 -0.0065459656 0.2159773 0.15489036 -0.029585276 -0.012015036 0.049766522 -0.0037125351
0.07777933 -0.013288508 0.020994598 1.0984873e-05 0.014808594 -0.045081012 0.037335265 -0.021195179
0.021456286 -0.014808732 -0.02877444 -0.041728903 -1.029987 -0.59596163 -0.77245957 -0.36322668
-0.029338423 -0.28415585 -0.31385148 -0.05707446 -0.09198321 -0.12633221 0.06981432 0.04722583
0.029946527 0.052764717 0.38564062 0.19267075 0.13947189 0.913877 -0.032966156 0.19623892
0.26616058 -0.34006768 -0.10948403 0.104923666 -0.019042501 0.46461144 0.01092863 0.27449012
-0.10147991 -0.07901827 0.0014265201 0.1410238 -0.035900112 0.036055733 -0.16938558 -0.008710824
0.03629838 0.2629792 -0.03372157 0.006358411 -0.050786447 0.02788223 -0.28014162 -0.107120335
-0.012063672 -0.067897774 -0.24057214 0.096955076 -0.055188626 -0.075975046 -0.06632237 -0.28086606
0.14985044 0.051331297 -0.076328464 -0.020316849 0.045849353 0.070699096 0.07558102 0.15114085
-0.74360335 0.06850286 -0.24699548 -0.5132912 0.7131586 0.1699134 -0.12516908 0.08746377
-0.23302689 0.27833885 -0.08888417 0.050956808 -0.15206079 0.03438423 0.012576295 -0.23937397
-0.05938578 0.22873934 -0.07089793 0.19369106 0.0020660807 -0.14012386 0.01133381 0.062017933
0.095656656 0.00028398793 0.24356328 -0.034303598 -0.06401235 0.12487574 0.07955536 0.09118918
-0.027590897 -0.05764333 -0.68355626 -0.21870703 0.25171667 0.014389043 -0.13868746 -0.16953696
0.18892275 -0.0132568665 -0.119771115 -0.17374769 -0.15411569 -0.20414297 -0.19198057 -0.146164
0.17149195 -0.050605416 -0.29141462 0.3209512 0.061071344 0.13774015 -0.20700298 0.06272261
0.056365382 0.111790195 -0.09841594 0.09014189 0.07630688 0.057952657 -0.0950109 -0.49835432
0.27894738 0.03953826 0.165949 0.14773871 -0.330774 0.104998745 0.2723342 0.03654109
-0.27656692 -0.21249425 -0.22472963 0.2558509 -0.2388 0.08105935 -0.342817 0.2850436
-0.11356447 -0.25630018 -0.08486426 -0.35576764 -0.20438382 -0.17317772 0.08860642 -0.13293539
-0.080406345 -0.059226107 -0.055133607 -0.052282523 -0.17758594 -0.08425719 -0.661784 0.38612625
-0.123814955 -0.7435905 -0.8153337 0.1826516 0.12764467 -0.19515322 0.3625491 -0.1312654

model.0.bias f4 [128]
00000000: 7c3f 44be 7728 833d 164d 263d 540d 35be
00000010: 46c1 bfbd cb1b 93bd d0b5 823d a717 a6bc
00000020: 2a72 33be ce28 033d 76f0 febd 45ee 50be
00000030: b004 92bd db5e 8a3c 4365 95bd fde5 84be
00000040: 29b7 f7bd d7d4 583d 2bc2 ebbc c467 c0b9
00000050: 217e 30be f9cd 2ebe 5304 e7bd 6eea 05bd
00000060: 06af e43d 9001 e7bd 56cb 82bd 54c5 dfbd
00000070: 779c 1fbd 88ba 62be e9a8 41be cb7e 81bd
00000080: b477 7bbe b83a 35be a285 c0bd 5938 dcbd
00000090: bc21 bbbc f9be 4fbe 17bd 21be 8760 f4bd
000000a0: d7a8 d6bc 4272 043d 0c82 b63d 1f40 abbd
000000b0: 981a 0fbe c3da cdbd 59e2 6cbe c573 d9bd
000000c0: 16eb 143d 8afd acbd 43f5 57be 6222 15be
000000d0: 6c95 063c f3d5 ff3d 8ba9 cf3b 3a06 02be
000000e0: 0c71 97bd 234e 35bd 22a3 2abe a7ee 7e3d
000000f0: 281a 4e3e 6786 1ebe de92 8d3c 47c9 85be
00000100: 79d6 41be 74e6 8fbe 9f4a 69be cae6 c0bd
00000110: cba0 7abe a680 07be 4d68 c7bd ff91 76be
00000120: a114 36be 0fef c3bc fa48 37be 2f3a 6e3c
00000130: 1f29 1f3d 57a3 0f3d 541d 09be ba36 3ebe
00000140: 1f29 d1bc 5fe8 813d 775a 96bd 1b86 71bd
00000150: 4886 943b 1869 70bd 2e5f d9bd 3159 d1bd
00000160: 6c12 f4bc 2b46 16be 8f76 39bd fa93 ccbd
00000170: adf1 96bd 01a4 49bd 2d30 7bbd a344 60be
00000180: 8e76 85bd a496 c7bd 1b92 15be acb7 d0bd
00000190: 3d5f 09bc 0327 143d 45da b33a 9c71 a0bb
000001a0: 9cf5 563c 520f 87bd e339 a0bd c2fc e5bc
000001b0: 1299 083e 1f54 743c bdd3 05bd b2ed bcbd
000001c0: 2461 d9bd d98a 22be 2e73 43be 0abe f6bd
000001d0: dbbd a13d b63a a3bd 7a40 27be 0c58 70be
000001e0: 7f76 47bd 304f 1ebe fc54 f9bd 67d2 a5be
000001f0: 994d 10bd 28bd 9abc 147f 62be ee84 4a3e
-0.19164842 0.064042024 0.04060086 -0.17680866 -0.09363036 -0.071830355 0.06382334 -0.02027495
-0.17524019 0.032021336 -0.12448208 -0.20403393 -0.071298 0.016890934 -0.07294705 -0.25956717
-0.12095482 0.052937355 -0.02877911 -0.00036698405 -0.17235614 -0.1707076 -0.11280122 -0.032694273
0.111661956 -0.11279595 -0.063864395 -0.10926309 -0.038967576 -0.22141469 -0.1891209 -0.06323012
-0.24557382 -0.1769818 -0.094004884 -0.10752935 -0.022843234 -0.20287694 -0.15794788 -0.11932474
-0.026203556 0.032335527 0.08911523 -0.083618395 -0.13974988 -0.10051491 -0.2313322 -0.106177844
0.036357008 -0.08446796 -0.21089654 -0.14563897 0.008214336 0.124919794 0.00633735 -0.12697688
-0.07394609 -0.04426397 -0.16663793 0.062239315 0.20127165 -0.15480958 0.017281946 -0.26130125
-0.18929471 -0.2810551 -0.22782372 -0.094190195 -0.244754 -0.13232669 -0.09736691 -0.2407913
-0.17781307 -0.023917703 -0.17898932 0.014540239 0.038857576 0.035067882 -0.13390094 -0.18575564
-0.025532303 0.063431494 -0.073414735 -0.058965784 0.004532609 -0.058693975 -0.10613857 -0.1022209
-0.02979394 -0.14675204 -0.045279082 -0.09989162 -0.07370315 -0.049228672 -0.06132524 -0.21901183
-0.06516753 -0.09745529 -0.14606516 -0.10191283 -0.008384523 0.036170017 0.0013721666 -0.004896356
0.013120081 -0.06594719 -0.07823541 -0.028074626 0.13339642 0.014912634 -0.032672632 -0.09225024
-0.10614231 -0.15873279 -0.19086906 -0.12047966 0.0789754 -0.079701826 -0.1633319 -0.23471087
-0.04869699 -0.15459895 -0.121744126 -0.32387087 -0.035230253 -0.018889025 -0.22118789 0.19777271

model.2.weight f4 [128, 128]
00000000: 0e56 fdbc d96e 23bf 98ec 12bd f321 12bf
00000010: 7f35 a63d c05a 853d f222 66bf 2736 31bb
00000020: d3fb dcbc 1b8f cfbd c7cb a4bd 528d 543e
00000030: 8974 9f3e 3ced 5f3d 103f df3d 24d8 b7be
00000040: ba20 cebe fa52 783e b3de 9abb f056 24bd
00000050: 0f1f 963d ad81 8fbe 2842 6d3e 889f 49bf
00000060: 39a8 123e 57eb 4c3e d61d 56bf e11e a33e
00000070: 9dcf 72bc 6fab edbb fafd d2be 9591 7d3e
00000080: 095a 7dbb 305c 0abe 471c 863e 96d8 173e
00000090: 433a 043f 3fb7 b6bd eb91 58be 3f91 b63e
000000a0: 8e60 943e c21b 44bf c1e2 5bbe 3073 9dbd
000000b0: bfda 00be 0e6c 863e 2edd 133e 85e3 9d3e
000000c0: ef78 3dbe 6f3f 0abd 5092 adbe f3bc 25bd
000000d0: a93a 78bf cb85 4abe 0b3b e3bd 1c53 63bf
000000e0: 7619 54bc 5005 913e ed9a 833e b699 94bb
000000f0: a229 bd3c 4be5 ad3d ffbb 473d fe9d b7be
00000100: 7d40 32bf 8ebe 433e 38c8 73bd 365b 483e
00000110: 41a5 ea3d 4f7f 0dbe 17a5 9fbd 767c e6bd
00000120: 1764 673d 5e08 aa3e 26e2 163c f5c9 253e
00000130: e49b 923e 2141 11be 8278 d93e 1fc8 f9be
00000140: 78e1 d63c f91e f33e 995c a03d 8c0c 003e
00000150: d951 82bf a927 263c 2a97 b53d d4cc 95be
00000160: 4d58 993e a260 0a3e 6184 c13e 94fb 83bd
00000170: 7a46 67be a16a 00be b6a7 d03d 73e0 933c
00000180: 4429 98bd ab9d 15be fd65 553c c68d 69be
00000190: 0910 0ebc b69b 85bd db22 f73c 3887 b73e
000001a0: a3ec ff3b 6f1a 593d ad0a 003d 3b0d c3bd
000001b0: 30fa 9dbe 146d bf3e ba59 193e da20 a4bd
000001c0: c41e 8fbe f9d3 cd3e b213 f83d 2d2a d6bd
000001d0: 39a5 a03e f56f 90be d308 bb3d 6c00 9a3e
000001e0: 89cd 6abd c658 20bf 238d da3e 278a 1bbd
000001f0: 9d9b 33bd 3730 9bbe d6f9 b13d b74a 853e
00000200: 45c2 e5be 3ac4 c5be 70e6 383e caa8 d23c
00000210: 7a23 6d3e 428c 52bf 9e1e 17bf 22fb 293c
00000220: 5218 873e eaf1 e53d 6b3b f6bd 830c cabe
00000230: 94a0 9a3e 00f2 e93e 07f1 25bf bf90 64be
00000240: 6d5a babe 26fe 083f 72ff 12be 85c3 8e3e
00000250: 1aa3 af3e f1f8 bc3d a582 e3be b6b2 90be
00000260: c79f 0a3e 7f97 ccbe e604 11be deb9 25bc
00000270: 3f1f c5be adcc 093d 6cc2 023e 6d46 0c3e
00000280: 590a 2cbf b71b 07bf 005f 49bf 13a6 c23e
00000290: 44fa 51be 2304 aabe a5a8 a9be d734 3f3e
000002a0: d487 283c 42de e73e fbef a5be d04b d3be
000002b0: 215b 99bd 6309 33be 5e09 7abe b83b 14be
000002c0: bf15 e7be 9106 42bf 5eca 05bf f394 82bd
000002d0: 8a87 0dbf 6cc1 a23e 55d7 eabe 512f 3dbf
000002e0: 3e2b 95be 8988 afbd 74e4 97be cd34 64be
000002f0: 8f74 b13e 6382 2dbe a97d 353e c2f6 14bf
00000300: 062d 183e 9446 24be 3baf d7bc 73f8 a13e
00000310: 7af5 12bf f7b3 84be 35eb 7dbe 82fc 26be
00000320: fa6b adbe b6dd cbbe 67c4 0cbe c427 01bd
00000330: 07cf 2bbe 90c7 81bf b55b c5bd 93c1 d33e
00000340: e76e 7fbe e9e1 ee3e 4630 17be e98e d2be
00000350: 6882 f63c 9cf3 21bf ce67 a43d 6cc8 54bf
00000360: 42c3 113e 4d91 59be 0925 7cbe 61d4 ec3e
00000370: c177 0abe fff8 a43e 09d6 1fbf 5187 443e
00000380: 5ae4 4dbe 36b9 003f 12ce 86bb 1411 5c3d
00000390: 8c58 2dbe dcaa 083d db09 6f3e 74ea a5be
000003a0: 996b c5be 8563 1d3a 435d febd 2ece fdbe
000003b0: 0b35 81bf d19f 7c3d 0ce6 8b3e b7fe 053e
000003c0: 4e59 d0be ac2e eebe 2f93 083e 64f5 34bd
000003d0: 6241 493e 9a13 e5bc 93d8 8b3d 81d2 3ebe
000003e0: 0dc0 21bf b00c d13e 1bb6 4cbe bb40 17be
000003f0: 22aa 04bc 6766 ae3c 8ce5 fcbe df71 d43d
-0.030924823 -0.63841015 -0.035870165 -0.5708305 0.08115672 0.0651145 -0.8989707 -0.0027040334
-0.026975548 -0.10134717 -0.0804668 0.20757034 0.31143597 0.054669604 0.109007 -0.3590709
-0.40259343 0.24250403 -0.004726255 -0.040121973 0.07330143 -0.28028622 0.23169768 -0.7875905
0.14321984 0.2001165 -0.83639276 0.31859496 -0.014820007 -0.0072531025 -0.41209394 0.24762566
-0.0038658401 -0.13511729 0.2619345 0.14828715 0.516514 -0.0892167 -0.21149413 0.3565769
0.28979915 -0.76604855 -0.21473219 -0.07687986 -0.12583445 0.26254314 0.14439842 0.30837646
-0.18503164 -0.0337519 -0.3390069 -0.0404634 -0.9696451 -0.197776 -0.11095246 -0.8879869
-0.0129455235 0.28324366 0.25704136 -0.0045349253 0.023091141 0.08491 0.04876327 -0.35862726
-0.6962965 0.1911566 -0.059517115 0.19566044 0.11457301 -0.13818096 -0.0779516 -0.11254208
0.056491937 0.3320951 0.009209191 0.16190322 0.2863456 -0.14185001 0.42474753 -0.48785493
0.026230559 0.47484568 0.078301616 0.12504786 -1.0181228 0.010141292 0.08866723 -0.29257834
0.2995018 0.13513425 0.3779631 -0.06444469 -0.22585478 -0.12540676 0.10188238 0.018051362
-0.07429746 -0.14610927 0.013024804 -0.22807989 -0.008670815 -0.0652384 0.030167988 0.3584535
0.0078101917 0.053003725 0.03126018 -0.09524008 -0.3085494 0.37387908 0.14975634 -0.080140784
-0.2795316 0.40200785 0.121131316 -0.10457263 0.31376055 -0.28210416 0.091325425 0.30078447
-0.05732492 -0.6263546 0.42685804 -0.03797355 -0.043849576 -0.30310223 0.086902305 0.26033565
-0.44874778 -0.3862627 0.18056655 0.02571525 0.23158064 -0.82245266 -0.59031093 0.010374816
0.26385742 0.11227782 -0.12023052 -0.3946267 0.30200636 0.45692444 -0.64820904 -0.22320841
-0.36397114 0.535128 -0.14355257 0.27883545 0.34304124 0.09227169 -0.4443561 -0.28261346
0.13537513 -0.39959332 -0.14162025 -0.010115115 -0.385004 0.03364246 0.12769479 0.1369874
-0.6720329 -0.52776664 -0.78660583 0.3801733 -0.20505625 -0.3320628 -0.33136478 0.186725
0.01028629 0.45286757 -0.32409653 -0.41268778 -0.074880846 -0.1748405 -0.24417636 -0.14475906
-0.45133778 -0.7579127 -0.5226191 -0.06376066 -0.5528494 0.31788194 -0.4586741 -0.73900324
-0.29134554 -0.08570964 -0.29666483 -0.22285767 0.3465924 -0.1694427 0.17723717 -0.5818902
0.14860925 -0.16042548 -0.026328674 0.31634864 -0.5740582 -0.25918552 -0.24796756 -0.16307262
-0.33871442 -0.3981759 -0.13746797 -0.031532064 -0.16778193 -1.0139027 -0.09636632 0.41358623
-0.2494465 0.4665673 -0.14764509 -0.41124657 0.03009148 -0.63262343 0.08027612 -0.8311832
0.14234641 -0.21246834 -0.24623503 0.46255782 -0.13522245 0.3222122 -0.62435967 0.19192244
-0.2010664 0.5028261 -0.004113921 0.053727224 -0.16928309 0.03336607 0.23343603 -0.32405436
-0.38558653 0.0006003904 -0.12420132 -0.49571365 -1.0094312 0.06167585 0.2732395 0.13085447
-0.40693134 -0.46519983 0.13337396 -0.044179335 0.19653848 -0.027963448 0.06828418 -0.18634988
-0.6318367 0.40829992 -0.19991343 -0.14770786 -0.008097203 0.021289064 -0.4939388 0.10373282

model.2.bias f4 [128]
00000000: 8003 b53d eb4e 9c3e ffcc bf3c 008b 5a3e
00000010: f2c5 743d 67eb 2cbb 6a00 db39 7be4 7dbe
00000020: 283b a3bd bf05 be3e bc0d 553e 485d 6e3d
00000030: 9c65 6c3e 4afd 233e 9b76 953e d442 7e3d
00000040: e0b5 e83b c210 7b3e 1024 36be 6d0c 223d
00000050: a25e 573d a5bf 083e fae8 81bd 9e05 10bd
00000060: f933 2dbe 2eb6 b43e a1e6 823d 9995 45bd
00000070: c9ad e43e 9cbd cb3e 77a8 0d3d dd54 76bd
00000080: d277 eb3d f979 023e b663 0e3d ec60 f83d
00000090: ba9d ef3d efac 703e b120 913e 1bbd 523d
000000a0: 15ae abbc d9df 943e 91f6 0c3e 1b8d 613e
000000b0: 0c20 5d3d 0560 09be cc83 5fbc 7185 a23e
000000c0: b7b6 c93e 14a7 1abc 7210 b13e 3dd7 243e
000000d0: 10c0 ab3c 236f 8b3e bfa3 003e 393b dfbc
000000e0: b85d 54bd 0e30 dfbd dec8 3f3e 6bfa efbd
000000f0: 892c 873e 67d0 b8bd 667d 2b3e 345d 9fbe
00000100: 895e 65bd 6e1f 9d3e 5fbb 20bd 080b a53c
00000110: 818c 573e 645e bf3d 4688 5a3d b8c3 ca3d
00000120: 7d78 9d3e 46c7 743e 4d8b 1e3e 685e 843e
00000130: 4b8a bd3e f316 cf3e 32ad f83d 3e76 86be
00000140: 1b76 0fbe 32be f53d aecc 323d ff8c 303e
00000150: 04e0 233e 3fb6 823e 9149 86bd 7487 adbd
00000160: 3c79 783d 5e46 123d 651b 003e c12c 1e3e
00000170: b9b9 5bbe ee8b cebd 21dc 17be d350 0bbe
00000180: d289 663d 2c93 843e c4f0 f43c 2ef2 c93e
00000190: bd96 453e dbbf 4a3e c2d1 ba3e 81af 893e
000001a0: 0c58 b03d 0857 163e a49d ac3e 08f6 a33d
000001b0: 4b64 acbd 670c eabd b248 59bc 8d2e c63e
000001c0: bce4 54bd fd51 c7bc 6e1c 9ebd d7e4 fabe
000001d0: 9f0c 163e 02aa 2b3d d11a 173e 22e7 bb3d
000001e0: 9742 a53e c323 48bb e1c8 ad3e 33b5 913e
000001f0: 1122 353e 6a10 8e3e 5f8f 2a3d 7edd c4bd
0.08838558 0.3052896 0.02341318 0.21342087 0.059759088 -0.0026385428 0.00041771244 -0.2479419
-0.079702675 0.3711376 0.2080602 0.05819443 0.23085636 0.16014591 0.2919205 0.06207545
0.0071017593 0.24518111 -0.17787194 0.03956263 0.052580483 0.13354357 -0.06343265 -0.035161607
-0.16914357 0.35295242 0.06391645 -0.04823837 0.44663838 0.39793098 0.03458449 -0.060139526
0.11497463 0.12741841 0.03476306 0.121278614 0.11700006 0.23503469 0.28345254 0.051449876
-0.020957032 0.29077032 0.13765933 0.22026484 0.05398564 -0.13415535 -0.013642263 0.31742433
0.39397213 -0.009439249 0.3458286 0.16097732 0.020965606 0.27233228 0.12562464 -0.02724992
-0.05184719 -0.108978376 0.18728969 -0.11717685 0.26401165 -0.090241246 0.16747054 -0.31125796
-0.05599836 0.3068804 -0.03924119 0.020146862 0.21049692 0.093441755 0.053352617 0.09900612
0.30755988 0.23904142 0.15482827 0.25853276 0.37019572 0.40447196 0.121424094 -0.26262087
-0.14009897 0.119991675 0.04365223 0.17241286 0.16003424 0.25529668 -0.065570004 -0.08473101
0.060662493 0.03571164 0.1251045 0.1544676 -0.21457566 -0.10085283 -0.14830066 -0.1360505
0.05628378 0.25893533 0.029899962 0.3944258 0.19295783 0.1979975 0.36488158 0.2689171
0.086105436 0.14681637 0.3371402 0.08005911 -0.08417567 -0.11428147 -0.013261961 0.3870739
-0.05197595 -0.024331087 -0.07720266 -0.49002716 0.14653252 0.04191018 0.14756323 0.091749445
0.32277367 -0.0030538894 0.3394232 0.28458557 0.17688777 0.27746898 0.041640636 -0.09612559

model.4.weight f4 [5, 128]
00000000: 5ac9 1b3e 667c 91be 44f4 26be 5f8b f73d
00000010: 45a5 1bbe 1828 903d f7dd 32bf 08fd 043d
00000020: d207 54be eca4 b83e 7099 4e3d 960d 1ebd
00000030: 52cf abbe b57d b93c 3660 dbbd 4adc 213e
00000040: 710b 8d3d 7fe7 aabd 2864 e63e 220b 19be
00000050: 2745 e43d 6e83 29be 5a6a a8be 7797 39be
00000060: b8b0 afbe 0013 12be 05b2 a73e a758 bdbc
00000070: 4936 d8be 5d89 29be 4a53 ad3e 223c c23c
00000080: 535b f6be ad87 da3c 6e79 803d 19e3 40bd
00000090: 1f3a b3be 6bdc 8fba 6d7f 133e c3ee 29bd
000000a0: cdbd 21be 8586 6f3d af76 b83c 8ae5 cebd
000000b0: 7d77 aa3e 37fc 83be 550e 0abe e957 28bd
000000c0: ad01 02bf 5e38 013e eb3a 84be 59f5 003e
000000d0: 1bbe c83c cdd0 bcbe 8eb8 85be ff8d 513d
000000e0: 9120 49bd 625c 06be 86d3 dcbe 31c6 72be
000000f0: f574 5bbe 45bb dd3d cec4 3bbe 6c04 083e
00000100: dd44 a93d e0fb 90be 4611 d1be 4be5 5dbe
00000110: 6e96 ecbe 9747 a4be cbbe 32be cbae 76be
00000120: add3 06bf 8dfb a8be cd33 4c3e 5789 48be
00000130: 55e2 903d 2c92 8f3e 2a6c 66be 96c1 9bbd
00000140: c2ed 1bbe 39c1 6e3e 8bdb 3cbe 0087 be3d
00000150: 04df a63d bd32 56be 82f8 4abe c0db 843e
00000160: 83e6 e0bd d81c bdbe 96e9 2abd 172b 42bd
00000170: a783 dbbd e58b 8a3e 78ac 5dbe fa21 ce3e
00000180: e647 11be 8c96 3fbe c1e4 86be e2dd 53bd
00000190: 4168 2ebe 489f acbc 821e 89be 1741 34bc
000001a0: 5d9b 883e 4445 00be 640f 133d bf9c ff3d
000001b0: f76f 093d 8ba6 86bc c209 753d 254b b13e
000001c0: 4291 943d d4f4 0f3d 914d febb 3770 2dbd
000001d0: afe0 e7bd 5980 1bbc 60d8 963c 3a18 7a3e
000001e0: 56fc 34bf 3c5e 913e 9a70 b7bd d9f9 f2be
000001f0: 4fd9 07bf f970 4c3e 60d0 b0be b81e 57be
00000200: d213 b6be 227b 473e b211 e93e 2e21 ebbc
00000210: 11e0 b63e e4ff a93d 96e6 0a3e 687b acbe
00000220: 3f2e b83e 50ea 07bf aa2d 183f 4b87 07bf
00000230: 50d8 7a3e 08f7 0b3f 18c2 093f 4515 cebd
00000240: 0d31 0ebf d7fc c43e 790f 77be 43f4 8f3e
00000250: bb4d c83e 071d 63bf c91d 943d 92d2 57bd
00000260: 1ebf cc3e bcc1 6cbe 3d28 e5be 5201 11be
00000270: 7060 fb3e 3716 f5be 2f8e 133f cbdd 9a3e
00000280: 3f49 59be e160 99be 1f2f 813e 82ec 26be
00000290: 662e 89bf 7b7d d8be 73f1 55bf c5d7 823e
000002a0: 5208 2ebf 1bd8 273f 2521 8cbe 96fb 143f
000002b0: c407 b53d 8c89 b1be 0c7e 123e 1932 df3e
000002c0: 9138 33bf 1f2f 44bf 1c8a 223f 3ed1 f23e
000002d0: 58b2 e83e 6396 babe 29cd 3b3e 4818 cb3d
000002e0: 9f07 39be 838b 433e 410e 423e 1f71 233d
000002f0: 8187 3c3f 9bea 773e e900 e2be 5bd6 163d
00000300: 916a 8e3e ccbc 61bf 2c44 35bf 64c4 5abf
00000310: a8c9 c13e 68c3 933e 4087 9cbe e2f4 ffbc
00000320: 0991 bd3e 93d2 633e cc91 20bf 7a38 13be
00000330: f57a 943e 2386 90be 3497 2fbf 41ec 1f3e
00000340: 5233 b8be 7a6d 58bb fae1 51bf 9f5a 853e
00000350: 3e18 b33e bc81 5fbf 0be8 0ebf b7ec 1b3e
00000360: 4e4d 8b3c 95b0 863e 54b4 ffbe 01c7 24bf
00000370: ad05 fcbe cbcc d7be c239 acbe c078 6ebd
00000380: 8a3f b63e f2e8 1bbf 79da 10bf 585f 69bf
00000390: 6cb2 123f 99e2 06bf 912d b93e 2c6e dbbe
000003a0: e6cd a9be b8fb 04be fde9 c4bd 4389 a53b
000003b0: 983a 2cbe 2ab6 33bf 6279 913e 506e e33e
000003c0: 201d 243e d57a d3be aa8d 8abd f2a3 3ebe
000003d0: 436a dd3e 42bf 31be 53db f6be 0cef 763e
000003e0: 4ea3 d4be 109b 983e aecb 38be c502 63bf
000003f0: a9ee 4e3e 611e 2abf 6546 993e 0da7 e23b
0.15213528 -0.2841522 -0.16304117 0.1208713 -0.15199764 0.07038897 -0.6986994 0.032467872
-0.20706108 0.36063325 0.0504393 -0.038587175 -0.3355661 0.02264295 -0.1071171 0.1580669
0.06886948 -0.083449356 0.44998288 -0.14945653 0.11146002 -0.16554043 -0.3289364 -0.18124186
-0.34314513 -0.1426506 0.32753006 -0.023113562 -0.42228916 -0.16556306 0.33852607 0.023710314
-0.4811655 0.026676023 0.06273161 -0.047091577 -0.3500528 -0.0010975724 0.14404078 -0.041487467
-0.1579506 0.058477897 0.02251753 -0.10102375 0.33294287 -0.25778362 -0.1348203 -0.041099463
-0.5078381 0.12619159 -0.258262 0.12593593 0.024504712 -0.36878052 -0.26117367 0.05116081
-0.049103323 -0.13121179 -0.4313013 -0.23708417 -0.21431334 0.108267345 -0.18336794 0.13282937
0.08265088 -0.28317165 -0.4083349 -0.216695 -0.4620852 -0.3208587 -0.17455594 -0.24090116
-0.5266674 -0.33004418 0.19941635 -0.19583641 0.070744194 0.28041208 -0.22502199 -0.07605283
-0.15227416 0.23315896 -0.18443124 0.09303093 0.081480056 -0.20917793 -0.1982136 0.25948906
-0.109814666 -0.3693607 -0.04172667 -0.047404375 -0.1071847 0.27059856 -0.21647823 0.40260297
-0.14187583 -0.18709773 -0.263464 -0.051725276 -0.17031957 -0.021072045 -0.26781088 -0.011001847
0.26681033 -0.12526423 0.03590335 0.12481069 0.033554044 -0.016436836 0.05982376 0.34627643
0.07254268 0.035145596 -0.0077607115 -0.042343345 -0.11322152 -0.00949105 0.018413723 0.24423304
-0.70697534 0.28392208 -0.08957024 -0.47456244 -0.5306596 0.1996497 -0.34533978 -0.21007812
-0.35561997 0.19480565 0.45521313 -0.028702345 0.35717824 0.083007604 0.13564524 -0.33687901
0.35972783 -0.5309191 0.5944468 -0.52940816 0.24496579 0.54673815 0.5381179 -0.100626506
-0.55543596 0.38474151 -0.24126996 0.28116044 0.39121804 -0.8871617 0.072322436 -0.05269105
0.3998956 -0.23120779 -0.44757262 -0.1416066 0.49097013 -0.4786851 0.5763883 0.3024734
-0.21219347 -0.29956725 0.25231263 -0.16301158 -1.0717285 -0.42283234 -0.8357155 0.25555244
-0.67981446 0.65564126 -0.27369037 0.5819639 0.08839372 -0.34675252 0.14305896 0.4359291
-0.7000819 -0.766344 0.6349199 0.47425264 0.45448565 -0.3644286 0.18339981 0.09916741
-0.18069313 0.19096188 0.1895075 0.039902803 0.7364426 0.24210589 -0.4414132 0.03682552
0.2781568 -0.88178706 -0.7080715 -0.8545592 0.37849164 0.2886002 -0.30571938 -0.031244699
0.37024716 0.22248296 -0.6272247 -0.14377013 0.2900006 -0.28227338 -0.6859009 0.15617467
-0.35976654 -0.0033024237 -0.8198544 0.260457 0.34979433 -0.87307334 -0.5582282 0.15227018
0.017004635 0.26306596 -0.49942267 -0.64366156 -0.4922308 -0.42148432 -0.33637816 -0.058220625
0.3559535 -0.6090232 -0.5658336 -0.9116111 0.573035 -0.5268951 0.36167577 -0.42857492
-0.331649 -0.12986648 -0.09614942 0.0050517633 -0.16819227 -0.70199835 0.2841292 0.444201
0.16026735 -0.4130465 -0.067653015 -0.18617228 0.43245134 -0.17358115 -0.48214206 0.24114627
-0.41530842 0.29805803 -0.18046448 -0.886761 0.20208229 -0.66452605 0.2993652 0.0069168867

model.4.bias f4 [5]
00000000: d35d d03d a3ad be3d a2dd a73c a3ef 40be
00000010: 8c97 803d
0.101741455 0.09310462 0.020491425 -0.18841414 0.06278905
