map/log/simple_tag_cond_elign_team/final_critic1_4.pkl (torch, 94679 bytes, 6 tensors)

model.0.weight f4 [128, 46]
00000000: 798e f0be e6e0 bdbc 7920 f7be 7f00 93bd
00000010: 4283 983e e51f e7bc 94d2 8d3b 2501 ca3c
00000020: 841c 09bc b124 2dbd 9a80 6d3f b6cb 833e
00000030: 817e 9dbc a39b 243b f485 223f e61c 9e3e
00000040: d6aa d1bb acd5 fd3c 1180 66bf 8cac a2be
00000050: 5066 213e 3e06 86bd 7459 8b3d ac81 083d
00000060: ef55 79bc df19 763d 21b0 8b3d 6986 f63c
00000070: e7a3 cd3c 7627 b6bc 32e3 e53d 9313 72bd
00000080: 8c37 0ebd cb37 a23d 8bce 1abe c3b9 68bd
00000090: 8564 fb3c bef1 63bd 9220 733c 5178 30bd
000000a0: 79b4 1a3c 90d5 01bd 822c 0c3d 2796 ee3d
000000b0: 043d 353d 4150 c8bd 29b2 3f3d ea28 4fbd
000000c0: f968 3ebe be77 35be fe96 c0be 71d6 8fbd
000000d0: c18d 1bbd 0e20 43be bcc4 c1bd 9768 113e
000000e0: 0a52 75be 5db2 90be 2c91 91bd e9e8 efbd
000000f0: 9a87 32be e755 56bb 67e8 81be d934 44be
00000100: 84fb 6fbf 21f9 683e 94fb b2bc 031f f13d
00000110: fe5c 9dbe a898 c7bd 3098 96be 4901 f93c
00000120: e053 483e 73a1 1e3e 326c e6bd f9da 9fbe
00000130: 3295 8fbd 00b8 09be 38b3 383e 20c6 93bd
00000140: 6856 80bd 9433 cc3d 0fad 233d 41a0 973d
00000150: 6f0f 6a3d 4160 583c c3fd efbd d9bd 25be
00000160: 70fc 27be 569f 61be 1827 623c ef1f 43bc
00000170: 5111 8abe 98ed cbbe 65a3 2ebf 4681 0ebe
00000180: 39c4 78bd 042c 23be 4aee a5bd d22f 68bd
00000190: 136a 90be 75b6 32be 94e8 69be d9bd 08bf
000001a0: 0975 77be a2b2 4cbe d513 86be 45e7 57be
000001b0: 4fcd b6bd 5f1c 53bd 3a29 e83e 93bb 5abf
000001c0: cf76 a83e d361 58be 25d9 30bd b41d 53bd
000001d0: 14e5 8b3e 17bb 9dbd 3e68 ea3b b882 30ba
000001e0: 51f6 03bd db56 5f3c cbe7 83bc e16b 983d
000001f0: 5fc2 cb3d 9b58 d0be c914 81bd 0609 11be
00000200: e32c 093e 1337 9e3d 0d86 6c3d a9aa ddbc
00000210: 0402 11bd 989c 1ebe 35c7 94bc c480 15be
00000220: a261 1cbe 8953 77be 4075 993d cfef 983e
00000230: 80f1 973d a97e 72bd 9deb 2cbe 347a 953c
00000240: 5883 1ebe 3760 2fbd 7c56 a8bd e6c0 e93d
00000250: 157d f8be 76c8 d83e 9ab7 953e 7927 d63e
00000260: 55d0 3cbe 33fe 3e3e dbaf 0abd e623 5a3f
00000270: f936 4bbe 073b edbd 8f3c 183d 7da4 5b3e
00000280: fc2f 533d a6fd 2fbe 3fbc 6abe baee 823e
00000290: a997 c2be 17f4 9a3d 4f0c 113e c7cc 01bf
000002a0: 61d8 9bbe eb07 cf3d b393 973e bb2f 853c
000002b0: 82ab d0bd c72a bdbd eb14 193d ae58 b5bd
000002c0: e5c1 843e 15b4 9ebd 5907 b1bb 5b72 b7bd
000002d0: f680 32bd 7b1f 803d fbce 29bd a4e7 ee3d
000002e0: 13af 12bf 8861 5f3e 820c 42be 2fa8 a73b
000002f0: caea 8f3e aed6 613d 0f32 ac3d a44b 8e3d
00000300: 25b2 993b 6f8c 813d 23cc c63e 860d fcbc
00000310: 953a 2abd 381b 933d bc05 f33e 3054 3cbe
00000320: a6d3 083f 8036 043f 53d7 95be 9feb d8bd
00000330: 5df0 a03c 1388 d53c f416 823c 1fba c33d
00000340: 8145 193c 6f9c 343e 5221 33bc 3324 01be
00000350: 8bb7 2cbd 1de7 743d 4f62 c53d 9ef7 85be
00000360: 863d f93d b29a 81bc ff1b 40be 29b7 2abd
00000370: 7d28 28bd e025 ef3d d680 933e 5455 08bd
00000380: 564e e1bd db94 393e 4e39 173d 79b6 503e
00000390: d924 aabd 5a7d 6e3e 4bdd 00bf 1c58 3c3e
000003a0: 3cd0 0c3e 5826 3abf dc72 38be 2777 58bd
000003b0: d3ea 58bd 7529 253d fda0 7bbd 319b e039
000003c0: 85c6 433e 7c4e 023e b84d 5f3f 9ad1 b7bc
000003d0: 90a0 e93e 38fa 413d c87b 113e 97b7 533e
000003e0: 217a 2b3f 5661 82be bc17 afbd 1748 e7bc
000003f0: fcd6 133e 945a 2a3e 78ae 213e 13ef e83c
-0.46983698 -0.023178529 -0.48266962 -0.07177829 0.29787642 -0.02821345 0.0043280814 0.024658749
-0.008368615 -0.04227132 0.92774355 0.25741357 -0.01922536 0.002511718 0.63485646 0.30881423
-0.006398539 0.030985676 -0.90039164 -0.31772268 0.15761685 -0.06544159 0.06804171 0.03332679
-0.015218242 0.060083266 0.06820703 0.030093389 0.025102569 -0.022235613 0.11224975 -0.0591007
-0.034720942 0.07920798 -0.15117852 -0.05681778 0.03068758 -0.055650465 0.014839308 -0.043083493
0.009442442 -0.03169781 0.034222133 0.11649733 0.044247642 -0.09780932 0.046800766 -0.050576128
-0.18594731 -0.1772146 -0.37615198 -0.07023323 -0.037976984 -0.19055197 -0.09461352 0.14200054
-0.23957077 -0.2826108 -0.071077675 -0.11714346 -0.1743454 -0.003270501 -0.2537262 -0.19160785
-0.9374316 0.22751285 -0.021848477 0.11773493 -0.3073501 -0.09745914 -0.29412985 0.03039612
0.19563246 0.15491275 -0.11251105 -0.3122175 -0.070108786 -0.13449097 0.18037117 -0.07215524
-0.06266481 0.09970775 0.039959963 0.07403613 0.057143625 0.0132065425 -0.11718323 -0.16185702
-0.16404891 -0.22033438 0.013803266 -0.011909469 -0.26966336 -0.39829707 -0.6821807 -0.13916501
-0.060734008 -0.1593476 -0.08102091 -0.05668623 -0.28205928 -0.17452414 -0.22842628 -0.53414685
-0.24165739 -0.19990018 -0.26187006 -0.21084316 -0.08925878 -0.05154073 0.45343953 -0.85442466
0.32903144 -0.21131067 -0.043175835 -0.051542 0.2732321 -0.077017 0.00715354 -0.0006733346
-0.032217328 0.013631548 -0.016101738 0.07442451 0.09949183 -0.406926 -0.063027926 -0.14163598
0.13396029 0.07725348 0.05774503 -0.027058916 -0.035402313 -0.15489423 -0.018161396 -0.14599901
-0.15271619 -0.2415296 0.07493067 0.2987046 0.07419109 -0.059202824 -0.16886754 0.018246748
-0.15479791 -0.042816367 -0.082196206 0.114137456 -0.4853293 0.4234044 0.2924164 0.4182699
-0.18438847 0.18651657 -0.033859115 0.85211027 -0.19845189 -0.11583524 0.03716713 0.21449466
0.051559433 -0.17186603 -0.22923373 0.2557276 -0.38006333 0.07566088 0.14164852 -0.5070309
-0.30438522 0.10108932 0.29604873 0.016258111 -0.101889625 -0.09236675 0.037373465 -0.08854805
0.2592918 -0.07749192 -0.0054024872 -0.089573584 -0.043580018 0.062560044 -0.041457158 0.11665276
-0.5729839 0.21814549 -0.18950084 0.0051164846 0.28108817 0.055136375 0.084079854 0.06948021
0.004690426 0.06325614 0.3882762 -0.030768167 -0.041559774 0.07182926 0.47465312 -0.1839149
0.5344795 0.5164566 -0.29265842 -0.10591816 0.019645864 0.026065862 0.015880086 0.09556984
0.00935495 0.176378 -0.010933237 -0.12611465 -0.042167228 0.05979072 0.096378915 -0.2616548
0.12169938 -0.015820835 -0.1876068 -0.04167858 -0.041054238 0.11677146 0.28809232 -0.0332845
-0.110012695 0.1812319 0.036919884 0.20382108 -0.083078094 0.23290005 -0.50337666 0.18392986
0.1375131 -0.7271476 -0.18012565 -0.052848008 -0.05295832 0.04032274 -0.061432827 0.00042840236
0.19118698 0.12725252 0.87227964 -0.022438813 0.45630312 0.047357768 0.14207375 0.20675503
0.6698323 -0.25464886 -0.08549449 -0.028232617 0.14437479 0.16636115 0.15789211 0.028434312

model.0.bias f4 [128]
00000000: 73c6 613e 259d 87be 499e acbc 7534 f3bd
00000010: c473 323e 8f9e cebd 5754 0cbd 7c65 adbe
00000020: 7b6b f13b 81bc 3cbe aacb 3ebd 6816 843d
00000030: b3ac b3be 4245 c4bd 6708 73be bab8 ccbe
00000040: 3492 5c3e e881 4dbc 5e13 203e 83ea d9bd
00000050: 711d 53be d9c1 2bbe c305 c7be 304b 87bd
00000060: c569 01be 6c0c 10be 1288 8abe 31fb 2e3e
00000070: 8f89 2a3d 4ea0 4ebe 8d7b 193e acd6 0dbe
00000080: d687 92bd 1ef5 90bd 57ba 30be 3619 20be
00000090: 493c 3dbe e4ac b8be 9fa3 a2bd 305b 3ebd
000000a0: 3120 c9bd 9f6b 8e3c d4b6 33be 10f6 bebd
000000b0: a3a3 f7bc feb9 f93d c9ea c63d bc41 a2bd
000000c0: 7c94 49bc a23d 303b 73ab 953e 8804 ecbd
000000d0: 2156 9ebe eb0d 0bbe 5785 bfbe 3991 49be
000000e0: 86c6 11be c493 203e d728 32be 000d a2bc
000000f0: eaeb 68be 588a 9cbd b435 5abe 71b2 a9bd
00000100: fafc 4dbe 4289 2fbe 2c24 48be 8fac ccbd
00000110: 89d9 39be 6bb4 cdbd 7375 d2bd 91b6 5ebe
00000120: f05b c3bd 2fdc 9bbe a1d6 ab3d 73d1 813e
00000130: d63a 12be c84b 2bbd 8fc0 3abd 77b9 c7bd
00000140: 9a97 2fbe c7d0 21be 213f 193d 836e 38be
00000150: dd2e 58be 679d 60bd c243 4f3e bf45 8cbe
00000160: 99a1 3dbe aba8 3dbe c481 dfbd be48 33be
00000170: 2f07 f73b ee25 8e3d 8e4a f33c 99bb 753e
00000180: f0de 273e 4147 1ebe c9fb 0e3e d4c5 203e
00000190: 8d99 1c3e b380 373e 9bd0 42be 8102 b2bd
000001a0: b69f d4be c330 2fbe 5de5 2fbe a29b 0abb
000001b0: 717a 94bd aeba 16be efb6 233e a410 b6bd
000001c0: b43c 8dbd 5c56 77be 91e7 f9bd 44de 9ebe
000001d0: cb69 f9bd 7a3a 88bd d694 dabd 6e6a 76bd
000001e0: 2fc5 9ebe 3cdb 90bd 05c6 593e 2611 ab3d
000001f0: 67df f8bd dd31 7dbe fe11 c33e 18bb 1abd
0.22048359 -0.2648708 -0.02107157 -0.1187524 0.17426974 -0.100888364 -0.03426012 -0.3386649
0.007367549 -0.18431284 -0.046580948 0.06449586 -0.35092697 -0.095835224 -0.23733674 -0.39984685
0.21540147 -0.012543179 0.15632388 -0.10640433 -0.206167 -0.16773166 -0.38871583 -0.06606138
-0.12638004 -0.14067239 -0.27056938 0.1708801 0.041635092 -0.20178339 0.14988537 -0.13851422
-0.07154815 -0.070780024 -0.17258583 -0.15634617 -0.18480028 -0.36069405 -0.079413645 -0.046473682
-0.09820593 0.017385302 -0.17550212 -0.093242764 -0.030229395 0.12193678 0.097127505 -0.07922694
-0.012303468 0.0026892205 0.29232368 -0.11524302 -0.30925086 -0.13579528 -0.37406418 -0.19684304
-0.14235887 0.15681368 -0.17398392 -0.01978159 -0.22746244 -0.076435745 -0.21309549 -0.08285988
-0.20116034 -0.17142203 -0.19545048 -0.099938504 -0.1814939 -0.100441776 -0.10276308 -0.21749331
-0.0953902 -0.30441424 0.083905466 0.2535511 -0.14280257 -0.041820318 -0.045593794 -0.097521715
-0.17147675 -0.15802298 0.03741372 -0.18010907 -0.21111627 -0.05483761 0.20240691 -0.27396962
-0.18518676 -0.18521373 -0.10913423 -0.17508218 0.007538698 0.06940828 0.029698636 0.23997344
0.16393638 -0.15456869 0.13963236 0.15700465 0.1529295 0.17920189 -0.19024889 -0.08691884
-0.415281 -0.17108445 -0.17177339 -0.0021149893 -0.07249916 -0.1471965 0.15987752 -0.08889893
-0.06896344 -0.24154037 -0.12202371 -0.3102895 -0.121783815 -0.066517785 -0.106729195 -0.060160093
-0.31009814 -0.07073066 0.21266945 0.0835288 -0.121519856 -0.24726053 0.38099664 -0.037776083

model.2.weight f4 [128, 128]
00000000: 9f58 eeba 1c1a 23be 954f 873e 75f3 71be
00000010: 5a7f 85be 3b0b 9d3e 8d7c c03e 0c8f 8c3e
00000020: 3d2a 793c e4b4 fc3e 2db0 dc3b c59b a3be
00000030: 09ad 5dbf c191 413d 5194 023f d0c0 49bf
00000040: 316d 8ebd 8e98 47be 46d2 243e ac46 d03e
00000050: 922c 0f3e 6ddb 1bbf cb03 363e 96e2 d1bc
00000060: b327 363e 8749 61be e3c6 bdbd 872a eebe
00000070: 405c 8cbe 4680 013e 44a9 de3d d813 e73e
00000080: bd6b 723e d867 0c3e 6c27 633e b207 323f
00000090: 8bad 89be 726e adbd 7725 903e 47d9 a13e
000000a0: e737 2f3a 1ed5 613e bf5f 3c3e a673 623e
000000b0: 79c1 ffbd 839d 29be 7cc3 3f3d 1605 633e
000000c0: 2639 663d 3aa9 9ebe 27f3 99bd 7480 bdbe
000000d0: 1945 583e c539 c83d d84e ef3c 16c5 edbd
000000e0: 7777 bb3e 96e7 8d3e 497e 49bf 13d6 233e
000000f0: 0bbf aabd 1cf8 023c d257 12bf 437c 323e
00000100: 254d b13e 21e6 af3e 4756 be3d 794b 5d3e
00000110: 7200 31bc 0a2a 4dbf 5125 6bbe 2164 8e3c
00000120: 26a0 303e 9c57 d23e 056a 783e 8518 56be
00000130: b41c 653e a396 b93e 825c 22be 2fac 813d
00000140: 66e4 10bd 1744 543e d3ba 1a3f c9f7 093f
00000150: bec3 0dbd d55c 2b3e 67ff 34be f88b 453d
00000160: fe7b 36be dba4 003e 6e9a db3d 8021 5d3d
00000170: 6302 9c3d 5ea7 ac3d 58f4 08bd e3bf da3d
00000180: 2f65 9bbd 3042 833d 33d6 ce3d 20b2 e6be
00000190: 5ddb 97bc b5a2 423d 3166 313e 212a b3bd
000001a0: 720c d9be 3a90 2f3e 807b d23d f8b2 9cbe
000001b0: 33f2 01bc 6bff 353d 0a44 d03d 644f e93e
000001c0: 773b 603e 1bce 6d3e eb62 55be aa03 203d
000001d0: 31b8 803c 8713 bf3e c54e 6c3e 5708 e83e
000001e0: 7e89 c3bd 4735 c23d 924e 813e aa41 cc3c
000001f0: 2ba0 f6be 2673 cebe af1d 303e 3eeb 39be
00000200: 11c5 2ebe e668 7c3d 75c7 3cbd a5a4 033e
00000210: 954f d43d d605 153e 65c2 edbb ebd7 d6bc
00000220: 1961 a7bb a9cc e93d 8ef6 4c3d 9739 d1bd
00000230: b35b 75bd 456f 8dbe 7b7b 9b3e e272 903e
00000240: 3caf a73d 8ead 0fbf 2a39 42be f433 ce3d
00000250: a448 81bd 6596 20be 08f6 af3e a982 b33d
00000260: f9f9 57be 94b6 f03d f14d 28bd 9cb6 11bb
00000270: 708e eabd 2d08 9d3d 7c9e dcbc ff64 c73c
00000280: 5164 d6be 4107 8bbd 25f6 14be bcb9 b23d
00000290: 1e4f 263e daf1 06be 10ae dfbd 7f59 1f3e
000002a0: ada8 4fbe 9eee f6be f8e2 103e c03c 1a3e
000002b0: cbc7 c33e 56e2 883d 9a5e afbe d313 ed3e
000002c0: e28e 883e 2270 b8be ceb5 503d de8b f13d
000002d0: 9a8a 0ebf bc3f a33e ae13 23be 0780 ac3b
000002e0: 195b 90bd cb30 0b3d 6c69 803d d239 b93e
000002f0: e61b bf3e 1a13 b8bc 88f8 f33d bb24 69bd
00000300: 2139 3f3e 7248 97be 4421 31be 8535 f8bd
00000310: a601 a63d 2d36 34be 15c0 bf3d da47 363e
00000320: f51b c83e 17d3 463e 3090 72be 7779 0d3e
00000330: 0203 28be 6f1d 833d e28a 263e 6a49 cfbc
00000340: 00c6 9e3e 2f52 c13d d809 8ebe e66e 103f
00000350: a2b4 183d 5084 06be f511 853d 399a 5cbd
00000360: cc63 293e 7f0a c63e afb5 45be be34 b4be
00000370: bc3f 88be 87b4 1f3e 9768 453e ca62 91bd
00000380: 5619 c8bd f0ae 6cbe be65 453e 1966 79be
00000390: 6088 3ebc 0661 bbbc 14ed 973e da3b 9fbd
000003a0: 6947 c03f 0ba4 a2be db52 8d3e 66ac 893e
000003b0: 657e 26bd 7e5a da3d 0ba4 84be 6d0c 4c3e
000003c0: d381 18bd 2b72 5abe b607 ddbc ca68 f5be
000003d0: 291e cc3e ea39 993e cbce 3ebe 5845 f8bc
000003e0: 1df9 c03e d2c9 7cbc a1b5 3cbe 2b35 243c
000003f0: a9cb ad3d 1289 363e 2411 2cbe e481 923e
-0.001818437 -0.15927929 0.26427904 -0.23628028 -0.26073724 0.3067263 0.37595025 0.27452886
0.015207824 0.4935676 0.006734869 -0.3195478 -0.86592156 0.047258142 0.5100756 -0.78809834
-0.0695442 -0.19491789 0.16095838 0.40678918 0.13981846 -0.6088169 0.17774884 -0.02562074
0.17788582 -0.22000705 -0.0926645 -0.4651682 -0.2741413 0.12646589 0.108721286 0.45132327
0.23673911 0.13711488 0.22183007 0.6954299 -0.26890215 -0.084683314 0.28153583 0.31611082
0.00066840503 0.22053954 0.18395899 0.22114429 -0.12488074 -0.16563992 0.046817288 0.22169909
0.056206845 -0.30988485 -0.07517081 -0.37012064 0.21120109 0.09776644 0.0292124 -0.11609857
0.36614582 0.2771575 -0.7870832 0.15999632 -0.0833722 0.007993724 -0.57165253 0.17430215
0.3462917 0.34355262 0.092938 0.21610822 -0.010803329 -0.8014227 -0.22963454 0.01738173
0.17248592 0.41082466 0.24259193 -0.20907791 0.2237423 0.3624774 -0.15855601 0.063316695
-0.035374068 0.20729099 0.6044132 0.53893715 -0.034610502 0.16734631 -0.17675553 0.048229188
-0.17820737 0.12562887 0.107228145 0.053987026 0.07617643 0.0843036 -0.03343615 0.10681131
-0.075876586 0.06409109 0.10099449 -0.45057774 -0.018537218 0.04751845 0.17324139 -0.0874827
-0.42392308 0.17144862 0.10277462 -0.30605292 -0.00793128 0.04443304 0.101692274 0.45568383
0.21897684 0.23223154 -0.20838515 0.039065994 0.01571283 0.37319586 0.23076923 0.45318863
-0.09547709 0.09482818 0.25255257 0.024933655 -0.48169073 -0.40322226 0.17198823 -0.18156144
-0.17067362 0.061623476 -0.046088655 0.12855776 0.103667416 0.14553007 -0.0072558396 -0.026226005
-0.0051080105 0.11415989 0.05003982 -0.102160625 -0.059901904 -0.27623954 0.30367646 0.2821265
0.0818772 -0.561242 -0.18967119 0.10068503 -0.06312683 -0.15682371 0.34367394 0.08765156
-0.21091451 0.11753574 -0.041089956 -0.0022234088 -0.11452949 0.07667575 -0.02693104 0.02434015
-0.4187341 -0.06788493 -0.14547022 0.08726832 0.16241118 -0.13178197 -0.10921872 0.15561484
-0.20279188 -0.48228925 0.14149082 0.15062237 0.38238367 0.06683795 -0.34251863 0.46304187
0.2667151 -0.3602305 0.050954632 0.11794256 -0.5568024 0.31884563 -0.15925476 0.0052642855
-0.070486255 0.03398208 0.062701076 0.36176926 0.37325972 -0.022470046 0.11912638 -0.056919795
0.18674137 -0.2954746 -0.17297846 -0.12119583 0.08105783 -0.17598791 0.093628086 0.17800847
0.3908383 0.19416462 -0.23687816 0.13815866 -0.16407397 0.064020984 0.16263917 -0.025303561
0.31010437 0.094395034 -0.27741885 0.5641922 0.03728164 -0.1313641 0.06497566 -0.053858016
0.16541976 0.38679883 -0.19307588 -0.3519649 -0.26611125 0.1559621 0.19278179 -0.07098921
-0.097704574 -0.23113608 0.19277093 -0.24355353 -0.011629194 -0.022873413 0.29673064 -0.07775088
1.5021793 -0.3176578 0.27602276 0.26889342 -0.040647883 0.10661791 -0.25906405 0.19926615
-0.037233185 -0.21332614 -0.026981216 -0.4793151 0.3986676 0.29926997 -0.18633573 -0.030306503
0.37690058 -0.015428977 -0.18428661 0.010022442 0.08486111 0.17825726 -0.16803414 0.28614724

model.2.bias f4 [128]
00000000: d8f3 b3bd 2f79 74bd e333 32bf 1533 083b
00000010: d937 91bd e4fa 953e b66c 29bc c0ca 803e
00000020: f201 8e3d ffb9 42be a483 83be 9602 8f3e
00000030: 7481 8a3e f059 71bd 1647 113d d710 aebe
00000040: e7eb 1f3c 76fd 1e3d cb2f 60be 8bd9 a03d
00000050: 206c 083e 32c0 b13e 49b2 f43c 05aa a13d
00000060: 5811 773c c4e8 46bd 3a07 15bd 2adc 5c3d
00000070: 10bb 723d 9cd3 143c 1c31 a23d dafd b0be
00000080: 2339 b9bd 91ae 2d3e bb78 a03e d0b6 57bc
00000090: e0e9 6b3d 4876 6b3e ddb7 d73d ab73 8cbe
000000a0: ad4a f2be bf42 9e3e 6c7b b83d 3220 263c
000000b0: 6384 283d 36b7 8ebe 4c3b 4a3d 7588 983d
000000c0: 6a34 3e3e 67b5 633d 4c5c 8a3e f94f d33d
000000d0: 7011 ebbb 7ef1 eb3d 266c c0bd 8e9a b13e
000000e0: 951e 893e eeff 3d3c b6df 6f3d 4b4c 7cbd
000000f0: 4c6f babe 201a 8d3e d96a 843d bed4 5c3d
00000100: 5e8c fdbd 66dd 08bf c74f 683e 8ede 903e
00000110: c2b2 a8ba 0fde 2ebd 0a41 9fbe a34e 1f3e
00000120: ee4c 4fbd ea4c a33e e14f ad3d 6c1b a93e
00000130: c14a 803b 2d5c 6b3e 5725 f1bc 42e5 513e
00000140: 7895 22bf 2777 ad3e d805 e13d 5a31 2abe
00000150: 8fcf e0bc f8f6 543e 625d 03be 7c82 9d3e
00000160: 3dab 713e 5a54 babe 49df 8ebd 894f e83d
00000170: 0b05 823e bdc2 a73e ac75 1fbf 81b4 4ebe
00000180: 86b1 8c3e df2f a33d 6c0d ab3e b5e3 8e3e
00000190: fb23 cfbe 527b 783e 1818 77bd 7cda 9dbe
000001a0: 4fda 3b3e 1fef 803e 3adf 25bc 30b1 6ebe
000001b0: 9545 183d 46d2 aa3e c965 053d 6d47 873e
000001c0: 5418 a63e 4926 84be 9321 84be c25c 96bd
000001d0: b3bd 0c3e 2973 8a3e 5d21 8e3e ba6d b13e
000001e0: 2de5 dfbe b0d7 04be ce35 893d cf48 ae3e
000001f0: 9ba8 133e 3c56 b63e 3dde cb3d a343 6d3e
-0.08786744 -0.059685882 -0.6961042 0.00207824 -0.0709073 0.29292977 -0.01034086 0.25154686
0.06933965 -0.19016264 -0.2568637 0.2793166 0.2705189 -0.05892366 0.035468183 -0.33997223
0.009760833 0.038815938 -0.21893232 0.07853993 0.13322496 0.34716946 0.02987017 0.07893757
0.015079819 -0.048561826 -0.036383845 0.053920902 0.059260428 0.009083655 0.07919523 -0.34568673
-0.09044101 0.16961123 0.3134211 -0.0131661445 0.057596087 0.2299434 0.10533116 -0.27431998
-0.47322598 0.30910298 0.09007916 0.010139512 0.04114188 -0.27874154 0.049372956 0.07447902
0.18574682 0.05559292 0.27023542 0.10317988 -0.0071737096 0.1152067 -0.09395628 0.34688228
0.26781145 0.011596663 0.058562957 -0.061596196 -0.36413038 0.27558994 0.06465692 0.053913824
-0.123802885 -0.5346283 0.22686683 0.28294796 -0.0012870657 -0.04269224 -0.31104308 0.15557341
-0.050610475 0.31894618 0.08462501 0.33028734 0.0039151614 0.22984381 -0.02943675 0.20497611
-0.6350932 0.3387997 0.10987443 -0.16620389 -0.027442722 0.20797336 -0.12828591 0.30763614
0.23600478 -0.3639248 -0.06976182 0.11343295 0.25394472 0.3276576 -0.6228893 -0.20186044
0.2747919 0.07968115 0.33408678 0.27908102 -0.40457138 0.24265793 -0.060325712 -0.30830753
0.18344997 0.25182435 -0.010124022 -0.23309779 0.037175734 0.3336355 0.032567773 0.2642168
0.32440436 -0.2581046 -0.25806865 -0.07341911 0.1374424 0.27040985 0.2775983 0.34654027
-0.43729535 -0.12972903 0.066997156 0.34039924 0.14419787 0.35612667 0.09954498 0.23170333

model.4.weight f4 [5, 128]
00000000: 59c1 bebe bc6f 9f3b 25b0 6cbf dbfd 603e
00000010: 6136 b03d 6c9e 94bf c8d2 acbd 0283 06c0
00000020: d228 893d c0b0 ffbe 288f ea3e c012 08c0
00000030: 436c 9bbf 1829 bc3c 542c 4d3b 9d4b 46bf
00000040: e2f6 023e ea3e 09be 0f8d 3d3f 4b1f 42bf
00000050: a852 1abf 9e66 88bf 9188 313d aa4c 9bbf
00000060: 21f6 e93e ff57 4f3d 2d86 fe3d 701d 83be
00000070: e96d 513a f293 403b 785f e0be 24c9 4ebf
00000080: 2d75 e7be 4e9a 57bf e5a9 84bf cfdb 2abe
00000090: 3c19 6a3e af10 0ec0 b193 2e3e f53d 86bf
000000a0: c405 e0bf 9619 a0bf 093e 3d3d 1c53 933a
000000b0: c808 a23d 0b53 753f c54c 72bf bfc9 57bd
000000c0: b939 b1bf b0d3 01bf 2e8e bfbf 1526 843d
000000d0: 254a 493e 5ffc 403d 26c6 8dbf a235 96bf
000000e0: 38f7 f3bf e27d c43e ed1c 8b3b a177 84be
000000f0: 57c7 c83f 23bf 1abf 401e efbf adf1 2c3d
00000100: 8a67 6d3e ff2d b4bf 1e81 13c0 6511 a5bf
00000110: 94e6 563d 90b6 25be a560 80bf 03cd 03be
00000120: 914e 9abb 5092 04c0 69d4 a53d a054 6abf
00000130: 32d1 5dbe 7fcf b3bf 5bf7 353e 403e 39bf
00000140: 382b d1bf 435c bdbf fcbc db3d 0d11 fa3d
00000150: 93a7 d33e 41b9 d5bf 4a3f 98be d65a 12bf
00000160: c8ce cabf 8c30 5d3f 59bb 23bd 8f6b a0be
00000170: 19b9 83be 4258 5fbf bc0a d9bf a34d c63f
00000180: 2e48 b4bf 8488 a43e 1319 d6bf f1f5 bbbf
00000190: 0048 25bf 11d9 46c0 9284 02bf 3487 d53e
000001a0: 0b58 cfbf 038e 35bf 9056 d43d 5f44 b4bf
000001b0: ecc1 22be 58a3 f5bf 303f 463c 6ba5 50bf
000001c0: afc6 8fbf 615e 8bbf b5d8 493f 7ebe 80bd
000001d0: c100 0ec0 b743 8abe a968 f8bf 216f 57c0
000001e0: c7e3 89bf a988 e23e b8a1 8b3e 6bf7 0fbf
000001f0: c38b 243e 420e 36bf 1ddf 3a3b aac5 c1bf
00000200: fd38 a9be e992 04be 274c 32bf 90b2 353e
00000210: f27d 2e3e 6ab1 71c0 bec8 a33d 8422 d5be
00000220: 7301 52be a72a 25bf 6992 aa3e 2411 13c0
00000230: f448 c0bf 0c72 b5bc 4b0a 72be 7dfa 93bf
00000240: 99d6 853e 14da 2abc 402c 183f 9cef ffbf
00000250: 7074 08bf 8b63 0cc0 8122 063d c4e2 c0bf
00000260: 0280 1d3e 6849 8e3e 5656 26bd 6e19 7abe
00000270: 023e babe cf2a 19be 9e3a ec3e 6a60 b6bd
00000280: 2cb6 acbe c757 a23b 025b 503f 0e49 803e
00000290: e015 993e 9da9 3ac0 7eac aa3e 4d8f 95bf
000002a0: 3bb8 01c0 f003 5cc0 4ba6 65be 81d5 fdbd
000002b0: 36eb 91be 0928 a53f 1d33 89bf ac9d b6be
000002c0: 3f9a c5bf 13ce 20bf d5e6 80be e3b7 0b3e
000002d0: 341d 913e 6079 b63e b4e1 d7bf 15a1 21bf
000002e0: 25fb 5bc0 c770 fa3e 7bee 593e 2c35 61bd
000002f0: 7df9 b13f 024c 37bf e60b 94bf 9aba 183e
00000300: 1977 743e 4d63 ddbf 36c2 0bc0 a2b1 42be
00000310: 32fe 1dbe 973d 88be d768 e2bf b08f 4ebe
00000320: c95c 953d 2a35 b2bf d7aa 163e 0f6a 9dbf
00000330: ceb5 56be a4ca f23d 3a79 133f 028b e7be
00000340: 6a9e b8bf 13fe 86bf bfec a1bd 0ce3 5b3e
00000350: f22c 8abe 23a6 1cbf 6dff c93f f1f6 7cbf
00000360: cb05 e4bf 61aa 293f a5a7 d33f 43c7 12be
00000370: c77d 50be 3b13 43c0 4ea6 eabf 6b9b b83f
00000380: 577d 52c0 bc3b 963e 8046 0ac0 fa00 92bf
00000390: aba8 34bf 2391 eebf 05e1 b9bf 164e c13e
000003a0: e0ca fcbf 5663 0dbf 085e 94bd 6f60 ecbf
000003b0: c48f 57be 31d4 293e 5585 ad3d 3d4f 51bf
000003c0: b529 4cbe a043 aebf ebd9 2e3f b6a4 5c3e
000003d0: 5165 edbf 5568 673e 42d8 12c0 4595 3ec0
000003e0: 23d8 63bf ab24 bc3f ff86 8f3e b4af 27bf
000003f0: 21f9 e13d 18aa 1dbf 436d f03d 5e20 c3bf
-0.37256888 0.0048656147 -0.92456275 0.21971838 0.08604122 -1.1610847 -0.08438641 -2.101746
0.06697239 -0.49939537 0.45812345 -2.1261444 -1.2142414 0.022968814 0.003130694 -0.77459127
0.12789491 -0.13402906 0.74043363 -0.75829 -0.60282373 -1.0656316 0.04334313 -1.2132771
0.45695594 0.05062103 0.12427936 -0.25608397 0.0007989095 0.0029385057 -0.43822837 -0.80775666
-0.45206586 -0.84219825 -1.0364348 -0.16685413 0.22861189 -2.2197683 0.17048527 -1.0487658
-1.750176 -1.2507808 0.04620174 0.0011239978 0.07911831 0.9582984 -0.9464839 -0.052682634
-1.384574 -0.50713634 -1.4965265 0.06452576 0.1965719 0.04711568 -1.1076095 -1.1735117
-1.905982 0.3837729 0.0042453916 -0.2587252 1.5685834 -0.604479 -1.8681107 0.042222667
0.23184028 -1.4076537 -2.3047557 -1.2895933 0.05246599 -0.16182923 -1.0029494 -0.12871175
-0.004709073 -2.0714302 0.08097155 -0.9153538 -0.21661833 -1.4047698 0.1777014 -0.7236061
-1.6341314 -1.4793781 0.10729405 0.122102834 0.41338786 -1.669716 -0.29735786 -0.57169855
-1.5844355 0.864022 -0.03997359 -0.3133206 -0.25727156 -0.87244046 -1.6956401 1.5492443
-1.4084527 0.32135403 -1.6726402 -1.468443 -0.6456299 -3.1069987 -0.50983536 0.41704714
-1.6198744 -0.7091982 0.10368073 -1.4083365 -0.15894288 -1.9190474 0.012100026 -0.8150241
-1.1232508 -1.0888177 0.78846294 -0.062863335 -2.218796 -0.27004787 -1.940694 -3.3661578
-1.0772637 0.44244888 0.2727182 -0.56236905 0.1606894 -0.71115506 0.0028514334 -1.5138447
-0.3305129 -0.12946667 -0.6964745 0.17743897 0.17040232 -3.7764535 0.07997273 -0.41627896
-0.20508365 -0.6451821 0.33314827 -2.2979212 -1.5022264 -0.022149108 -0.23636739 -1.1560818
0.26140288 -0.01042797 0.5944252 -1.9994998 -0.5330267 -2.1935756 0.03274775 -1.5069203
0.15380862 0.2779038 -0.04060968 -0.24423763 -0.36375433 -0.14957736 0.4613847 -0.08905108
-0.33732736 0.0049543115 0.81388867 0.25055736 0.29899502 -2.9166024 0.33334726 -1.1684357
-2.0268695 -3.4377403 -0.22426717 -0.12394238 -0.28499764 1.2902843 -1.0718724 -0.3566717
-1.5437697 -0.62814444 -0.2517611 0.13644366 0.28342593 0.35639477 -1.6865754 -0.63136417
-3.4372036 0.48914167 0.2128238 -0.05498235 1.3904263 -0.71600354 -1.1566131 0.14914933
0.23873557 -1.7295929 -2.1837287 -0.19013074 -0.15428999 -0.2660949 -1.7688245 -0.20172
0.07293088 -1.3922474 0.14713608 -1.2297992 -0.2096779 0.11855057 0.5760685 -0.45223242
-1.4423344 -1.0546287 -0.07906484 0.2147333 -0.26987416 -0.61191005 1.5781075 -0.988143
-1.7814268 0.662756 1.6535536 -0.14333825 -0.2036048 -3.0480487 -1.8332002 1.442243
-3.2889001 0.2934245 -2.160553 -1.1406548 -0.70569867 -1.8638042 -1.4521796 0.37754887
-1.9749413 -0.552297 -0.072444975 -1.8466929 -0.21050936 0.16584851 0.08472697 -0.81761533
-0.19937785 -1.3614388 0.68301266 0.21547207 -1.8546544 0.22598393 -2.2944493 -2.9778607
-0.89001673 1.469869 0.2803268 -0.65502477 0.11033846 -0.6158767 0.1173959 -1.5244253

model.4.bias f4 [5]
00000000: 3cc0 79bd 9b6e 28be 7aa5 70be 8310 b2be
00000010: 6329 a2be
-0.060974345 -0.16448443 -0.23500624 -0.34778222 -0.316722
