map/log/simple_adversary_cond_elign_adv/critic1_5.pkl (torch, 95191 bytes, 6 tensors)

model.0.weight f4 [128, 47]
0	0x3c8bb4de	0.017054018
1	0x3cbde55e	0.02318066
2	0x3c786c38	0.01516252
3	0x3cc77ed2	0.024352465
4	0x3c5fbbd6	0.013655623
5	0xbdc00831	-0.093765624
6	0xba2a1489	-0.00064880453
7	0x3c80d1e1	0.015725078
8	0x3cf3bbba	0.029752601
9	0x3d38622f	0.04501551
10	0x3cfb377d	0.030666107
11	0x3db228fc	0.086992234
12	0x3d953d7b	0.07287117
13	0x3d5720f5	0.052521665
14	0xbc3db796	-0.011579415
15	0xbdbdd38b	-0.09268864
16	0x3c4f65f6	0.012658587
17	0x3d0fb80c	0.03508763
18	0xbd97456d	-0.07386289
19	0xbc242c1c	-0.010020282
20	0x3bf27471	0.007399135
21	0xbf616a5b	-0.8805291
22	0xbedbea3b	-0.4295214
23	0x3cb71542	0.022349004
24	0x3a019e2f	0.00049445307
25	0x3cf097dc	0.029369287
26	0xbbd7b4d1	-0.0065828343
27	0xbc1c3e2c	-0.009536307
28	0xbc7b3ff2	-0.01533507
29	0xbcb6919a	-0.022286225
30	0xbd2f23a2	-0.04275859
31	0xbd664264	-0.05621566
32	0xbdac8850	-0.08424437
33	0xbda249f8	-0.07924265
34	0xbdab14e7	-0.08353596
35	0xbc0005ed	-0.007813913
36	0xbd2c6b96	-0.04209479
37	0xbc95b204	-0.018273361
38	0xbd430dc6	-0.047620557
39	0xbbf499fe	-0.0074646464
40	0xbccc9826	-0.024974894
41	0xb83c74d3	-4.4931494e-05
42	0xbc9d2a48	-0.0191852
43	0xbd08175c	-0.033225402
44	0xbb188901	-0.002327502
45	0x3f55ea8b	0.8356101
46	0x3ec8cb28	0.39217496
47	0x3d1422fd	0.03616618
48	0x3dd26945	0.10273985
49	0xbba65221	-0.0050757085
50	0x3cec42aa	0.028840382
51	0x3cf8a0e1	0.03035015
52	0x3ce9ce6d	0.028540814
53	0xbc28b5ea	-0.010297278
54	0x3bf06829	0.0073366356
55	0x3bf748f7	0.00754654
56	0x3d068c59	0.03284869
57	0xbd1d1a7d	-0.03835534
58	0xbd1c92f7	-0.038226094
59	0xbd252588	-0.040318996
60	0x3e801255	0.25013986
61	0xbd5fefbd	-0.05467199
62	0x3df491b1	0.11941851
63	0xbdcb0233	-0.09912529
64	0x3c9155d4	0.017741121
65	0x3c30544b	0.0107622845
66	0x3e1441cb	0.14478223
67	0x3d7599cd	0.05996113
68	0x3f51b999	0.81923825
69	0xbdcb6d3d	-0.09932945
70	0x3d23fa2c	0.040033504
71	0x3daa31d0	0.08310282
72	0x3d23043a	0.039798953
73	0x3d75052e	0.059819393
74	0x3e3ed2fc	0.18635172
75	0xbd181182	-0.03712607
76	0x3dbfc06e	0.09362875
77	0xbc4258b4	-0.011861969
78	0x3ab330e6	0.0013671189
79	0xbe08d0ab	-0.1336085
80	0x3e035a46	0.12827405
81	0xbd9f9aff	-0.07793235
82	0xbb548f1d	-0.0032433935
83	0x3d31599a	0.04329834
84	0xbd99c169	-0.07507593
85	0x3b7972f4	0.0038062902
86	0x3d393598	0.045217127
87	0xbd0b82d5	-0.034060318
88	0x3d968cb2	0.07351054
89	0xbc9b5aaa	-0.01896413
90	0x3d161032	0.03663654
91	0xbd960534	-0.07325211
92	0xbf6525b0	-0.8951063
93	0x3eaf09da	0.34187204
94	0xbd4a8e4d	-0.049452115
95	0xbb1d28a7	-0.002398053
96	0x3d26bdb7	0.04070827
97	0xbde5aaee	-0.11214243
98	0x3b9b2db4	0.004735673
99	0xbd248a2a	-0.040170826
100	0x3d3ea2d3	0.046542
101	0xbd624c21	-0.055248383
102	0x3ddd1890	0.107957006
103	0x3da2e1d2	0.07953228
104	0x3dc71752	0.09721245
105	0xbe4f0bba	-0.20219317
106	0x3cd7af0b	0.026328584
107	0xbd7c845a	-0.061649658
108	0x3e8443e4	0.25833046
109	0x3cc5903f	0.024116633
110	0xbe3d2abd	-0.18473335
111	0xbe6386fe	-0.22219464
112	0xbe175fa0	-0.14782572
113	0xbe07e697	-0.13271557
114	0xbdb65073	-0.08902063
115	0x3e8516d0	0.25993967
116	0x3e1352d0	0.14387059
117	0xbc0604fb	-0.008179898
118	0x3da68ad8	0.08131951
119	0x3e08bc29	0.13353027
120	0xbe593c2c	-0.2121436
121	0x3e2513f5	0.16120894
122	0xbbd67ee5	-0.0065458887
123	0xbd11553d	-0.03548168
124	0x3e1d052a	0.15334001
125	0xbd338826	-0.043831013
126	0xbd9aac56	-0.07552402
127	0x3eea413e	0.457529
128	0x3dea3aff	0.11437034
129	0xbd197614	-0.037466124
130	0xba94cac3	-0.0011351932
131	0x3daa8028	0.08325225
132	0x3d5737b6	0.052543364
133	0xbd81d31a	-0.063390926
134	0x3c9e299b	0.019306948
135	0x3dab6d68	0.08370477
136	0x3e146f10	0.14495492
137	0xbe0a5f6e	-0.13512966
138	0x3e17df6c	0.14831322
139	0x3c69d91a	0.014272952
140	0x3e4d5914	0.20053512
141	0xbba9b9e4	-0.0051796306
142	0xbd78dfd0	-0.06076032
143	0x3db5e75f	0.08882021
144	0x3e1115cc	0.14168471
145	0x3e0d4635	0.13796313
146	0xbe56bd95	-0.20970757
147	0x3bc26fd5	0.0059337416
148	0x3d66e063	0.056366336
149	0x3c0eb12a	0.008709231
150	0x3d03b6ed	0.032156873
151	0x3cee68da	0.029102731
152	0x3ee98782	0.45611197
153	0x3ea2bffd	0.317871
154	0x3f1ff58e	0.6248406
155	0x3f21dd62	0.6322843
156	0x3d42fdfb	0.047605496
157	0xbd2cef94	-0.042220667
158	0x3da57323	0.08078601
159	0xbe0092a0	-0.12555933
160	0xbe119c1d	-0.14219709
161	0xbe36912b	-0.17828815
162	0xbe342829	-0.17593445
163	0xbddc2655	-0.10749499
164	0x3e2cba3a	0.16867915
165	0x3e2ec7c6	0.17068395
166	0x3e29efa2	0.16595319
167	0x3e5c2d4a	0.21501651
168	0xbd822952	-0.063555375
169	0xbdd8fe53	-0.105953835
170	0xbd257bd1	-0.040401284
171	0xbda69fb8	-0.08135933
172	0xbd979ccc	-0.074029535
173	0xbdb142b4	-0.08655301
174	0xbd865eac	-0.06561026
175	0xbe4342fd	-0.19068523
176	0x3b889945	0.004168662
177	0xbde5d737	-0.112226896
178	0xbd94d1ac	-0.07266554
179	0xbda540a2	-0.08068968
180	0xbdd89271	-0.105748065
181	0xbd3b78f5	-0.04576965
182	0xbd713b7e	-0.058894627
183	0xbdf850a4	-0.12124756
184	0x3c9a9420	0.01886946
185	0xbc2ae58a	-0.010430703
186	0xbe80b964	-0.25141442
187	0xbe8dfd77	-0.2773244
188	0xbe8a78c7	-0.2704527
189	0xbe8e8fbe	-0.27844042
190	0x3d96ff04	0.07372859
191	0x3d94feb1	0.07275141
192	0x3e4c0126	0.19922313
193	0xbea81e14	-0.32835448
194	0x3d965eeb	0.07342323
195	0x3d8dba4f	0.06920301
196	0x3d88a491	0.066720136
197	0x3d4ceff8	0.05003354
198	0xbcd47413	-0.025934255
199	0xbeca73fa	-0.39541608
200	0x3dd00ebf	0.101590626
201	0xbeaed5cc	-0.3414749
202	0xba65a246	-0.00087598374
203	0xbd8d703f	-0.06906175
204	0x3dd47d36	0.103754446
205	0xbcd964b7	-0.026537282
206	0xba717a39	-0.0009211633
207	0x3df4caf0	0.1195277
208	0x3e84433b	0.25832543
209	0x3da85817	0.08219927
210	0xbee01b91	-0.43771031
211	0x3e1aaec3	0.15105729
212	0xbe231b31	-0.15928341
213	0x3e0b09a3	0.13577895
214	0x3da39b2f	0.07988583
215	0x3d7aa0fb	0.06118868
216	0x3d37e814	0.04489906
217	0x3c3587b3	0.0110797165
218	0xbd9bb1d7	-0.0760228
219	0xbdd86276	-0.10565655
220	0x3dbb340b	0.09140786
221	0xbdcbefc8	-0.09957844
222	0xbd50a945	-0.050942678
223	0xbc8ffef8	-0.017577633
224	0xbd92ce6c	-0.07168278
225	0x3e1a2b36	0.15055546
226	0xbe0dd7ed	-0.138519
227	0x3e0e0d47	0.13872252
228	0x3c51dea1	0.0128094265
229	0x3de1db4d	0.110281564
230	0xbd9d066e	-0.07667242
231	0x3e5e1a12	0.21689633
232	0xbdc6bdf2	-0.09704198
233	0x3dc1c5d4	0.09461561
234	0xbdf699cd	-0.12041054
235	0xbe5400a1	-0.20703365
236	0xbd84364f	-0.06455671
237	0x3d04b5cc	0.032399938
238	0xbe1d1e7b	-0.15343659
239	0xbd70bada	-0.058771946
240	0xbe7110f8	-0.2354163
241	0xbe412eef	-0.1886556
242	0xbe05aba6	-0.1305376
243	0xbdfffb42	-0.124990955
244	0xbd7d9456	-0.061909042
245	0xbcc802a8	-0.02441533
246	0x3e9bad14	0.30405486
247	0x3ea9f432	0.3319412
248	0x3f0a9e55	0.54147846
249	0x3e6bba30	0.23020244
250	0x3dc51025	0.0962222
251	0xbd1563b8	-0.036472052
252	0x3da71335	0.0815796
253	0xbe4b4641	-0.19851018
254	0xbe872e67	-0.2640259
255	0xbe0d4c12	-0.1379855

model.0.bias f4 [128]
0	0x3c136b37	0.00899773
1	0xbe021123	-0.1270185
2	0x3d91604c	0.07098445
3	0xbde2cd68	-0.110743344
4	0xbdd86d14	-0.1056768
5	0xbdb704d1	-0.089364655
6	0x3d30a988	0.043130428
7	0x3e18af68	0.14910662
8	0xbb73d24b	-0.0037204202
9	0x3e1e7bfd	0.15476985
10	0x3daece76	0.08535473
11	0x3e0d2546	0.1378375
12	0xbd1ec921	-0.03876603
13	0xbd808e5a	-0.062771514
14	0x3e18116c	0.14850396
15	0xbdcad6b9	-0.09904236
16	0xbc71a69c	-0.014749195
17	0x3beb3024	0.0071773697
18	0xbe09f5a8	-0.13472617
19	0x3e074eaa	0.13213602
20	0x3e900c5f	0.28134438
21	0x3d50d634	0.05098553
22	0x3d37c737	0.04486772
23	0x3df015f0	0.11722934
24	0x3c31dd56	0.010855993
25	0x3dc627c5	0.09675554
26	0x3de9ab83	0.114096664
27	0xbd871cac	-0.065972656
28	0xbe19bd60	-0.15013647
29	0xbce09033	-0.02741251
30	0xbd836a9d	-0.06416819
31	0x3c985eab	0.018599829
32	0xbe1fe592	-0.15614918
33	0xbc78bce5	-0.015181755
34	0x3e4491bb	0.19196217
35	0xbd229ace	-0.039698415
36	0xbb8c56e1	-0.0042828177
37	0x3d4be68d	0.049780417
38	0xbdb292c5	-0.087194
39	0x3cece524	0.028917857
40	0x3dff17bb	0.12455698
41	0xbc3f5887	-0.011678821
42	0x3dfc4176	0.12317173
43	0x3d7b7711	0.061392847
44	0x3c7032e6	0.014660573
45	0xbc2f9d84	-0.010718707
46	0xbd2051db	-0.039140563
47	0xbdc2ccdc	-0.0951173
48	0x3dafeeb8	0.08590454
49	0x3cba00f1	0.022705527
50	0xbd5f8d71	-0.05457825
51	0xbcc05e57	-0.023482485
52	0xbe05451d	-0.13014646
53	0xbda182e9	-0.07886297
54	0xbcba5bc5	-0.022748837
55	0x3c96c188	0.01840283
56	0x3e7f011b	0.24902765
57	0xbd52c0f9	-0.051453564
58	0xbca8f666	-0.020625304
59	0x3d3d6015	0.04623421
60	0x3db30d01	0.08742715
61	0x3d5812c8	0.052752286
62	0x3cbd7115	0.02312521
63	0x3e7f9707	0.24959956
64	0xbcd7b91a	-0.02633338
65	0xbe01976e	-0.12655422
66	0xba6ebdcf	-0.0009107263
67	0x3eb8021d	0.35939112
68	0x3da83207	0.08212667
69	0x3c205ea3	0.009788188
70	0x3c77b961	0.015119881
71	0x3cbe9d1c	0.023268275
72	0x3c2a2dfc	0.01038694
73	0xbcc6ac4d	-0.024252081
74	0x3dcaae3c	0.09896514
75	0x3cacfaa1	0.021115603
76	0x3e1e1168	0.15436327
77	0xbd958d03	-0.073022865
78	0xbda30ffb	-0.079620324
79	0xbd85d499	-0.065346904
80	0xbcdcab0a	-0.026937027
81	0xbd823b97	-0.06359022
82	0x3d397b46	0.04528358
83	0xbd819b47	-0.06328445
84	0x3df2c7a5	0.118544854
85	0xbdf39e76	-0.118954584
86	0x3dc3cc78	0.09560484
87	0xbe3bec0e	-0.18351766
88	0xbd54b2b2	-0.05192823
89	0xbd57b468	-0.052662283
90	0x3d53074e	0.05152064
91	0x3e534a24	0.20633751
92	0xbca4d6a0	-0.020121872
93	0x3b2235b9	0.002475126
94	0xbd0c879f	-0.034309026
95	0xbe19fbde	-0.15037486
96	0xbb146805	-0.0022645008
97	0x3cd00bf0	0.025396317
98	0xbd440a75	-0.047861535
99	0x3d59e71f	0.05319893
100	0x3c8f686f	0.017505853
101	0x3dfea658	0.12434071
102	0x3cc36a87	0.023854507
103	0x3e5fcff5	0.21856673
104	0xbdf3dc03	-0.11907198
105	0x3d88b107	0.0667439
106	0x3e7adf0e	0.24499151
107	0x3dd9d9e3	0.10637262
108	0x3d423054	0.04740937
109	0x3cf13903	0.02944613
110	0xbd207270	-0.039171636
111	0xbbbb1b7e	-0.0057100644
112	0x3d3e515f	0.04646432
113	0xbd82edd4	-0.06393018
114	0xbd47b1ec	-0.048753664
115	0x3eb22323	0.34792432
116	0x3c9eea93	0.019398963
117	0xbdd457b3	-0.1036829
118	0xbe22a720	-0.15884066
119	0xbcfec9ba	-0.03110205
120	0x3e8aef05	0.27135482
121	0xbe6319d2	-0.22177818
122	0xbde1c351	-0.11023582
123	0xbd9f13e6	-0.07767467
124	0x3e43974d	0.19100685
125	0x3d4d9853	0.050194096
126	0xbe3c4612	-0.18386105
127	0x3d38d8a2	0.045128472

model.2.weight f4 [128, 128]
0	0x3cbc581f	0.022991238
1	0x3e6a745b	0.22895949
2	0x3c6d6fd8	0.014491998
3	0xbbc4c04e	-0.00600437
4	0xbcaf20c7	-0.021377934
5	0x3e213416	0.15742525
6	0x3de16526	0.11005621
7	0x3c9f015c	0.019409828
8	0x3dc4a3e0	0.09601569
9	0x3d2243a9	0.039615307
10	0x3d3f89a3	0.04676212
11	0x3e8cc9c4	0.27497685
12	0xbc332bb6	-0.0109357145
13	0x3e2326d1	0.15932776
14	0x3dfdad06	0.12386517
15	0x3d22a6fb	0.039710026
16	0x3ccf2d71	0.025290223
17	0x3e8892d3	0.26674518
18	0x3e1f9c36	0.15586933
19	0x3d992381	0.07477475
20	0xbda2f803	-0.07957461
21	0x3e803da9	0.25047043
22	0x3c6ffef3	0.014648187
23	0x3e1d6ec2	0.15374282
24	0xbe171d99	-0.14757384
25	0x3d96638d	0.073432066
26	0x3bf4509c	0.0074558984
27	0x3de2c327	0.110723786
28	0x3cfde795	0.030994216
29	0xbd2d7f36	-0.042357646
30	0x3df09834	0.117477804
31	0x3e75231e	0.23939177
32	0x3db3f602	0.08787157
33	0xbd61408c	-0.054993197
34	0x3cbc0603	0.022952085
35	0x3e4586b4	0.19289666
36	0xbc964cbb	-0.018347135
37	0x3e4d5436	0.20051655
38	0xbd7939f8	-0.0608463
39	0x3d8a30e7	0.06747609
40	0x3e20d57f	0.15706442
41	0x3da8acee	0.08236109
42	0x3c3aae05	0.011394029
43	0x3db5d735	0.08878938
44	0xbd639a3d	-0.055567015
45	0x3f1917c3	0.5980188
46	0x3dd36c9a	0.103234485
47	0x3ca6c883	0.020359283
48	0x3da242cf	0.07922899
49	0x3cb54807	0.022129072
50	0x3b006de2	0.0019596745
51	0x3d75c666	0.06000366
52	0x3ddd74e0	0.10813308
53	0x3e70dee3	0.23522525
54	0x3d75cea8	0.060011536
55	0x3df10c04	0.1176987
56	0xbb386ea2	-0.0028142114
57	0x3d7d7aab	0.061884563
58	0xbb2eced2	-0.0026673567
59	0xbe46105f	-0.19342183
60	0x3e56a037	0.20959555
61	0x3e250090	0.16113496
62	0x3d9b3f9f	0.07580494
63	0xbe883eca	-0.26610404
64	0xbce2f6d9	-0.027705597
65	0x3db304c6	0.08741145
66	0x3d0ff4c8	0.03514555
67	0xbdd459a5	-0.10368661
68	0x3de9a40a	0.11408241
69	0x3d19d9c2	0.037561186
70	0x3e51e2f7	0.20496736
71	0x3dccda6a	0.10002597
72	0x3ca6af48	0.020347252
73	0x3ddef316	0.10886209
74	0x3ec2aeed	0.38024083
75	0x3da3ca15	0.079975285
76	0xbd809683	-0.06278708
77	0x3dd54a61	0.10414577
78	0xbd98a318	-0.07452983
79	0x39490bf4	0.00019173307
80	0x3e1cf07d	0.15326114
81	0x3b8b1a33	0.0042450665
82	0x3e1d65ea	0.15370908
83	0xbc198b35	-0.009371568
84	0x3d2ff62a	0.04295937
85	0xbdf77221	-0.12082315
86	0xbd7952c1	-0.060869936
87	0x3d6f2804	0.05838777
88	0x3cef21cb	0.029190918
89	0x3c4e2431	0.012581871
90	0x3db3c4b8	0.087777555
91	0xbe30311d	-0.17206235
92	0x3d029678	0.03188178
93	0xbdc81660	-0.09769893
94	0x3e03412c	0.1281783
95	0x3cf7f6f0	0.030269116
96	0x3e4a77bc	0.19772238
97	0x3df1415a	0.11780043
98	0xbdad841a	-0.08472462
99	0x3cf32be2	0.02968401
100	0xbb158ffe	-0.0022821422
101	0x3da90269	0.08252413
102	0x3c65c060	0.014022917
103	0xbe380682	-0.17971233
104	0x3d9fb1ba	0.077975705
105	0x3d7477be	0.059684508
106	0x3d124ea6	0.035719536
107	0x3b909e30	0.0044133887
108	0xbcbb7efc	-0.0228877
109	0x3bb44cb9	0.00550231
110	0x3cb9b70d	0.022670293
111	0xbd06f5cb	-0.03294925
112	0x3dfa3f7c	0.1221914
113	0xbce8f768	-0.028438285
114	0xbdd8a3c5	-0.105781116
115	0xbd4c2bed	-0.04984658
116	0x3de4b9b6	0.11168234
117	0x3e807454	0.2508875
118	0x3cbb70c5	0.022880921
119	0xbd4c1529	-0.049824867
120	0xbd9d0fad	-0.076690055
121	0x3e4434cb	0.19160764
122	0x3d8bcad2	0.06825794
123	0xbd25350c	-0.040333793
124	0x3dc3656b	0.09540828
125	0x3de1562b	0.11002763
126	0x3ac30757	0.0014879507
127	0x3e8153a4	0.25259125
128	0xbdcc193b	-0.0996575
129	0xbe273676	-0.16329369
130	0xbd5e08bf	-0.05420756
131	0x3e4ca091	0.19983126
132	0x3e703626	0.23458156
133	0xbcec5fc2	-0.028854255
134	0xbf536caf	-0.82587713
135	0x3e4ad51f	0.19807862
136	0xbd6ee740	-0.058326006
137	0x3ea60cda	0.3243168
138	0x3e328c38	0.17436302
139	0x3f1394da	0.57649004
140	0x3dffca17	0.124897175
141	0x3e14d8c7	0.14535819
142	0xbec06851	-0.37579587
143	0x3e10a2ba	0.14124575
144	0xbeae1a06	-0.3400423
145	0xbe7f2d3d	-0.24919601
146	0x3d3f12a5	0.04664864
147	0x3ba13ae2	0.0049203495
148	0xbcff30d5	-0.031151215
149	0xbedaad46	-0.42710322
150	0xbdfac99f	-0.122454874
151	0x3e6f95d6	0.23397002
152	0xbe70e5e4	-0.23525196
153	0x3db78c10	0.08962262
154	0x3d55350f	0.052052554
155	0x3df156a3	0.11784103
156	0x3dbc8590	0.092051625
157	0x3c472021	0.012153656
158	0x3d7b324d	0.061327267
159	0xbdf77e9c	-0.12084696
160	0xbde88890	-0.11354172
161	0x3e445e07	0.19176494
162	0xbe918a1f	-0.2842569
163	0xbe6bd947	-0.23032103
164	0xbf12c4f7	-0.57331795
165	0x3e5e15f8	0.21688068
166	0x3d4d66dc	0.050146922
167	0xbe1f6be9	-0.15568508
168	0xbe9e16f6	-0.30876893
169	0xbd8e41d5	-0.0694615
170	0x3da20e7e	0.079129204
171	0x3d7637bc	0.060111746
172	0xbe1714ba	-0.14754
173	0xbf1e1204	-0.6174624
174	0x3dbcd64b	0.09220561
175	0xbccee18f	-0.02525404
176	0x3e195222	0.14972737
177	0x3e815314	0.25258696
178	0x3e19587b	0.14975159
179	0xbd1d77c6	-0.038444303
180	0xbe3d38c6	-0.18478689
181	0xbec78bf4	-0.38973963
182	0xbe98e43c	-0.2986163
183	0xbe03d133	-0.12872772
184	0xbd207d35	-0.039181907
185	0x3e161584	0.14656645
186	0x3d5ad0e1	0.05342186
187	0x3d572a21	0.05253041
188	0x3dee3742	0.11631633
189	0xbe839cbc	-0.25705516
190	0x3d6851d8	0.056718677
191	0xbe43b340	-0.19111347
192	0x3eb1dec0	0.34740257
193	0x3f20cb06	0.6280979
194	0x3e5b577b	0.2142009
195	0xbe07a1fa	-0.13245383
196	0xbe2edb4a	-0.1707584
197	0x3ce6402c	0.028106771
198	0xbd813d3c	-0.06310508
199	0x3e4bf042	0.1991587
200	0xbe9eea5b	-0.31038174
201	0xbd91ac72	-0.071129695
202	0xbe6927f8	-0.22769153
203	0x3e109353	0.141187
204	0xbe897ed5	-0.26854578
205	0xbd835c45	-0.064140834
206	0x3e02a93a	0.12759867
207	0xbe689a7e	-0.22715184
208	0x3e2819ad	0.16416045
209	0x3e889b33	0.26680908
210	0x3dc11f2d	0.094297744
211	0xbdb9bf10	-0.090696454
212	0x3dea1c4c	0.114311785
213	0x3eec84c1	0.46195033
214	0x3ede3714	0.43401396
215	0x3ec86d98	0.39146113
216	0x3e1c601e	0.15271041
217	0x3e624483	0.22096448
218	0x3da3862b	0.07984575
219	0x3df82384	0.12116149
220	0x3e9c36d7	0.3051059
221	0xbe6a3461	-0.22871543
222	0xbe2f73b4	-0.17133981
223	0x3ea77365	0.32705227
224	0xbe0a29b8	-0.13492477
225	0x3e829e6c	0.2551149
226	0xbec4171c	-0.3829888
227	0xbea0072c	-0.31255472
228	0x3da1a792	0.078932896
229	0x3da10b8c	0.078635305
230	0xbdda66c5	-0.10664133
231	0xbd725728	-0.05916515
232	0x3d16cf35	0.0368187
233	0x3edbe773	0.4295002
234	0x3d49e4a4	0.049290314
235	0xbc0e6fc7	-0.008693642
236	0xbe924309	-0.2856677
237	0xbc07fd0e	-0.008300079
238	0x3ec32c76	0.38119859
239	0x3c7fc957	0.015611968
240	0xbdc844ff	-0.09778785
241	0x3d88b601	0.066753395
242	0xbec005c6	-0.37504405
243	0xbcb3fef2	-0.021972153
244	0xbe315a70	-0.17319655
245	0xbdc8686d	-0.09785543
246	0x3e92952b	0.2862943
247	0xbd431db9	-0.047635768
248	0xbb886eef	-0.004163615
249	0xbeb10d8f	-0.34580657
250	0xbe72b2b1	-0.23700978
251	0xbdfb15f9	-0.1226005
252	0xbe2f1918	-0.17099416
253	0xbead4f85	-0.3384973
254	0x3dc611c3	0.096713565
255	0xbeb50f87	-0.3536341

model.2.bias f4 [128]
0	0xbc96ce9e	-0.01840907
1	0xbd1939c5	-0.03740861
2	0x3e1e28d1	0.15445258
3	0x3bd5b1ec	0.006521454
4	0xbe1af3fe	-0.15132138
5	0x3cff46f7	0.031161768
6	0xbd196c55	-0.03745683
7	0x3c1351c1	0.00899166
8	0xbe408ad7	-0.18802963
9	0xbcd54f90	-0.026038915
10	0xbce6ebb3	-0.028188562
11	0x3e218318	0.15772665
12	0xbdc132f1	-0.094335444
13	0xbc9eeb86	-0.019399416
14	0xbdb42fd6	-0.087981865
15	0xbe1ca401	-0.15296938
16	0xbd1df8c7	-0.03856733
17	0x3d9e48f8	0.077287614
18	0xbda35052	-0.07974304
19	0x3d902da2	0.07039954
20	0x3eac731e	0.33681577
21	0x3e5dd254	0.21662265
22	0x3e834749	0.25640324
23	0x3e14a483	0.14515881
24	0x3ddf5900	0.10905647
25	0x3e798f59	0.24371089
26	0x3d79b1c8	0.06096056
27	0xbda69a85	-0.08134941
28	0xbd4a30e4	-0.049363032
29	0xbd38210b	-0.044953387
30	0xbb988fe4	-0.004655825
31	0x3e3d47ce	0.18484423
32	0x3df5a206	0.11993794
33	0xbdbfc49f	-0.09363674
34	0x3d965db9	0.07342095
35	0xbd1be103	-0.038056385
36	0xbded1a7f	-0.11577319
37	0x3cd7dce3	0.026350444
38	0x3e087cd2	0.13328865
39	0xbc5c45db	-0.013444389
40	0x3e1b4488	0.15162861
41	0xbe09c3de	-0.13453624
42	0xbad8d0f1	-0.0016541762
43	0xbdce694b	-0.10078677
44	0x3e6b2a56	0.22965369
45	0xbbb2a2ae	-0.005451522
46	0xbe064885	-0.13113602
47	0xbb2f09fb	-0.002670883
48	0x3e3f6d1e	0.18693969
49	0x3e358fac	0.17730588
50	0xbe18a018	-0.14904821
51	0x3e88f65c	0.26750457
52	0xbd485a99	-0.048914526
53	0xbd253cfa	-0.040341355
54	0x3d8d806d	0.06909261
55	0x3e460a92	0.1933997
56	0x3e1f73b2	0.15571478
57	0xbe0b2f47	-0.13592254
58	0xbd795f6d	-0.06088202
59	0x3dbd03d0	0.09229243
60	0xbe420a08	-0.18949139
61	0xbb078344	-0.0020677606
62	0x3e101a43	0.14072518
63	0x3db1e126	0.08685522
64	0x3cc595d4	0.024119295
65	0xbdca936e	-0.09891401
66	0x3ea22f84	0.31676877
67	0x3e28d189	0.16486181
68	0xbd9fd0bb	-0.07803484
69	0x3b9f1a9b	0.0048554665
70	0x3dd55569	0.10416681
71	0x3e47d061	0.19513084
72	0xbd2b783b	-0.041862708
73	0x3e06b952	0.13156632
74	0x3b887f5b	0.0041655726
75	0x3e4b3b08	0.19846737
76	0x3dd6a148	0.10479981
77	0x3d330f5a	0.043715812
78	0xbca8f16c	-0.020622931
79	0xbd0a0212	-0.03369338
80	0x3e40e76c	0.1883828
81	0x3ddb809b	0.10717889
82	0x3dd6caa6	0.10487871
83	0x3e0e59e5	0.1390148
84	0xbc9fb696	-0.019496243
85	0x3e1b4dad	0.1516635
86	0xbd4dddb7	-0.050260272
87	0xbd9f27a6	-0.07771234
88	0xbd6ea700	-0.058264732
89	0x3dc9443d	0.098274685
90	0xbe0ec449	-0.13942064
91	0xbcc6c46f	-0.024263589
92	0xbd759347	-0.059954908
93	0x3db9837d	0.090582825
94	0xbe16d5f4	-0.14730054
95	0xbd6ca193	-0.057771277
96	0x3e094265	0.13404234
97	0xbde4b429	-0.11167175
98	0x3e2a07aa	0.16604486
99	0x3d85ae5a	0.065273955
100	0x3e1bd9c3	0.15219788
101	0x3de51424	0.11185482
102	0xbd8f17e2	-0.06986977
103	0xbda7d6b2	-0.08195247
104	0xbd10edb1	-0.03538293
105	0xbe438518	-0.1909374
106	0x3e98fec7	0.2988188
107	0x3e0760d2	0.13220528
108	0x3e103aa4	0.1408487
109	0x3ddf6bcd	0.10909233
110	0xbcbf3cf2	-0.02334449
111	0xbd9cc98f	-0.07655632
112	0xbd3a868f	-0.04553848
113	0x3e4459ec	0.19174927
114	0xbe4c41a3	-0.19946913
115	0x3cf5f663	0.030024713
116	0xbe0c4696	-0.13698801
117	0xbcc96014	-0.024581946
118	0x3e450a33	0.19242172
119	0x3c8aa970	0.016926497
120	0xbd20ecc1	-0.039288286
121	0x3d26944c	0.04066877
122	0x3d382073	0.04495282
123	0x3caf8568	0.021425918
124	0xba1cec6b	-0.0005986157
125	0x3c7eb96a	0.015547136
126	0x3dae4972	0.08510102
127	0x3db0303f	0.08602952

model.4.weight f4 [5, 128]
0	0x3e15a15a	0.14612332
1	0xbf106b92	-0.5641414
2	0xbef348ff	-0.4751663
3	0x3e1ec602	0.15505221
4	0xbed899da	-0.4230488
5	0xbf1b85e0	-0.6075115
6	0x3dcf58e6	0.10124378
7	0xbee41736	-0.4454896
8	0x3e97fdcb	0.29685816
9	0x3e7a9d3c	0.24474043
10	0x3e0232ca	0.12714687
11	0xbe2a2bd4	-0.16618282
12	0xbf08c020	-0.5341816
13	0x3e232866	0.1593338
14	0x3cbb91fc	0.02289676
15	0xbebf541d	-0.3736886
16	0x3d8c0283	0.068364166
17	0x3efd306e	0.4945101
18	0xbf036c4c	-0.5133712
19	0xbea9b652	-0.33146912
20	0xbfcbab96	-1.5911739
21	0x3f49bc54	0.7880299
22	0xbf314deb	-0.6925952
23	0xbf914019	-1.1347686
24	0xbecdd784	-0.40203488
25	0xbf866398	-1.0499144
26	0x3ecb4a18	0.39704967
27	0xbec6f49b	-0.38858494
28	0x3f260544	0.64851785
29	0x3d3d5daa	0.046231903
30	0x3ea683ea	0.32522517
31	0x3f9140d7	1.1347913
32	0xbf69bd7e	-0.9130477
33	0xbee02f73	-0.437862
34	0xbee28f44	-0.44249928
35	0x3e07f311	0.13276316
36	0xbf1609db	-0.5860879
37	0xbed2565d	-0.41081515
38	0xbef68c76	-0.48154038
39	0x3e6cfb75	0.23142798
40	0xbefe1a5c	-0.49629486
41	0xbf2ffdc4	-0.6874659
42	0x3ec9bd4b	0.39402232
43	0x3f8c5662	1.0963862
44	0xbf03e343	-0.5151865
45	0x3defd566	0.117106244
46	0x3d3bec50	0.045879662
47	0xbed15b37	-0.40889904
48	0xbf48f365	-0.7849639
49	0xbeca6f0a	-0.3953784
50	0xbf53c230	-0.8271818
51	0xbea2ccc5	-0.31796852
52	0x3db23159	0.087008186
53	0xbf1660dc	-0.58741546
54	0x3f32ec08	0.69891405
55	0xbef34d19	-0.47519758
56	0xbf7ad5f3	-0.9798271
57	0xbf3fad0b	-0.7487342
58	0xbeeb991d	-0.46015254
59	0x3e3c5a9b	0.18393938
60	0xbebfd9ee	-0.37470955
61	0xbea45ba4	-0.32101166
62	0xbecd2689	-0.40068462
63	0xbde85258	-0.11343831
64	0x3e5ea3aa	0.2174212
65	0x3f18d83a	0.59704936
66	0xbf543e79	-0.82907826
67	0xbf1b8fb9	-0.6076618
68	0xbeb6a668	-0.35673833
69	0x3e377bf4	0.17918378
70	0xbea99b92	-0.33126503
71	0xbf2a5cd2	-0.6654788
72	0xbebab24c	-0.36464155
73	0xbf0a4d57	-0.5402426
74	0x3ee7518c	0.45179403
75	0xbebedff7	-0.37280247
76	0xbd47b899	-0.04876003
77	0xbf3e6b72	-0.743827
78	0x3df9af67	0.121916585
79	0x3f1778b8	0.5916858
80	0xbf471237	-0.7776217
81	0x3df5f04c	0.120087236
82	0x3f27af22	0.65501606
83	0xbe97d2d6	-0.29653043
84	0xbf239329	-0.63896424
85	0x3f532d9d	0.82491475
86	0x3d0fb8a4	0.035088196
87	0xbee0b129	-0.43885162
88	0x3dde6051	0.10858215
89	0x3f783bc7	0.96966213
90	0x3bc1d4d7	0.005915265
91	0x3bdfca2b	0.00682952
92	0x3d9117ae	0.07084595
93	0xbe9ea273	-0.30983314
94	0xbea5ac5d	-0.32358065
95	0x3dc690f2	0.09695615
96	0xbf30f696	-0.6912626
97	0xbeafe2dc	-0.34352767
98	0xbf31160d	-0.6917427
99	0x3e95cc3b	0.29257378
100	0xbe9bde6c	-0.30443132
101	0x3dd50b70	0.10402572
102	0x3d612de3	0.0549754
103	0x3de05921	0.109545
104	0x3db8ae52	0.09017624
105	0x3e335334	0.17512208
106	0xbed8fd64	-0.42380822
107	0xbeaef9fd	-0.341751
108	0x3eb919fd	0.3615264
109	0x3f453db3	0.7704727
110	0x3e8ce432	0.2751785
111	0x3e09c009	0.13452162
112	0xbf0651c4	-0.52468514
113	0xbef19f5e	-0.471919
114	0xbed094ed	-0.4073862
115	0x3d525e4e	0.051359467
116	0x3e8186f2	0.25298268
117	0x3e45d99d	0.19321294
118	0xbef9859d	-0.4873475
119	0xbede116b	-0.43372664
120	0x3ddaac6d	0.10677419
121	0x3f327f76	0.6972574
122	0x3f0649b5	0.5245622
123	0x3eb17a45	0.34663597
124	0xbea27370	-0.31728697
125	0xbf139ee0	-0.576643
126	0x3eda26a1	0.42607597
127	0x3d920536	0.071299
128	0x3e3bf40b	0.18354814
129	0xbf23d2a1	-0.6399327
130	0xbf7c6346	-0.9858898
131	0x3e0a1e4c	0.1348812
132	0xbf2c6779	-0.67345387
133	0xbf4ba991	-0.7955561
134	0x3db12b27	0.08650809
135	0xbec86958	-0.3914287
136	0x3ee4a563	0.4465743
137	0x3e04313f	0.12909411
138	0xbd91a542	-0.071115986
139	0xbe9e2ddb	-0.3089436
140	0xbf1146b2	-0.567485
141	0x3e011c84	0.12608534
142	0x3e03a975	0.12857611
143	0xbea53302	-0.32265478
144	0x3e4636d6	0.19356856
145	0x3e2fa6b7	0.1715344
146	0xbf30da82	-0.69083416
147	0xbe71a956	-0.23599753
148	0xbfc4fa8e	-1.5388963
149	0x3f36301e	0.7116717
150	0xbf37458f	-0.71590513
151	0xbf855fbc	-1.0419841
152	0xbe8b2fd4	-0.27184927
153	0xbf21c6cd	-0.6319397
154	0x3ef045ad	0.46928158
155	0xbf3b5edd	-0.73191625
156	0x3f3a190e	0.7269448
157	0x3f2e38b4	0.6805527
158	0x3ea9b71d	0.33147517
159	0x3f50a6d2	0.8150455
160	0xbf956ffc	-1.16748
161	0xbedfbfa1	-0.4370089
162	0xbf2d018d	-0.6758049
163	0x3db4c8d5	0.08827368
164	0xbf24e82d	-0.6441677
165	0xbe95ce66	-0.29259032
166	0xbe0b7282	-0.136179
167	0x3e6224c5	0.22084339
168	0x3eab70af	0.33484408
169	0xbf29ddcb	-0.66354054
170	0x3eb7bec0	0.35887718
171	0x3f57d767	0.8431305
172	0xbef500ff	-0.47852322
173	0x3d9f6262	0.07782437
174	0x3d79804c	0.06091337
175	0xbf45a1af	-0.77199835
176	0xbf4d026a	-0.8008181
177	0xbfa29a79	-1.2703391
178	0xbf2b2602	-0.6685487
179	0xbf09f78e	-0.53893363
180	0x3ddfe535	0.1093239
181	0xbf5c5660	-0.860693
182	0x3ee46f8b	0.4461635
183	0xbe97005b	-0.2949246
184	0xbf83145c	-1.0240588
185	0xbf0005b6	-0.50008714
186	0xbed00fd3	-0.40637073
187	0x3e1e0c30	0.15434337
188	0xbf0184d0	-0.5059328
189	0xbe8fa87e	-0.28058237
190	0xbe93763e	-0.2880115
191	0xbb457c84	-0.0030134032
192	0x3d823fb9	0.063598104
193	0x3efcd698	0.49382472
194	0xbf823fd5	-1.017573
195	0xbf18d579	-0.59700733
196	0xbed766d9	-0.42070654
197	0x3d5d5b7b	0.05404232
198	0xbe147335	-0.14497073
199	0xbefc59e0	-0.4928732
200	0xbe874589	-0.2642024
201	0xbf2643e3	-0.64947337
202	0x3e30babe	0.17258736
203	0xbea266ed	-0.3171915
204	0x3e7825c9	0.24233164
205	0xbf52cbf6	-0.8234247
206	0x3d8d74a2	0.069070116
207	0x3f340aee	0.7032918
208	0xbf01c07e	-0.50684345
209	0xbf2cdd73	-0.67525405
210	0x3f0bdaac	0.5463054
211	0xbf1cfa0f	-0.6131906
212	0xbf181f36	-0.59422624
213	0x3f779f72	0.9672767
214	0x3d9c485f	0.07630991
215	0xbefcc6ef	-0.49370524
216	0x3d99ff16	0.07519357
217	0x3f7e45c9	0.99325234
218	0x3e266eee	0.16253254
219	0xbda793e5	-0.081825055
220	0x3d45baf2	0.048273988
221	0xbea2e626	-0.31816214
222	0xbf205a2a	-0.6263758
223	0x3e211170	0.15729308
224	0xbf161be2	-0.58636296
225	0xbe959568	-0.2921555
226	0xbf1f4b8c	-0.6222465
227	0x3eb2445b	0.34817776
228	0xbedff17c	-0.43738925
229	0x3f83d059	1.0297958
230	0x3e346532	0.17616728
231	0x3e038e56	0.12847266
232	0x3e1878e6	0.14889869
233	0x3e9a0edd	0.30089465
234	0xbe9b80a5	-0.30371585
235	0xbef1287e	-0.47101206
236	0x3f1988f9	0.5997463
237	0x3fa4a85b	1.2863878
238	0x3e3de28a	0.18543449
239	0x3cda3a53	0.02663914
240	0xbeea82ba	-0.4580286
241	0xbebbb99d	-0.3666505
242	0xbedc3ba8	-0.43014264
243	0x3e8c131e	0.27358335
244	0x3e821b3e	0.2541141
245	0x3edd942f	0.43277118
246	0xbe9ad9eb	-0.30244383
247	0xbef02466	-0.4690277
248	0x3d8601a5	0.065432824
249	0x3f1e79af	0.61904424
250	0x3f0a67d2	0.5406467
251	0x3e37ee47	0.1796199
252	0xbe3fff5a	-0.18749753
253	0xbe0f8ca0	-0.14018488
254	0x3f1cc32f	0.61235327
255	0xbe03925b	-0.12848799

model.4.bias f4 [5]
0	0x3d608cf7	0.054821935
1	0xbdcf1229	-0.10110886
2	0x3c30e0c0	0.010795772
3	0xbdaa46aa	-0.08314259
4	0xbc27fab5	-0.010252644
