map/log/simple_push_elign_team/final_critic1_4.pkl (torch, 106455 bytes, 6 tensors)

model.0.weight f4 [128, 69]
000000 26 ea fa bb a7 dc 56 bb 3c 20 a1 3d 07 68 eb 3a
       -0.007657307 -0.0032785328 0.07867476 0.001796008
000010 e3 86 8b be 58 11 84 be c3 00 8d be 35 34 18 3e
       -0.27251348 -0.25794482 -0.27539644 0.14863665
000020 9a 99 82 3e 1e 49 f4 bd 58 b9 28 bd 31 d6 b4 be
       0.25507814 -0.119280085 -0.041192383 -0.35319665
000030 43 8c 82 be a1 0e 16 3d bf 41 36 3e a0 35 ec 3e
       -0.25497636 0.036635045 0.17798518 0.46134663
000040 29 5f c6 be fb 52 52 3e db c2 4d be 77 82 94 3e
       -0.38744476 0.20539467 -0.20093863 0.29005787
000050 e5 8b d8 be ee a3 b0 bb 6d 1f ed bb 69 7a 72 be
       -0.4229423 -0.0053906357 -0.0072364123 -0.23679508
000060 44 f4 79 bd b0 76 9d be c7 51 7a 3d 5f 4c e7 3d
       -0.061023965 -0.30754614 0.061113145 0.112938635
000070 e5 c9 f5 bc 19 cc 72 3e 05 ff 24 be 8a 77 97 3d
       -0.030003497 0.2371067 -0.16112907 0.07395847
000080 e9 b8 23 3e df 6b a1 3c 84 fa 7d 3c 63 4d a2 3e
       0.15988506 0.019704757 0.015501622 0.31699666
000090 c8 84 9e 3d c2 d8 8b 3e 4d 6b 59 3e 2e d9 a5 bc
       0.0774017 0.2731381 0.21232338 -0.02024516
0000a0 61 ef e1 3a d3 e5 07 be 51 f2 3e 3e f1 be 49 3e
       0.0017237478 -0.13271265 0.18647124 0.19701745
0000b0 cc 57 71 3e 52 e2 bc 3d 01 fb e7 bb 5a 2b a7 3c
       0.23568648 0.09222855 -0.0070794825 0.020406414
0000c0 6b 15 4e be 58 05 a5 3e 9c 7e 48 3e d6 54 19 be
       -0.20125358 0.3223064 0.19579548 -0.14973769
0000d0 9f 62 b8 3d 21 10 88 3d 23 a0 8e bd 79 d4 74 be
       0.090031855 0.06643701 -0.069641374 -0.23909177
0000e0 d5 85 77 be 2c f4 83 bd d9 47 e8 bd 44 b4 74 be
       -0.24172147 -0.064430565 -0.11341829 -0.23896891
0000f0 0f 09 7d be 4f 38 6e be 1d ba a4 be 73 44 83 be
       -0.24710487 -0.23263668 -0.32173243 -0.2563816
000100 29 7e ea bd b5 85 8c bd 14 37 33 be b4 aa 94 be
       -0.114498444 -0.0686144 -0.1750148 -0.29036486
000110 a5 10 3d be de dd 4b 3c b7 0d cd 3c 7e 75 99 3e
       -0.1846338 0.012443034 0.025030954 0.29972452
000120 34 63 97 3e 83 c7 ad bb d9 e9 d2 bc e2 36 ad bc
       0.29567873 -0.0053033247 -0.025746273 -0.021144334
000130 54 d6 fb bc d3 3f 43 3a ed 15 99 bc 6b 6b 43 bb
       -0.030741848 0.000744817 -0.018687213 -0.0029818665
000140 d1 c1 09 bc d6 09 0f bc 0e b5 1c 3d 95 a2 88 3c
       -0.008408026 -0.008730372 0.038258605 0.016679088
000150 c5 72 b3 3b 34 38 64 bf 87 aa 67 3d 46 71 57 bf
       0.005476328 -0.8914826 0.056559112 -0.84157217
000160 fd 75 19 3d 42 23 4e 3f e4 86 50 bd 66 51 a1 bc
       0.037466038 0.8052255 -0.05090989 -0.019692134
000170 7a 1e d8 bb d2 fb 42 bc bf 70 14 bb 6b 8b 8e bd
       -0.00659543 -0.011900859 -0.002265021 -0.069601856
000180 7a 88 14 3b cf 5e 30 3c 91 95 5e bc 2f 67 2a bd
       0.0022664354 0.010764792 -0.013585464 -0.04160231
000190 de d6 33 3c a5 d8 92 bd b7 5e b9 3b 2c 7a 72 bd
       0.010976521 -0.07170228 0.005657043 -0.059198543
0001a0 78 3a 3d 3b 4c 3f 96 3d 67 a9 6a 3b 2a dc 52 3c
       0.0028873961 0.07336292 0.0035806538 0.012869874
0001b0 1f ef 47 bb cf f4 6e 3c 28 15 58 bc 95 5f 1c bc
       -0.0030507518 0.014584734 -0.013188638 -0.009544273
0001c0 d4 73 8c bc 2e ce e0 3c d5 88 67 3a 37 dc 4f bc
       -0.017145075 0.027442064 0.000883234 -0.012686781
0001d0 fd 53 94 3b 35 c1 78 3c b3 a9 75 bc dd 54 20 bd
       0.0045266137 0.015182783 -0.014994073 -0.039143432
0001e0 2b ee b9 3b cb 08 a4 3d d6 db a4 bb 70 97 2c bd
       0.005674144 0.080094896 -0.0050310893 -0.04213661
0001f0 0c 76 89 3d 81 5d c5 bc 47 06 8a bd 0b c6 18 be
       0.06711969 -0.024092438 -0.067394786 -0.14919297
000200 36 6a cc bd 93 99 31 3c 98 ce ec bd 10 3c c8 bd
       -0.09981196 0.010839838 -0.11562842 -0.09777081
000210 cb 80 62 be b7 b1 03 3e 0a 02 b0 3d 8e 39 11 be
       -0.22119443 0.12860762 0.08594139 -0.14182112
000220 79 14 0b bd 92 58 a9 bd 3c 92 8c bc 79 7b 6b bd
       -0.03395507 -0.082688466 -0.017159574 -0.0574908
000230 26 70 8d 3c f5 90 42 bd a6 05 0a be 83 ae 81 3d
       0.01726539 -0.047501523 -0.13478717 0.063321136
000240 f6 62 34 3d a1 5e 94 3d 1f 80 aa 3e 77 30 76 3c
       0.04403969 0.072446115 0.33300874 0.015026203
000250 dc a9 cd b9 a7 27 b5 3b 4d 7e 03 3d d7 18 ba bc
       -0.00039227202 0.0055284086 0.03210287 -0.022716923
000260 77 6f 9b bc 7b 66 cd 3a 63 d3 8b 3d 15 ae 24 bd
       -0.018974049 0.00156708 0.06827428 -0.04020508
000270 0d c6 ba 3d 78 2e 0a bd b2 d8 f1 3e 40 82 19 3e
       0.091198064 -0.033735722 0.47235638 0.14991093
000280 f9 fc a5 3a 4e 98 e7 3d a1 18 22 bd d8 bd 20 3d
       0.0012663893 0.11308347 -0.03957427 0.03924355
000290 f5 c0 0a bb c1 f6 1a be 3f 05 06 bd ff 76 b8 bd
       -0.002117214 -0.15133192 -0.032719847 -0.09007072
0002a0 d8 63 11 bd 22 38 9b bd b3 f0 69 3d 81 11 53 bd
       -0.03549561 -0.07579066 0.057114314 -0.051530365
0002b0 ac ea cb bc 65 cc 27 3d 7d 36 48 3f 63 51 ba 3e
       -0.024892174 0.04096641 0.7820814 0.36390218
0002c0 11 a9 9a bc 06 95 ba 3a f2 50 d7 bd 0e 42 b0 bc
       -0.018879445 0.0014235086 -0.10513486 -0.021515872
0002d0 b3 a8 d4 bc 0a c9 64 bd 39 a4 f2 be 60 a8 7e be
       -0.025959348 -0.05585579 -0.47390917 -0.24868917
0002e0 5c 7a 02 3d 3d 50 b7 b9 ef be a4 3c c4 91 32 bc
       0.031854972 -0.00034964262 0.020110575 -0.010899011
0002f0 70 ec ec 3b 8c 18 01 3d 65 d1 10 3c e1 5d 76 3d
       0.007230334 0.03151755 0.008838986 0.060148124
000300 18 15 b2 3c 97 a0 e6 bd 86 67 45 be b2 92 bc be
       0.021738574 -0.11261099 -0.19277772 -0.3683067
000310 22 88 22 be 25 33 ee bd 12 cf b1 bd 7f 19 d3 bd
       -0.15872243 -0.11630849 -0.08682074 -0.10307597
000320 10 62 39 be 83 98 53 be 4d 5a ea bc 7c 66 32 be
       -0.18103814 -0.20663647 -0.028607512 -0.17421907
000330 e5 ce 96 be b2 7d 0c be d0 56 68 be d9 d8 7f bc
       -0.29454723 -0.13719824 -0.22689366 -0.015615665
000340 5a 9b db b9 67 64 9b 3d 7f d6 91 3c 9c c4 2e 3e
       -0.0004188668 0.075875096 0.017802475 0.17067188
000350 be ff 60 be 26 fd 51 be 7b 85 46 be 44 68 31 3d
       -0.21972558 -0.20506725 -0.19386856 0.043312326
000360 52 f0 5b 3c 8b 28 81 bc 33 f7 9e 3b 55 ff 7c 3d
       0.013423996 -0.015766403 0.004851246 0.06176694
000370 a4 9c be bd 21 9d e1 3c b7 15 9a bd 58 e2 dd ba
       -0.093072206 0.027540745 -0.07523673 -0.0016928418
000380 34 71 94 3c 94 13 c5 3c a9 78 85 bd e2 68 e5 3d
       0.018120386 0.024057187 -0.06517155 0.112016454
000390 81 6a 65 bf a8 80 48 3c f0 8e f6 bd 13 e3 3b bb
       -0.8961564 0.012237705 -0.12038982 -0.0028669282
0003a0 5b 48 6d bd 0b 39 ec 3d fe 8b 09 be 52 1a 4c 3d
       -0.05793033 0.115343176 -0.13432309 0.04982979
0003b0 d0 2f 26 be 78 36 88 3d e0 eb 20 3e 9a 5b d8 bc
       -0.16229177 0.06651014 0.15714979 -0.026410867
0003c0 68 b9 67 bc 54 50 03 be 21 e2 70 bd 00 27 b8 3b
       -0.014143325 -0.12823611 -0.058809403 0.0056198835
0003d0 24 ea 8b 3e bf e7 06 bc 3e 1a 87 3d 63 49 76 3d
       0.27327073 -0.0082339635 0.06596802 0.06012858
0003e0 13 2f a4 3d 07 c2 ac 3c 3c 44 a0 3d 20 0b bd bd
       0.08016791 0.021088613 0.07825515 -0.092306376
0003f0 f7 a5 03 3f ea 37 5b bc ff d1 74 bc 23 9b 11 3d
       0.5142512 -0.01338003 -0.014942645 0.03554834

model.0.bias f4 [128]
000000 75 6f 28 be b4 b5 e2 bc d3 c2 01 be 18 bc 7d ba
       -0.16448767 -0.027674533 -0.12671976 -0.0009679212
000010 1b 50 ba 3c dc 40 be bc 20 36 e6 bd 6b bb 82 bd
       0.022743275 -0.023224287 -0.11240792 -0.063834034
000020 6e 32 8a bd ed 2d 92 bd 95 b9 b8 bd 42 c8 39 bd
       -0.067479 -0.07137666 -0.09019772 -0.045356996
000030 37 49 29 3e 5a a0 22 bd 8a 15 03 3b e0 02 50 bd
       0.16531835 -0.039703704 0.0020001852 -0.05078399
000040 52 32 18 be 8d d4 fd bd 11 03 ec 3d 75 50 79 bd
       -0.14862946 -0.123940565 0.11524022 -0.060867745
000050 b2 a7 da bd 23 78 37 bd 67 1a 00 be ce ef 90 bd
       -0.106765166 -0.044792306 -0.12510072 -0.07076989
000060 3a 72 81 bc 73 65 c1 bd 9b c0 32 be ed 70 e7 3d
       -0.015801538 -0.09443178 -0.17456286 0.11300836
000070 c4 5b fb bc 77 72 f1 3d aa 80 e2 bd 8e e3 76 bd
       -0.030683406 0.117894106 -0.11059697 -0.060275607
000080 c1 81 09 bc b8 0f 22 bd 63 20 a3 bc 55 ec 8f 3c
       -0.008392752 -0.03956577 -0.019912904 0.017568747
000090 0b 34 21 be 7a bd 73 3d 1e 77 c4 bd e5 e6 34 bd
       -0.15742509 0.05950687 -0.09593032 -0.04416551
0000a0 6f cd 82 3d a0 0a b8 3c 46 ef ef ba ed 19 f5 bc
       0.063868396 0.022466004 -0.0018305562 -0.029919589
0000b0 b4 9f 18 bc 31 96 f3 bd c9 2d 83 3a 1f ac de bd
       -0.00931542 -0.11893881 0.0010008152 -0.10872673
0000c0 06 27 3f be bb d5 f6 3d 2e 31 5e bc 7b 50 25 3d
       -0.1866723 0.120524846 -0.01356153 0.040359955
0000d0 59 6b 83 bd 34 84 2e 3d ca 16 6f 3d 63 7a 21 3d
       -0.06416959 0.042606547 0.058371343 0.039423358
0000e0 71 70 26 be 21 71 34 bd 94 c1 36 bd 15 d8 20 bc
       -0.1625383 -0.0440532 -0.044618204 -0.009817143
0000f0 2e 7e 13 be a4 cd 13 3e 03 da 8d bb 34 9c 60 be
       -0.14403602 0.14433914 -0.0043289675 -0.21934587
000100 00 d9 0c bd 62 d0 cc ba ab f3 4b bc 24 4a 06 be
       -0.034386635 -0.0015626068 -0.012448232 -0.1311422
000110 c3 ab 2b bd f5 d9 5d 3c 80 8c fa 3d 27 48 99 bc
       -0.04191185 0.013540735 0.122338295 -0.018711163
000120 b4 bd 41 bd 1a eb 06 bc 22 b5 27 be 6f 38 34 3d
       -0.047300056 -0.0082347635 -0.1637769 0.04399913
000130 22 65 a8 3c 02 a3 68 bb 3a 98 22 bd ce ac a6 bd
       0.020556036 -0.003549755 -0.039695956 -0.08138429
000140 81 06 62 bd 90 25 52 bd 35 96 73 bd 72 72 b2 3c
       -0.055181984 -0.051305354 -0.05946942 0.021783087
000150 4c 37 98 bc 33 1e 8b 3b fc 7b b8 bd 10 27 8a 3d
       -0.018581055 0.0042455434 -0.09008023 0.06745732
000160 4c 09 8d bd 34 c0 49 bb 06 65 80 3c 1c 44 5d be
       -0.06886539 -0.0030784728 0.015673172 -0.21608013
000170 96 e1 8d bd f2 c6 27 be 1d e1 07 be b2 08 99 bd
       -0.06927793 -0.16384485 -0.13269468 -0.074723616
000180 d5 81 4e bd f5 1a c5 bd 40 a3 ce 3b b0 12 6f 3c
       -0.050416786 -0.09624282 0.006306082 0.014591858
000190 db cc 07 be db 3e 4b bc c8 65 85 3d e8 dc 11 bc
       -0.1326174 -0.012405123 0.06513554 -0.008902766
0001a0 77 8c d7 bc 88 ce a5 bd fd 0b 0f bc 86 5c 96 3c
       -0.026312096 -0.08096033 -0.008730886 0.018354665
0001b0 7e b5 73 ba fa 3a 9e 3d ab 9e c8 bd 68 f0 2f bc
       -0.0009296759 0.07726093 -0.097958885 -0.01073847
0001c0 5e 49 44 bd 6e ce 4c bc 87 ab 23 bd e4 0d 8e bd
       -0.04792153 -0.012500389 -0.039958503 -0.06936243
0001d0 e7 d4 bd bd 7b c2 df 3b fe b7 dd bc 76 98 8b 3c
       -0.092691235 0.006828604 -0.027065273 0.017040472
0001e0 d0 83 6f bc 2d 4e b6 bd f3 c0 89 3d a7 96 31 bd
       -0.014618829 -0.089016296 0.06726255 -0.043356564
0001f0 7e 5a 1a be af 81 63 bb a4 d2 83 bc bd 99 d5 bd
       -0.15073583 -0.0034714749 -0.016091652 -0.10429714

model.2.weight f4 [128, 128]
000000 d2 c7 73 bd b3 b0 e8 3b f0 1e 17 3c 0c d8 80 3b
       -0.059516735 0.0071011423 0.009223685 0.003932005
000010 5f 56 36 be c8 c8 81 bc 75 1e 9b 3d f0 a5 91 3a
       -0.17806385 -0.01584281 0.075741686 0.0011112075
000020 7f 18 66 3d 6c d5 4e 3d 34 a7 11 bb b4 9c 18 be
       0.056175705 0.050496504 -0.0022224905 -0.14903527
000030 c7 ca d1 3d 90 8c 96 3d 97 8d 5f 3d d8 64 8a 3d
       0.10243755 0.07351029 0.05457839 0.06757516
000040 20 35 03 3d e5 78 d2 3d bd 38 0a 3e 33 fe 01 be
       0.032033086 0.10276965 0.13498206 -0.12694626
000050 6e 8b e9 bd 88 1a ff 3a 02 49 d4 3d 00 bc b8 bd
       -0.11403547 0.0019462863 0.10365488 -0.09020233
000060 c8 ac df bc 58 b1 f7 3d 7d a6 70 bd 9e 2f 2c bd
       -0.027304068 0.120943725 -0.058752526 -0.0420376
000070 c2 3c 27 3b e7 8d 23 3e e5 c3 6d 3d 6a 3d 46 be
       0.0025518392 0.159721 0.058048148 -0.19359365
000080 a4 12 ae 3c dd e0 0e 3e 09 6a 11 be eb c9 73 bc
       0.021249123 0.13952966 -0.14200605 -0.014879684
000090 da 4f c8 be 48 5f 48 3d 67 c2 4c bc 0a 83 1f bd
       -0.39123422 0.048918992 -0.012497521 -0.038943328
0000a0 61 ba 57 bd 0b af 8b bd 74 86 d2 3b f6 12 2c be
       -0.05266798 -0.06820496 0.0064247195 -0.16804108
0000b0 09 82 85 bd b3 13 12 be d0 7d 0f 3e 46 9a e4 bc
       -0.06518943 -0.14265327 0.14012837 -0.027905595
0000c0 60 5d ca be ce f7 5a 3d 43 f9 c8 bd 9f 99 65 bd
       -0.39524364 0.05345898 -0.09813168 -0.056054708
0000d0 2a f4 3e 3d 0f b5 a7 3d 9e 20 fe 37 9f f0 59 be
       0.04661957 0.08188831 3.0294348e-05 -0.21283196
0000e0 2e dc 6f 3e 77 ac a7 3d 10 25 9b bd 5d aa 1f be
       0.23423836 0.08187192 -0.075754285 -0.15592332
0000f0 84 57 8f be 9c ad f3 3d ab 07 5f 3e 33 3c 4a 3e
       -0.27996457 0.11898348 0.21780269 0.19749527
000100 0f 80 62 be 02 2b 18 bc ec da 14 be eb d1 4d be
       -0.22119163 -0.009287598 -0.14536637 -0.20099609
000110 c0 b5 2e 3d d8 fc f5 bc bf f1 8b 3e ba 25 76 be
       0.0426538 -0.030027792 0.27332875 -0.24037829
000120 1f af d0 3d 03 bf 96 3e b2 a9 83 bc 93 16 33 3e
       0.10189652 0.29442605 -0.016072128 0.1748908
000130 22 58 10 bd 02 38 65 be a0 0e fa 3d ba d4 a9 bd
       -0.0352403 -0.22384647 0.12209821 -0.082925275
000140 39 02 85 bd 66 21 7b be 03 22 48 be a1 0d cf 3c
       -0.064945646 -0.24524459 -0.19544224 0.025275053
000150 45 c0 cd be 81 3f 5b bd 30 d4 02 3e 79 ad ef bb
       -0.40185753 -0.05352736 0.12776256 -0.0073143807
000160 bd ae 09 be 67 a2 10 3d 3c dd 8b 3d bb a2 1f 3e
       -0.13445564 0.03531113 0.068293065 0.1558942
000170 44 0f a7 be 4b f0 8e 3d b4 9e ef 3d 22 b3 dd be
       -0.32628834 0.06979426 0.11700192 -0.4330073
000180 ed fb 1d 3e 8b f1 28 bd 5b 52 17 bd 98 80 35 be
       0.15428133 -0.04124598 -0.036943775 -0.17724836
000190 dd 8c 0b be d8 fa aa bd 98 ca 1b 3c d7 5b 86 3b
       -0.13627954 -0.08348626 0.009508751 0.0041003036
0001a0 bf 48 b7 3d dd 1d d6 3d ac ae 4d be 1e 3b 65 3d
       0.08949422 0.10454915 -0.20086163 0.05596458
0001b0 8e 53 c8 3d 7f 0b 4c be 63 2a d7 be f8 7f c5 bc
       0.09781562 -0.1992626 -0.42024526 -0.024108872
0001c0 2f e4 b0 bd 77 36 0a 3e d0 4d b4 bc eb b6 75 bc
       -0.086372726 0.13497339 -0.02200976 -0.014997224
0001d0 dd 2c f8 3d c1 81 3e 3d 42 80 7d bd a5 0f c6 bd
       0.12117932 0.04651046 -0.061889894 -0.09670953
0001e0 a3 08 c6 3c 29 f5 1c bd d1 04 4d 3e 9d fb 0e be
       0.02417404 -0.03831974 0.20021369 -0.1396317
0001f0 c7 3c 98 3d 30 66 04 3d 85 02 86 be a3 b2 8c 3d
       0.07433467 0.032324016 -0.26173797 0.0687001
000200 e1 b5 05 bb a3 4b f5 bc a3 23 be 3c 3c bf 01 3e
       -0.0020402598 -0.029943293 0.023210352 0.12670606
000210 28 ea a3 3b cb 47 4f 3d df c5 c6 3d 57 5f 97 3d
       0.005002279 0.050605576 0.0970571 0.073912315
000220 ce 86 76 bd 75 ba 70 3d d1 6d 7e 3c 3c 08 18 3c
       -0.060187154 0.05877157 0.015529112 0.009279307
000230 28 6f bf bc 85 ee c3 bd 30 8d a0 bd 82 66 94 bd
       -0.023368433 -0.09566978 -0.078394294 -0.07246114
000240 20 89 65 3e ea 1e ea 3c eb 9f 80 3e 3c 9f 9b be
       0.2241559 0.028579194 0.25122008 -0.30394924
000250 e3 73 02 3e bf b5 a0 bd 47 18 c0 3e 07 b1 d6 bc
       0.1273952 -0.07847165 0.37518522 -0.02620746
000260 3b 01 28 3d c3 09 dc 3d 62 a8 83 be 1e d3 12 b8
       0.0410168 0.107440494 -0.25714403 -3.500573e-05
000270 cb 92 0f 3d cb 2c 86 3e 4b bd 61 bd cd fb d7 bd
       0.035052102 0.2620605 -0.055112164 -0.10546074
000280 ff 6a e9 bd 3b bf 5b 3e 25 88 89 3e a1 b2 9f be
       -0.11397361 0.21459667 0.26861683 -0.3119097
000290 4d 9e 5f be b7 eb fe bd d2 5e 4f bd 5d 9a 80 3e
       -0.2183773 -0.12447303 -0.050627537 0.2511777
0002a0 1c 57 91 3d d6 b1 f4 bc 52 17 83 3d 18 01 60 bd
       0.07096693 -0.029869955 0.06400932 -0.054688543
0002b0 c6 be f5 bd e6 e8 ec bd 90 4c 71 3d ff 3a b0 bb
       -0.11999278 -0.11567859 0.058910906 -0.0053781266
0002c0 11 98 f6 be 10 67 ed 3d 08 af 6d b7 7b d3 64 bb
       -0.48162892 0.11591923 -1.4167053e-05 -0.0034916091
0002d0 40 fc 8d bd 81 df 03 3e c6 08 23 3e ed c0 9d 3c
       -0.069328785 0.12878229 0.15921316 0.019257033
0002e0 01 c1 85 3e 05 d9 1a 3e 88 e0 34 bb d2 a5 23 bc
       0.26123813 0.15121849 -0.0027599651 -0.009988265
0002f0 c5 d6 55 be d1 0e 28 bd 32 71 77 bd 7c 2e 7c 3e
       -0.2088271 -0.041029755 -0.060410686 0.24627107
000300 7b 04 8f bd 8e 1d 07 bd 13 65 00 3e bb 24 2a be
       -0.069832765 -0.03298717 0.12538557 -0.16615574
000310 73 56 db 3d dd 70 8a 3b 58 46 3a 3e 52 8f 16 3e
       0.10709848 0.00422488 0.18190897 0.1470311
000320 e5 01 64 3e ff 4b 01 3f ea 20 3f bb 58 4f a8 3b
       0.22266348 0.50506586 -0.0029163905 0.0051364116
000330 4d 2f 49 bd a6 66 35 be 1c 2a 58 3d 69 26 5e 3e
       -0.049117375 -0.17714939 0.052774534 0.2169434
000340 6b 95 e5 bc 4f 69 d8 be 68 54 b8 3d d8 56 32 3e
       -0.02802535 -0.42267844 0.09000474 0.17415941
000350 0c c8 1c bf a4 c9 01 be e6 d4 fa bd 8c 64 05 bd
       -0.6124275 -0.12674576 -0.122476384 -0.032566592
000360 39 7a df 3d 39 83 61 3d ac d3 af 3c 71 13 94 3d
       0.10911984 0.055056784 0.021463238 0.07230271
000370 8e 27 ae bd 21 10 73 3e cc 26 00 3e 8d 23 cc be
       -0.08503638 0.23736621 0.125148 -0.39870873
000380 b3 75 4b 3d 05 3f 3f be e8 c9 75 be 62 a4 49 be
       0.049672794 -0.18676384 -0.24002802 -0.19691613
000390 db 95 b0 be 73 16 b5 3d 5d 3d dd 3c d6 83 cb 3d
       -0.3448933 0.088421725 0.0270068 0.09937255
0003a0 76 50 05 be 07 2e 5d 3e fd 5c b3 be bc 42 87 bc
       -0.13018975 0.2159959 -0.35031882 -0.016511314
0003b0 45 f7 35 3e b4 a8 0f bd d9 64 0d be 23 1d e7 be
       0.17770107 -0.035072997 -0.13808002 -0.45139417
0003c0 9d e0 59 be 3a 0f a8 bd 87 65 a4 bd 7e 07 96 bd
       -0.2127709 -0.08206029 -0.08027177 -0.07325648
0003d0 bc 05 f0 3d f3 d2 44 3c fd 40 aa bd e5 69 67 be
       0.11719844 0.012013185 -0.08313177 -0.2259899
0003e0 b9 f2 5c bd 42 4c 90 be 9a d5 aa 3d 22 5a c9 bd
       -0.053942416 -0.2818318 0.083415225 -0.098316446
0003f0 51 49 b9 3c e1 b7 bc bd d0 7f b3 be e3 9b 48 bc
       0.022617968 -0.092147596 -0.3505845 -0.012244198

model.2.bias f4 [128]
000000 16 96 1c 3e 74 29 4b 3e 91 66 19 bd ea e0 78 3e
       0.15291628 0.19840032 -0.03745133 0.24304548
000010 a7 bf a2 bd 22 51 ec bd a5 d5 b6 bc 25 72 f0 bd
       -0.07946711 -0.11538912 -0.02231867 -0.11740521
000020 90 b7 d0 bd 33 5e fc bd 2d 33 6d 3e 50 81 fa bd
       -0.10191262 -0.123226546 0.23164053 -0.12231696
000030 f0 9c af 3d 43 51 ef bd 7d 6d 30 3d 4e c1 21 be
       0.08574855 -0.11685421 0.043073166 -0.15796396
000040 59 8c 04 be 5d d2 59 3e e3 3d 81 bd 7a 09 2f bd
       -0.12944163 0.21271653 -0.06310632 -0.042733647
000050 80 69 58 be 1d fb 58 3e b1 8c 73 3e bc 28 5f be
       -0.21133995 0.21189542 0.23784138 -0.21792883
000060 e8 b3 5b be f7 f8 b1 bd 48 c0 f7 bd d0 ad 50 3d
       -0.21455348 -0.086900644 -0.120972216 0.05094701
000070 4a 4d de bd 0f 0a 7e be 9d 91 8b be 15 4f 86 3e
       -0.108545855 -0.24808525 -0.27259532 0.2623221
000080 28 44 f7 3d 71 e5 49 3e 1a b2 6c 3e 60 c8 1f be
       0.12073547 0.19716431 0.23114815 -0.15603781
000090 d6 bf 68 bd d1 f9 d6 bd ab 5c e1 bc 8d 93 fa bd
       -0.056823574 -0.104968674 -0.027510008 -0.12235174
0000a0 26 88 c9 3d 63 b8 4f 3e d8 f8 68 3e ed de 49 bd
       0.098404214 0.20285182 0.22751176 -0.049284864
0000b0 57 c8 a7 3d 72 f2 1f be eb 99 c4 bd 9f e7 03 be
       0.08192509 -0.1561983 -0.0959967 -0.12881325
0000c0 11 4b 41 3e 89 b8 4e be 2f 93 6d bd 4a 1c 4b be
       0.18876292 -0.20187582 -0.058001693 -0.1983501
0000d0 36 db 02 be af b0 08 3b 58 f5 06 be ac 66 0a 3e
       -0.12778935 0.0020857265 -0.13179529 0.13515729
0000e0 59 d5 2f be 65 43 44 3e 56 05 db bd ca 6b 66 3e
       -0.1717123 0.19166334 -0.10694377 0.22502056
0000f0 61 b9 83 3e 23 6a a5 3e 87 49 ab 3d d2 f0 9b bd
       0.2572737 0.32307538 0.083636336 -0.07614292
000100 63 24 6b be 56 c9 f9 bd 7a 05 84 3e 84 3a 07 be
       -0.22963099 -0.12196605 0.25785428 -0.13205916
000110 09 d5 ef bd 76 2c 2a 3e 67 ae 51 3e f7 77 69 3e
       -0.11710555 0.16618523 0.20476685 0.22799669
000120 23 09 35 3e ce 37 36 be a3 4c 15 3e a2 c3 5e 3e
       0.17679267 -0.17794725 0.14580016 0.21754315
000130 be 44 92 be ae eb 8b 3d a3 26 72 bd dc 24 43 be
       -0.2856807 0.06832062 -0.059118878 -0.1905703
000140 a5 d0 77 3e 74 81 5f be 1b 52 a5 bc d5 25 59 be
       0.24200685 -0.21826726 -0.020180753 -0.21205838
000150 43 87 53 3e 77 25 4d 3e 71 35 f7 bd 08 62 23 3e
       0.20657067 0.20033823 -0.1207074 0.15955365
000160 ca bb c6 bc 59 26 0e bd bb 32 ec 3d 5d f5 7e bd
       -0.024259467 -0.03470454 0.115331136 -0.062245715
000170 2a 79 c4 bc c4 18 25 be 00 71 24 bd 14 bc 36 3e
       -0.023983557 -0.16122729 -0.040146828 0.17845184
000180 6d 0a 66 3e de 21 21 3d a9 01 f3 bd eb b4 fb 3d
       0.22464915 0.03933894 -0.11865551 0.12290367
000190 d7 e1 2e 3e ea 86 21 3e cc cb 2d be d8 a7 ce bd
       0.17078339 0.15774122 -0.16972274 -0.100906074
0001a0 86 a5 dd bd ca 44 12 bd 91 a4 61 3e a4 e4 4c 3e
       -0.10822587 -0.035710134 0.22035433 0.20009094
0001b0 37 7b 5d 3e fc 02 f8 bd 54 7c 54 3e eb 98 68 3e
       0.21629034 -0.12109944 0.20750552 0.22714584
0001c0 d4 1a 4d 3e 49 28 7a 3e f4 3b 20 be ae 37 4b 3e
       0.20029765 0.2442943 -0.1564787 0.19845459
0001d0 7c 93 0b bd ec e7 c9 bd e5 fb 5b be 5a 8b 3a be
       -0.0340762 -0.09858689 -0.21482809 -0.18217221
0001e0 c0 87 f2 bd 92 a0 1e 3e e0 cb da bd 1c 49 69 bd
       -0.118422985 0.1549094 -0.10683417 -0.05695449
0001f0 9d 6e d0 bd d5 f0 c1 bd d2 14 16 3e 64 c5 62 be
       -0.10177348 -0.09469763 0.1465638 -0.22145611

model.4.weight f4 [5, 128]
000000 72 fd 29 3e 1e a6 99 3e 29 3d 6b be cc d3 f7 3d
       0.16600588 0.3000955 -0.2297255 0.12100944
000010 68 cd cc 3e 83 30 bc bd c2 59 0a bd b4 e3 ae be
       0.40000463 -0.091889404 -0.033777006 -0.341581
000020 37 f6 2e be 40 cc b4 be cf 48 e7 3d 6f bc 2c be
       -0.17086111 -0.3531208 0.11293184 -0.16868757
000030 b6 d1 91 be 2a 54 e8 be 7f 07 87 be 16 0f 0d be
       -0.2848031 -0.45376712 -0.26372907 -0.13775286
000040 d0 c1 6d bd e4 d0 73 3e f3 e1 f1 be 7a 64 e2 bd
       -0.058046162 0.23810154 -0.47242698 -0.11054321
000050 15 e3 3e be 98 54 97 3d ed 0f 40 3e 6c c4 88 be
       -0.18641312 0.07389182 0.18756075 -0.26712358
000060 bc bb 72 bf 14 1d a5 bd 46 36 fa bd ea 56 9d be
       -0.9481771 -0.08062187 -0.12217383 -0.30730373
000070 65 ac 7d be 37 75 16 bf 38 45 05 bf 27 e4 cf 3e
       -0.24772795 -0.58772606 -0.52058744 0.40603754
000080 e3 17 f2 3d 12 b1 23 3e 4a 84 07 3e b7 22 9f be
       0.11820962 0.15985516 0.13234058 -0.31081173
000090 0a f7 af be a0 05 31 bd 45 a9 fd be 0f c3 a5 be
       -0.34368163 -0.043218255 -0.49543205 -0.3237538
0000a0 34 0f ae 3d 82 e8 6b 3e 5c 86 d9 3d 5a 10 1e 3e
       0.084989935 0.23037913 0.1062133 0.15435925
0000b0 03 41 e5 3e 2d 3f 51 bf 9e 47 a1 be 5e 2a 5f be
       0.44776163 -0.81737024 -0.31499952 -0.21793506
0000c0 4c d5 ae 3d d6 ef 0e bf fd 3a 64 bd 04 2d b6 be
       0.08536777 -0.5583471 -0.055720318 -0.3558122
0000d0 4c 2b b2 be c5 0c 6b be a6 72 ee 3d 63 32 63 3e
       -0.34798658 -0.2295409 0.11642961 0.2218719
0000e0 3c 0d 8b be 34 29 14 3e d2 7a b6 be 3b 43 38 3f
       -0.27158535 0.14468843 -0.3564058 0.71977586
0000f0 d3 c1 20 3d 47 88 50 3f 9a 0b 47 be 40 11 2b bf
       0.039247345 0.8145794 -0.1943802 -0.66823196
000100 00 6f 8e bf cb 6f 08 bf f1 51 ee 3d dd f8 38 3d
       -1.1127625 -0.5329558 0.11636723 0.04515921
000110 34 88 ee be 92 6d 5e 3d c4 3a d9 3d 36 ac e4 3d
       -0.4658829 0.054303713 0.10606912 0.11165659
000120 1d 13 88 3d fe ee 3b bf ee 20 4b 3f 40 26 0d 3e
       0.066442706 -0.7341155 0.7934712 0.13784122
000130 a6 52 a1 be bf f4 6f be a5 b5 60 bf c5 ff 31 3d
       -0.31508368 -0.23433207 -0.8777717 0.04345681
000140 c6 aa 88 3d 37 4d 58 bf 37 ac d9 bc 8a d0 54 be
       0.066731974 -0.8449282 -0.026571376 -0.20782676
000150 b8 34 b0 3d 1e 3f 25 3e c6 ff a8 be b7 18 d3 bd
       0.08603805 0.16137359 -0.3300764 -0.10307448
000160 f9 f8 e4 be 83 4e f1 bd 47 70 ae 3e da cf ce 3b
       -0.447212 -0.11782553 0.34070036 0.006311399
000170 96 00 99 3f ce 73 dd be 82 0c ba 3d 0e 03 7e 3f
       1.1953304 -0.43252414 0.09084417 0.9922341
000180 a2 ee a6 3e 7b 14 3e be 4d 6f dd be b9 a2 33 3f
       0.32603937 -0.185625 -0.43248978 0.7017017
000190 2b 3a b0 3d f6 d9 b9 3e 88 14 15 be 13 11 f0 be
       0.08604845 0.36299103 -0.14558613 -0.46888027
0001a0 02 17 df be 4f 82 cd 3c 21 7e 35 3e 9b ae 52 3e
       -0.4357224 0.02508655 0.17723896 0.20574419
0001b0 8d f5 89 3e 29 15 b0 be af 7d 1c 3e 63 8d b5 3d
       0.26945153 -0.34391144 0.1528232 0.08864858
0001c0 5e ec 2f 3d 7c 03 4b 3e 08 36 27 bf 0b 41 b1 3d
       0.042950027 0.19825548 -0.6531682 0.08654984
0001d0 dd 2d 60 bf e8 dd 79 bb 60 c2 14 bf 68 a2 a0 be
       -0.8756998 -0.0038126651 -0.5810909 -0.31373906
0001e0 54 59 2b bf b3 04 2d 3e f0 26 8b be 9e 47 62 be
       -0.6693318 0.16896324 -0.27178144 -0.22097632
0001f0 1a 0c 18 c0 69 d5 db 3d c6 4f ee 3d fa aa b4 be
       -2.3757386 0.10734064 0.11636309 -0.35286695
000200 bf f0 7e 3d 3c b8 2c 3e ee 39 d0 be 4e 5a b9 3c
       0.062241312 0.16867155 -0.40669197 0.022626068
000210 2a 77 6a 3f 7a 86 d8 bd ad fb 18 be d5 e2 88 be
       0.9158808 -0.10572524 -0.14939757 -0.2673556
000220 ef 5c 8b be 34 04 41 be ce d8 25 3e 5a e2 83 bc
       -0.2721934 -0.1884926 0.16195986 -0.016099144
000230 19 6f 85 bf f7 10 d3 be 2e 06 ca bd 20 30 04 be
       -1.0424529 -0.4122388 -0.0986446 -0.12908983
000240 4b 44 34 be 1d dd a3 3e ed f5 db be fe 51 bb 3b
       -0.17604177 0.32004634 -0.42961064 0.0057165613
000250 5d 3b 5b be f8 f7 b2 3d 5a dd 04 3d 60 51 b5 be
       -0.21409364 0.087387025 0.03243766 -0.35413647
000260 2b a0 42 bf ed 4f 54 be ec c1 fa bc ed 84 18 bf
       -0.76025647 -0.20733614 -0.030610047 -0.5957783
000270 93 fd cb be e6 8c 2b bf cf e8 ca be ca ea ca 3e
       -0.398419 -0.6701187 -0.39630744 0.39632255
000280 28 19 58 3e b1 c5 96 3d 85 9c 0d 3e 5c 4b 14 bb
       0.21103346 0.073619254 0.13829239 -0.0022627926
000290 c4 f5 aa be 85 4d 27 bf 02 44 62 bd 85 6b 22 be
       -0.3339063 -0.6535266 -0.05524064 -0.15861328
0002a0 42 fc b9 3e e2 25 ae 3e 59 ee 16 3d f5 0c a7 3c
       0.3632527 0.34013277 0.0368484 0.02039192
0002b0 1e 02 e0 3e 87 4e 57 be 2d b7 a9 be fc ed 81 be
       0.43751615 -0.2102605 -0.33147565 -0.2537688
0002c0 87 72 19 3e 6a c0 22 bf 3a d2 70 3d 1c bb bc be
       0.14985095 -0.6357485 0.058794238 -0.36861503
0002d0 29 a6 39 be e0 9f 48 3e 09 20 39 be 39 cf 96 3e
       -0.18129791 0.19592237 -0.18078627 0.29454973
0002e0 0c 14 d4 bd 53 56 47 3e dc cd e4 be 20 4c 04 3f
       -0.10355386 0.19466524 -0.44688308 0.5167866
0002f0 72 e0 8e 3e dc d1 62 3f c3 89 27 bf 9c 8b 1f bf
       0.27905613 0.8860147 -0.6544458 -0.623224
000300 d6 b8 00 c0 d1 7f bb be 5d a1 42 3e 27 70 37 3d
       -2.0112815 -0.36620954 0.19006868 0.04478469
000310 12 29 1f bf 3e 47 84 3c 0e f8 ed 3d 45 b4 88 3d
       -0.62172043 0.016147252 0.11619578 0.06675009
000320 65 6d 82 3b 79 56 45 be 32 4b 18 3f 8c 88 0b 3e
       0.003980326 -0.19271268 0.5948974 0.13626307
000330 70 b8 cb be 32 92 b5 3e 36 9a e5 be 22 88 19 bf
       -0.39789152 0.354631 -0.44844216 -0.5997335
000340 67 5f 26 3e 4f 0e e4 be 02 e6 86 3d 3f b4 ff be
       0.1624733 -0.44542167 0.06586839 -0.49942204
000350 af cf c3 3d 2e 9c 99 3d 78 0e 23 bf 31 ec 59 3e
       0.09561097 0.07500492 -0.6369395 0.21281506
000360 14 a8 97 bf 8b a1 ae 3d 5c 7f 03 3f 14 13 2d bd
       -1.1848168 0.085269056 0.5136621 -0.042254522
000370 e2 63 70 3f ee 5c 47 bf be 0b 67 bc 16 2a cb 3f
       0.9390241 -0.77876174 -0.014101921 1.5872219
000380 d7 f4 d1 3e ec 60 11 3f 44 b6 76 be a7 5f 23 3f
       0.4100711 0.56788516 -0.24092966 0.6381783
000390 92 06 06 3e 3b 87 7d bf 8b 62 26 bf f3 9a d7 be
       0.13088444 -0.9903447 -0.64994115 -0.42110404
0003a0 c7 ce d6 be 89 4a d7 bc 44 f5 22 3e 4a ff 53 3d
       -0.41954634 -0.026280658 0.15913874 0.051757134
0003b0 00 6a d5 3d 41 65 ab be de 48 17 3e db 5b e6 3d
       0.104206085 -0.33475688 0.1477389 0.11247989
0003c0 b9 5c f6 3d 9b e3 6e 3e dd ef 44 bf db ee 52 3e
       0.12029404 0.23329012 -0.769285 0.20598929
0003d0 72 d2 23 bf 53 d6 63 be c6 a4 6d bf d5 39 c7 be
       -0.6399299 -0.22249727 -0.9282955 -0.3891131
0003e0 fa 12 f9 be ad 17 59 3d 9f 92 ad be 1e 53 c3 be
       -0.4864729 0.053001095 -0.33900926 -0.3814935
0003f0 d4 7e 0c c0 3a 23 95 be 03 31 0f be 4c 13 81 be
       -2.195241 -0.29128438 -0.1398354 -0.25210035

model.4.bias f4 [5]
000000 c0 a7 d7 3d 71 67 d5 3d a0 f2 4f 3e 95 e9 56 3e
       0.10530043 0.104201205 0.20307398 0.20987542
000010 98 3e 38 3e
       0.17992628
