map/log/simple_adversary_elign_adv/final_critic2_5.pkl (torch, 95191 bytes, 6 tensors)

model.0.weight f4 [128, 47]
0	0xbf62a748	-0.885365
1	0xbf4b8b52	-0.7950946
2	0xbe9fc6af	-0.3120627
3	0xbec59cfa	-0.38596326
4	0xbeb8ebb6	-0.36117333
5	0x3ee359f8	0.44404578
6	0x3d3cc0e9	0.04608241
7	0x3c0de0d0	0.0086595565
8	0x3d4b739e	0.049670808
9	0x3d0ef324	0.034899846
10	0x3ce3d78c	0.027812742
11	0xbe84fda3	-0.2597476
12	0xbeda393d	-0.42621794
13	0xbd470870	-0.04859203
14	0xbe63624d	-0.22205468
15	0xbdc6ddf9	-0.09710307
16	0x3e2188cb	0.15774839
17	0xbea55576	-0.32291764
18	0x3e0a83aa	0.13526788
19	0xbf00d723	-0.5032827
20	0x3e564d1c	0.20927852
21	0x3e6f68e3	0.23379855
22	0x3f1eb45a	0.61993945
23	0xbd320d32	-0.043469615
24	0xbe33f20e	-0.17572805
25	0x3decd02e	0.115631446
26	0xbe5d4e5c	-0.21611923
27	0xbdb46909	-0.08809096
28	0x3ed1f0c9	0.41004017
29	0x3d5c0b2b	0.053721588
30	0x3e446886	0.19180498
31	0xbda97440	-0.08274126
32	0x3f092ff1	0.5358878
33	0xbcc45fd8	-0.023971483
34	0x3e4838eb	0.19552962
35	0xbd27b2d5	-0.040942032
36	0xbdefa952	-0.11702217
37	0xbd880794	-0.066420704
38	0xbdea1bce	-0.114310846
39	0xbd6f450d	-0.05841546
40	0xbe2bb02d	-0.16766424
41	0xbd675b00	-0.05648327
42	0xbdba3b52	-0.09093346
43	0xbc1e2a59	-0.009653651
44	0xbd178575	-0.03699251
45	0x3e8d2772	0.27569157
46	0xbe9a2079	-0.301029
47	0x3e15212a	0.14563432
48	0xbc41cf0b	-0.011829148
49	0x3e1defbf	0.15423487
50	0x3dcc75b7	0.0998339
51	0x3e5d4bb3	0.21610908
52	0xbe010dc9	-0.12602915
53	0xbcd751ce	-0.026284125
54	0xbd1a1400	-0.03761673
55	0xbc5c9afe	-0.013464687
56	0xbb8e1ecd	-0.004337168
57	0xbdf0434c	-0.11731586
58	0x3e7c4b85	0.24638183
59	0x3f2954c1	0.6614495
60	0x3e7a854a	0.24464908
61	0x3ee5882b	0.4483045
62	0x3cb352f4	0.021890141
63	0xbec0ecb3	-0.37680587
64	0x3e01b7c8	0.12667763
65	0xbdc191fc	-0.094516724
66	0xbd8696b9	-0.06571717
67	0x3d79e199	0.061006162
68	0x3e7449b2	0.23856238
69	0x3ed4f7c1	0.4159527
70	0x3da73e08	0.081661284
71	0x3e6e7e76	0.23290429
72	0xbd0f1eb3	-0.034941386
73	0x3db68fb0	0.08914125
74	0x3db7a5be	0.0896716
75	0xbd5af526	-0.053456448
76	0x3d34ef72	0.044173665
77	0x3cad0e0c	0.021124862
78	0x3d3805cf	0.044927415
79	0x3ce9e529	0.028551655
80	0xbc2d3705	-0.0105722
81	0x3df45f8f	0.11932289
82	0xbdc1c66c	-0.09461674
83	0x3d95cabd	0.0731406
84	0x3dcdf868	0.10057145
85	0x3d6906d1	0.056891266
86	0xbda9bea3	-0.08288314
87	0x3da2a2a0	0.079411745
88	0xbc972790	-0.018451482
89	0x3e3669e1	0.17813827
90	0x3cc1541c	0.023599677
91	0x3d4a145f	0.049335834
92	0xbe201602	-0.15633395
93	0x3ed3c602	0.41362005
94	0xbe863609	-0.262131
95	0x3c9b50df	0.01895946
96	0x3b43b11c	0.0029860204
97	0xbc1e2e06	-0.0096545275
98	0x3bfd8157	0.007736366
99	0x3ddb81e3	0.10718133
100	0xbc64fc39	-0.01397615
101	0xbc8bf0f4	-0.017082669
102	0xbbe36e95	-0.0069406726
103	0xbc40556d	-0.011739117
104	0x39b1814f	0.00033856413
105	0xbfa6ca5d	-1.3030506
106	0xbe4a3af2	-0.19749048
107	0x3bc7f5c2	0.0061022947
108	0x3bc5fba1	0.0060419594
109	0xbdd00ee9	-0.10159094
110	0xbd62b602	-0.055349357
111	0xbc8262cd	-0.015916253
112	0xbc81ff9a	-0.01586895
113	0xbd74cb6c	-0.05976431
114	0xbdbb3a9b	-0.091420375
115	0x3e2a7253	0.16645174
116	0xbcc0d394	-0.023538388
117	0xbe133b5e	-0.14378116
118	0xbd815c99	-0.0631649
119	0x3aae9095	0.0013318235
120	0x3bb55f54	0.0055350456
121	0x39f16b1a	0.000460469
122	0xbc79bc28	-0.015242614
123	0xb9cc46a5	-0.00038962546
124	0x3c9aba54	0.018887676
125	0xbc35eeb7	-0.011104277
126	0xbce159ef	-0.027508704
127	0x3d3c63d5	0.045993645
128	0xbc8019a8	-0.015637234
129	0xbcdcdfa0	-0.026962101
130	0xbd897d21	-0.067133196
131	0xbc03734f	-0.008023097
132	0xbde2c4c1	-0.11072684
133	0xbca7e847	-0.0204965
134	0xbcc82a0b	-0.02443411
135	0xbd594176	-0.053040944
136	0xbd408f18	-0.047011465
137	0xbc89f716	-0.016841453
138	0xbd4321a4	-0.047639504
139	0x3f98510e	1.1899736
140	0x3ecb1e48	0.3967154
141	0x3d92b1ae	0.07162796
142	0x3ca925d2	0.020647917
143	0xbea45c53	-0.32101688
144	0xbe3c6a39	-0.18399896
145	0xbdfae08f	-0.122498624
146	0xbde8355d	-0.11338303
147	0x3ce883e1	0.028383197
148	0x3deeb358	0.11655301
149	0x3e302c4f	0.17204402
150	0x3db11420	0.08646417
151	0x3dd14c1e	0.10219596
152	0xbe78dfc2	-0.24304107
153	0x3d8d61d1	0.069034226
154	0x3e5e8c35	0.21733172
155	0xbe298988	-0.1655637
156	0x3e7c32c1	0.24628736
157	0xbdb75045	-0.08950857
158	0x3e352db4	0.17693216
159	0xbdfd27c8	-0.12361103
160	0x3e2ff7b4	0.17184335
161	0x3abdd587	0.0014483192
162	0x3f8a6f83	1.0815281
163	0xbedbd8ce	-0.42938846
164	0x3b1ec470	0.0024225973
165	0x3d98c960	0.07460284
166	0x3bbb64c4	0.0057187993
167	0x3d91e46c	0.07123646
168	0x3dc1129d	0.09427378
169	0x3dfd896e	0.12379728
170	0xbc857df0	-0.016295403
171	0x3d7a6a4d	0.061136533
172	0xbdd31e43	-0.10308506
173	0x3cc93c85	0.02456499
174	0xbe0f9f3e	-0.1402559
175	0x3d88f9a7	0.066882424
176	0xbe239a59	-0.15976848
177	0x3b4f1eaf	0.0031603982
178	0xbe47a511	-0.19496562
179	0x3d6d22be	0.05789446
180	0xbd398716	-0.045294844
181	0x3d8164a4	0.06318024
182	0xbd14a3da	-0.036289074
183	0x3de9e59a	0.11420746
184	0xbdce25a8	-0.10065776
185	0x3e1d16b6	0.15340695
186	0xbef1edd2	-0.47251755
187	0x3d686677	0.056738343
188	0x3e9e704a	0.30945045
189	0x3ecabbb5	0.39596334
190	0xbe4d734d	-0.20063515
191	0xbe483770	-0.19552398
192	0xbdfb6703	-0.12275507
193	0x3b699bfd	0.0035645955
194	0x3dd03148	0.1016565
195	0x3da55065	0.08071975
196	0x3c94c0e7	0.01815839
197	0xbc9332a9	-0.017968493
198	0x3d86bc89	0.06578929
199	0x3e142018	0.14465368
200	0x3c399297	0.011326454
201	0x3c8444f8	0.016146168
202	0x3dd674fc	0.10471532
203	0xbea16755	-0.3152415
204	0x3f161a5e	0.58633983
205	0xbcc0fa49	-0.023556845
206	0x3f1894d7	0.5960211
207	0x3e2ced46	0.16887388
208	0x3e940331	0.28908685
209	0x3da9b5eb	0.08286651
210	0x3ed92960	0.4241438
211	0x3e0b0bdb	0.13578741
212	0x3e197b88	0.1498853
213	0x3ce91ea9	0.028457003
214	0x3dcaf280	0.099095345
215	0xbe41e9bb	-0.18936817
216	0x3df685b2	0.12037219
217	0x3cf0eb78	0.029409155
218	0x3e959b3e	0.29220003
219	0xbd192350	-0.037387192
220	0x3d669616	0.056295477
221	0xbdd67969	-0.10472376
222	0xbe3eeecf	-0.18645786
223	0xbdafaaed	-0.085775234
224	0xbe19f1ce	-0.15033647
225	0xbe017bab	-0.12644832
226	0x3ddba4e7	0.10724812
227	0xbd9615d7	-0.07328384
228	0xbce402fe	-0.027833458
229	0xbd881a99	-0.06645698
230	0xbcd59eb1	-0.026076647
231	0xbd659deb	-0.056058805
232	0xbd80bda0	-0.06286168
233	0x3deb9867	0.11503678
234	0xbf1bc9bd	-0.60854703
235	0x3e4c5914	0.19955856
236	0x3ea51836	0.32245034
237	0xbd38e658	-0.045141548
238	0x3df27026	0.11837797
239	0xbdd0fc3f	-0.10204362
240	0xbe5816f0	-0.211025
241	0xbc984c61	-0.018591108
242	0x3cd7be16	0.026335757
243	0xbbb4e61e	-0.005520596
244	0x3c278694	0.010224957
245	0xbcdb9da8	-0.026808575
246	0xbea174f7	-0.3153455
247	0x3ec51724	0.38494217
248	0xbe0ab5db	-0.13545935
249	0x3e4a2981	0.19742395
250	0xbed3e7be	-0.41387743
251	0xbdf30c76	-0.11867611
252	0xbeab97e6	-0.33514327
253	0xbec97962	-0.3935042
254	0xbe6e5a29	-0.23276581
255	0xbdc44b22	-0.09584643

model.0.bias f4 [128]
0	0x3e8d8d66	0.2764694
1	0xbe0ee6a2	-0.13955167
2	0x3d70a92a	0.058755077
3	0xbdcac46f	-0.09900748
4	0xbda95d91	-0.082697995
5	0xbe660417	-0.22462498
6	0x3dc1a0bb	0.09454485
7	0x3eaf413e	0.34229463
8	0xbe7e1963	-0.24814372
9	0x3df48cd8	0.11940926
10	0xbe63e42d	-0.22255011
11	0xbca2dad1	-0.01987973
12	0xbd79eca4	-0.061016694
13	0xbe46942e	-0.19392464
14	0xbe6f4276	-0.23365197
15	0x3e45e25e	0.19324633
16	0x3cfd42e3	0.030915683
17	0xbe726ee6	-0.23675117
18	0x3ec7cd4e	0.39023823
19	0xbda50c89	-0.080590315
20	0xbd8900c1	-0.06689597
21	0xbe78bc5e	-0.24290606
22	0xbdac47f1	-0.08412159
23	0xbc0be53e	-0.008538542
24	0xbe93d67a	-0.2887457
25	0xbce5c6a0	-0.028048813
26	0xbe228158	-0.15869653
27	0xbe13a560	-0.14418554
28	0xbb87c448	-0.0041432716
29	0xbc927e72	-0.01788256
30	0x3c1c6b8b	0.009547125
31	0x3e2a5544	0.16634089
32	0xbd15d627	-0.036581185
33	0xbd9069c0	-0.0705142
34	0x3e23c574	0.15993291
35	0x3ce33d08	0.027739063
36	0x3d6fe380	0.05856657
37	0x3e8bfe32	0.27342373
38	0xbe0539b9	-0.130103
39	0xbda416e1	-0.08012176
40	0x3e4af2b9	0.19819154
41	0x3e4c06ad	0.19924422
42	0xbe065e8e	-0.13122007
43	0xbd495aba	-0.04915879
44	0xbdbc2ab6	-0.09187834
45	0xbe2762a2	-0.16346219
46	0x3e988d95	0.2979552
47	0x3c8e3905	0.017361173
48	0x3ed74750	0.42046595
49	0xbcd74b6c	-0.026281081
50	0xbe9314f3	-0.2872692
51	0xbe334ce0	-0.17509794
52	0xbe8b0c0c	-0.2715763
53	0xbd5a41d8	-0.05328545
54	0x3ddbb154	0.10727182
55	0xbe3c553b	-0.18391888
56	0xbd43ce09	-0.047803912
57	0xbd8aa996	-0.06770627
58	0xbd77e7fb	-0.06052397
59	0xbd44b617	-0.048025217
60	0xbe2ddc06	-0.16978464
61	0x3d2917a1	0.0412823
62	0xbdce6460	-0.10077739
63	0xbb455914	-0.003011291
64	0xbdd351a6	-0.103183076
65	0xbe3f69fd	-0.18692775
66	0x3b197d2a	0.002342055
67	0x3c5f8e59	0.013644778
68	0x3d775150	0.06038028
69	0xbe7264ba	-0.23671237
70	0xbdde15d6	-0.108440086
71	0xbdf5111f	-0.11966156
72	0xbda4a1d9	-0.080386825
73	0x3d5acff7	0.053420987
74	0xbd83d2a2	-0.064366594
75	0xbe34b0eb	-0.17645614
76	0xbd813112	-0.063081875
77	0xbd9bceb5	-0.076077856
78	0xbe0415e7	-0.1289898
79	0xbe26cc81	-0.1628895
80	0x3e466abb	0.19376652
81	0x3cb9d001	0.022682192
82	0xbb442a14	-0.0029932307
83	0xbd75a062	-0.059967406
84	0x3d629584	0.05531837
85	0xbdc9547a	-0.09830566
86	0xbe70f106	-0.23529443
87	0xbe5b587e	-0.21420476
88	0x3c088b58	0.008334003
89	0xbe62547d	-0.22102542
90	0x3ee5e72b	0.4490293
91	0x3d289a02	0.0411625
92	0xbcda7f01	-0.026671888
93	0xbd9e591d	-0.07731841
94	0x3e6c2dcb	0.23064344
95	0xbe5a8575	-0.21339972
96	0xbc3d9587	-0.011571295
97	0xbe1f70ce	-0.15570375
98	0xbc9c84bb	-0.01910626
99	0xbd804b2f	-0.0626434
100	0xbe2b4471	-0.16725327
101	0x3e0aa47e	0.13539311
102	0x3da6b522	0.08140017
103	0x3d7676e6	0.060171984
104	0x3e572560	0.21010351
105	0x3e68a42e	0.2271888
106	0x3ccaa97a	0.024739016
107	0xbd6f676e	-0.058448248
108	0x3ee34fef	0.44396922
109	0xbe5cac85	-0.21550186
110	0x3de57f53	0.11205926
111	0xbbef65c7	-0.007305834
112	0xbe1dc744	-0.15408045
113	0x3e21e48f	0.15809844
114	0x3d8d1360	0.06888461
115	0x3d41e316	0.047335707
116	0xbd9a235f	-0.07526278
117	0xbda95d77	-0.0826978
118	0x3dfb6cd6	0.12276618
119	0xbea34107	-0.3188555
120	0xbe01fdc2	-0.12694457
121	0x3dbe5c43	0.09294941
122	0x3e53babd	0.20676704
123	0x3d26c242	0.040712602
124	0xbe1f44ff	-0.15553664
125	0x3c05bb90	0.008162394
126	0x3df201a7	0.118167214
127	0x3c7736a0	0.015088707

model.2.weight f4 [128, 128]
0	0x3d614509	0.054997478
1	0xbe16a67f	-0.1471195
2	0x3e12f813	0.14352445
3	0xbf0aa9ff	-0.54165643
4	0x3ecc46ac	0.39897668
5	0x3d6df709	0.05809692
6	0x3e2f5144	0.17120844
7	0x3dd0763f	0.10178804
8	0x3e51dfc5	0.20495518
9	0x3d9cfa15	0.07664887
10	0x3e7cd528	0.24690688
11	0x3e49dafa	0.19712439
12	0xbe0a9946	-0.13535032
13	0xbc9489f4	-0.018132187
14	0xbdcb96fe	-0.09940909
15	0xbea3985c	-0.31952178
16	0x3ed09bd5	0.4074389
17	0x3e359c0f	0.17735313
18	0x3d461d99	0.04836807
19	0x3dbdbee3	0.092649244
20	0x3e22b656	0.15889868
21	0x3dfb6510	0.122751355
22	0x3df02259	0.11725301
23	0x3e37faef	0.17966817
24	0xbe090c7c	-0.13383669
25	0xbd144e1c	-0.036207303
26	0x3eed6ccb	0.46372065
27	0xbd3e3fd6	-0.046447597
28	0xbc909011	-0.017646821
29	0xbe7caec0	-0.24676037
30	0xbce87990	-0.028378278
31	0xbd01e536	-0.031712733
32	0xbe16d319	-0.14728965
33	0x3d89b6c0	0.0672431
34	0x3c6607ac	0.014039915
35	0xbbe6ee47	-0.007047448
36	0x3d85e8a6	0.06538515
37	0x3e1789ea	0.14798704
38	0xbd00083d	-0.031257857
39	0x3e3ff75c	0.18746704
40	0x3e9a8345	0.30178276
41	0x3d9414da	0.072305396
42	0xbdf64950	-0.12025702
43	0xbdbe8fc3	-0.09304764
44	0x3df46617	0.119335346
45	0xbe430778	-0.19045818
46	0x3cbaa998	0.022785947
47	0xba3b7d65	-0.0007152169
48	0xbebc4ea6	-0.36778754
49	0x3db9621d	0.09051917
50	0xbec53b2b	-0.38521704
51	0xbec1867b	-0.37797913
52	0xbf0f6b74	-0.56023335
53	0x3dd6b351	0.10483421
54	0xbe777357	-0.24165092
55	0xbd37d49f	-0.044880506
56	0xbe08c645	-0.13356884
57	0x3ed01591	0.40641454
58	0x3de81441	0.11331988
59	0x3e214cd6	0.15751967
60	0x3dfc15a7	0.12308817
61	0xbe642a59	-0.2228178
62	0xbdca1bbc	-0.09868571
63	0x3de95872	0.11393823
64	0x3e595f4c	0.21227759
65	0xbd8a4ced	-0.06752954
66	0xbea68e27	-0.3253033
67	0x3e026fc7	0.12737952
68	0xbe0b8f1e	-0.13628814
69	0xbe46bfb4	-0.19409066
70	0x3c9148e1	0.017734947
71	0xbe25c464	-0.16188198
72	0x3daae9ec	0.08345398
73	0x3dbdaec7	0.09261852
74	0x3ef6c26d	0.4819521
75	0xbdc2625d	-0.094914176
76	0x3e43ccbc	0.19121069
77	0x3dd77bc2	0.10521652
78	0x3e17a47c	0.1480884
79	0x3d102aef	0.035197195
80	0xbb926679	-0.004467782
81	0x3e1ab5c5	0.15108402
82	0x3e4afc31	0.19822766
83	0xbe63a447	-0.22230636
84	0x3d721dba	0.05911038
85	0xbd5ae8ff	-0.05344486
86	0xbd2649d9	-0.04059777
87	0x3e31e5ad	0.1737277
88	0x3e8acbc8	0.27108598
89	0xbe2767f7	-0.16348253
90	0xbce9e005	-0.028549204
91	0xbd8eecdf	-0.06978773
92	0xbeacc67c	-0.33745182
93	0xbe0ec581	-0.1394253
94	0x3df6baa4	0.120473176
95	0x3bceebfa	0.0063147517
96	0xbc8b5d3b	-0.01701223
97	0x3e8a0a9b	0.26961216
98	0x3e22f078	0.15912044
99	0x3df173ff	0.117897026
100	0xbe436863	-0.19082789
101	0xbd4a2683	-0.049353134
102	0x3e7cb8c8	0.24679863
103	0xbe1991af	-0.1499698
104	0x3e0ea7ee	0.13931248
105	0xbe27b00a	-0.16375747
106	0xbbff9d60	-0.007800743
107	0x3e0bf3af	0.13667177
108	0xbe1a2d96	-0.15056452
109	0x3e3cb3ba	0.18427935
110	0x3da7f7a6	0.08201532
111	0xbea798cb	-0.3273376
112	0xbd5c775b	-0.053824764
113	0x3e565203	0.20929722
114	0x3e5e42a9	0.21705116
115	0x3d52f633	0.051504325
116	0xbeac9a3d	-0.33711424
117	0xbe49bcc0	-0.19700909
118	0xbc13feec	-0.009032946
119	0xbea2212f	-0.31665942
120	0x3da2bb42	0.07945873
121	0xbe15886d	-0.14602824
122	0xbed82cc2	-0.42221648
123	0x3e56ef27	0.20989667
124	0x3b092b86	0.0020930483
125	0x3d9d8dfe	0.076930985
126	0x3dd2902e	0.10281406
127	0xbd871687	-0.065960936
128	0x3df4b17b	0.11947914
129	0xbdc96209	-0.09833152
130	0x3e1aadc7	0.15105353
131	0xbdca1cf1	-0.098688014
132	0x3d3afee9	0.045653258
133	0x3ddd8451	0.10816253
134	0xbdda52dc	-0.106603354
135	0xbd5e8ede	-0.054335468
136	0xbe0b6968	-0.13614428
137	0xbe9b047e	-0.30276865
138	0xbc8f80f0	-0.017517537
139	0x3cd7f0ff	0.026360033
140	0x3e0e5915	0.1390117
141	0xbdbb1920	-0.091356516
142	0xbd0768cf	-0.033058938
143	0x3cbbc083	0.022918945
144	0x3daba1f4	0.083804995
145	0xbeb4c5ee	-0.35307258
146	0xbdb25361	-0.087073095
147	0x3e12dfa5	0.14343126
148	0x3d93836d	0.07202802
149	0xbe14f57c	-0.1454677
150	0x3f11abd4	0.56902814
151	0x3d0119e4	0.03151883
152	0xbe90a8c8	-0.2825377
153	0x3e81bf18	0.25341105
154	0x3e8a3755	0.2699534
155	0x3dea10d4	0.11428991
156	0x3da0137c	0.07816216
157	0xbd2c20e8	-0.04202357
158	0xbe155f85	-0.14587219
159	0xbb42a706	-0.0029701605
160	0xbd49b76b	-0.049247187
161	0x3e2a03e1	0.16603042
162	0x3d11aa23	0.035562646
163	0xbde0e4b7	-0.10981124
164	0xbc9a2f90	-0.018821508
165	0x3db98bfc	0.09059903
166	0x3d93909b	0.07205316
167	0x3e984a88	0.29744363
168	0xbdb11f58	-0.086485565
169	0xbd9334b6	-0.07187788
170	0xbeb26e1d	-0.34849635
171	0x3e84adf3	0.25913963
172	0x3ea10b83	0.31454095
173	0xbde598ce	-0.11210786
174	0xbe0bb8ec	-0.13644761
175	0x3e453e66	0.19262084
176	0xbde5d33b	-0.1122193
177	0x3df7e3a1	0.12103964
178	0x3ec473de	0.3836965
179	0xbe0f99bf	-0.14023493
180	0x3dfa9307	0.122350745
181	0x3cad780e	0.02117541
182	0xbebea5c7	-0.37235853
183	0x3e55c0ff	0.20874403
184	0xbd875296	-0.06607549
185	0x3d9df548	0.07712799
186	0x3e216731	0.1576202
187	0xbe3a7adb	-0.18210928
188	0x3ea91185	0.3302118
189	0x3e0fc50f	0.14040016
190	0xbe3c61bc	-0.18396658
191	0x3a972f44	0.0011534472
192	0x3eaee1be	0.34156603
193	0x3ab66e6c	0.0013918406
194	0xbd58bf15	-0.052916605
195	0x3d8a9d04	0.067682296
196	0x3e44d46f	0.19221662
197	0x3ec01f82	0.3752404
198	0x3e014133	0.12622528
199	0x3d741eef	0.059599813
200	0xbe328365	-0.17432936
201	0xbeaf5994	-0.3424803
202	0x3e016e75	0.12639792
203	0x3cba8752	0.022769604
204	0xbebc99d5	-0.36836115
205	0x3d4420f2	0.04788298
206	0x3d0d9af7	0.034571614
207	0x3dce6c37	0.10079234
208	0x3d4ce58f	0.05002361
209	0x3e0684d1	0.13136603
210	0xbe3ba3d8	-0.1832422
211	0x3e087763	0.13326792
212	0x3e8bc66f	0.2729983
213	0xbe4616b7	-0.19344603
214	0x3d7f6029	0.062347565
215	0x3e6781a8	0.22608054
216	0xbe3f20e3	-0.18664889
217	0x3f2ffdc4	0.6874659
218	0xbe0458e7	-0.12924539
219	0x3e1d87e6	0.15383872
220	0x3f071bc1	0.52776724
221	0xbe889958	-0.26679492
222	0x3da977a1	0.082747705
223	0xbd7554de	-0.05989539
224	0xbd8adb89	-0.06780154
225	0xbe7b3964	-0.24533612
226	0x3d14523b	0.036211234
227	0xbe880207	-0.26564047
228	0xbddfc8f4	-0.10927001
229	0xbd013440	-0.03154397
230	0x3ddc224e	0.107487306
231	0xbdfbbec0	-0.12292242
232	0x3d975c9d	0.073907115
233	0x3b717a86	0.0036846711
234	0x3e40913f	0.18805407
235	0x3ea7a453	0.32742557
236	0xbe96e873	-0.2947422
237	0x3e3aa23b	0.18225949
238	0xbdc4bf8b	-0.096068464
239	0xbf1dae68	-0.6159425
240	0xbe2594b0	-0.16170001
241	0x3bd34848	0.0064478256
242	0x3e38b430	0.18037486
243	0x3e17cd47	0.14824401
244	0x3d33a1a6	0.04385533
245	0x3ca4c95a	0.020115543
246	0xbe63f76f	-0.22262357
247	0x3e0167e1	0.12637283
248	0x3e3435a0	0.17598581
249	0xbd21f416	-0.03953942
250	0xbe847fbc	-0.25878704
251	0x3e03cc74	0.12870961
252	0x3ebfe294	0.37477553
253	0x3ec597a6	0.3859226
254	0x3d07ad07	0.033123996
255	0xbea9ec59	-0.3318813

model.2.bias f4 [128]
0	0xbdbc56cd	-0.091962434
1	0xbdef8d47	-0.116968684
2	0xbda11891	-0.07866014
3	0xbe057636	-0.13033375
4	0x3dbc03f3	0.09180441
5	0x3d760031	0.060058776
6	0xbe2191ea	-0.15778318
7	0xbdf50d52	-0.11965431
8	0x3e4b6cea	0.19865766
9	0xbd507457	-0.0508922
10	0xbe2ae067	-0.16687165
11	0x3e968f33	0.29406127
12	0x3e58b515	0.21162827
13	0x3c9beccf	0.019033818
14	0xbc91d512	-0.017801795
15	0xbdb0a4cd	-0.08625183
16	0xbd4c4dde	-0.049878947
17	0x3e016003	0.12634282
18	0x3e9c0d18	0.3047874
19	0xbd986eff	-0.07443046
20	0xbea63bc8	-0.32467484
21	0x3dae4c6c	0.0851067
22	0x3d183cdf	0.037167426
23	0xbda59930	-0.08085859
24	0x3e7ed9a9	0.24887718
25	0xbd682c85	-0.056683082
26	0x3e5bdd69	0.2147118
27	0xbdbfd1b2	-0.09366168
28	0x3d185a51	0.037195507
29	0x3e8ba94e	0.27277607
30	0xbeae1b79	-0.34005335
31	0x3d4a7fb2	0.049438186
32	0x3e403883	0.18771558
33	0x3e62ac5a	0.2213606
34	0x3e8d7e73	0.27635536
35	0xbd39ad57	-0.045331325
36	0xbddc23e9	-0.10749037
37	0xbd8f9bee	-0.07012163
38	0x3e1272d7	0.1430162
39	0xbb81f264	-0.003965663
40	0x3d8e1eac	0.06939444
41	0x3e5f5f31	0.21813656
42	0x3e4dbc1b	0.20091288
43	0x3e59f84c	0.21286124
44	0xbe833e7c	-0.2563361
45	0x3e1eaf08	0.15496457
46	0x3e9bc10b	0.30420718
47	0x3e8c79b9	0.27436617
48	0x3e751c6d	0.23936625
49	0xbd983b06	-0.07433133
50	0xbda73884	-0.081650764
51	0x3e94b203	0.29042062
52	0xbe6b5edb	-0.22985403
53	0x3bc95322	0.0061439434
54	0x3e40eba9	0.18839897
55	0xbcee84e3	-0.0291161
56	0xbe009a3c	-0.12558836
57	0xbe6e8f61	-0.23296882
58	0xbdfcb5e5	-0.12339381
59	0x3e94e371	0.29079774
60	0x3ec42bac	0.3831457
61	0x3e169942	0.147069
62	0xbd77fbc7	-0.060542848
63	0x3bc880e3	0.00611888
64	0xbf0119e7	-0.5043015
65	0x3decba98	0.115590274
66	0x3e3991cf	0.18122028
67	0xbd45e3c9	-0.048312936
68	0xbd727ff7	-0.059204068
69	0x3d82c111	0.06384481
70	0x3e5f031d	0.21778531
71	0x3e127123	0.1430097
72	0x3e8374e1	0.2567511
73	0xbe1a921d	-0.150948
74	0xbeb22294	-0.34792006
75	0x3d817a31	0.06322134
76	0xbd0e9519	-0.03481016
77	0xbe11e574	-0.14247686
78	0xbcdcd894	-0.026958741
79	0xbcbf100e	-0.023323085
80	0xbd1aa716	-0.037757
81	0xbdd52b54	-0.10408655
82	0x3ed69f68	0.41918492
83	0xbd865d54	-0.0656077
84	0x3e16b3ca	0.14717022
85	0x3e2f9820	0.17147875
86	0x3d81fc58	0.06346959
87	0xbe809bbf	-0.25118825
88	0x3de1b204	0.11020282
89	0xbd739964	-0.059472457
90	0x3d24a099	0.04019222
91	0x3d0f58dc	0.034996852
92	0xbca6d665	-0.020365903
93	0x3e6222b4	0.2208355
94	0xbd68ee33	-0.05686779
95	0x3e08938a	0.13337532
96	0xbe7fba0d	-0.24973316
97	0x3e73845d	0.23780961
98	0xbe4cd1a8	-0.20001853
99	0xbcc4b39a	-0.024011422
100	0x3e82a96a	0.25519878
101	0x3e9ec0dd	0.31006518
102	0x3d9fb177	0.077975206
103	0x3e358b91	0.17729022
104	0x3cbc16b9	0.022960054
105	0x3df7d258	0.12100667
106	0x3e339f6b	0.17541282
107	0x3eae021f	0.33985993
108	0xbdf5b891	-0.11998094
109	0xbe50d07b	-0.20392029
110	0xbd8b9388	-0.06815249
111	0x3c776532	0.01509981
112	0xbdf8a966	-0.12141685
113	0x3e4ee8f2	0.20206049
114	0x3e70471d	0.23464628
115	0x3eafb87f	0.34320447
116	0xbe23c4d2	-0.1599305
117	0xbdc86984	-0.097857505
118	0xbe9c7df6	-0.3056485
119	0x3e53d269	0.20685734
120	0xbd0350c9	-0.032059465
121	0x3d0f73e4	0.03502263
122	0xbda5f849	-0.08103997
123	0x3d966b14	0.07344642
124	0xbe40d675	-0.18831809
125	0xbc908604	-0.017642029
126	0xbe20f169	-0.1571709
127	0xbd94a297	-0.07257574

model.4.weight f4 [5, 128]
0	0xbbf00403	-0.007324697
1	0x3d91b548	0.07114655
2	0x3ecd1595	0.40055528
3	0xbf25f033	-0.6481964
4	0xbe5b5b19	-0.2142147
5	0x3d3b488e	0.04572349
6	0xbf688e24	-0.9084189
7	0xbf352071	-0.70752627
8	0xbf7d2d8d	-0.9889763
9	0x3e5c022a	0.214852
10	0x3f1b15ac	0.60579944
11	0x3f8072bd	1.0035015
12	0xbf1e734f	-0.61894697
13	0xbebc5848	-0.36786103
14	0xbe6d2609	-0.2315904
15	0xbf29fe49	-0.66403633
16	0x3ea11d43	0.31467637
17	0x3ec782d9	0.38967016
18	0x3f3a45de	0.7276286
19	0xbed5fed0	-0.4179597
20	0xbf7d37ff	-0.9891357
21	0xbedddf95	-0.43334642
22	0x3e83d8ca	0.25751334
23	0x3e7060d9	0.23474444
24	0xbe9ac399	-0.30227354
25	0xbf07b5c8	-0.5301175
26	0x3f693735	0.91099864
27	0xbf249283	-0.6428606
28	0x3e671907	0.22568141
29	0xbf2be9e5	-0.6715377
30	0xbf587b59	-0.84563214
31	0x3ca3e9d5	0.02000896
32	0xbd93d980	-0.07219219
33	0xbec05ccb	-0.37570795
34	0xbf594631	-0.8487273
35	0xbf296ada	-0.6617867
36	0x3e1683c3	0.146987
37	0xbf309ca4	-0.68989015
38	0x3ece5bc6	0.40304393
39	0x3b8b7c59	0.0042567668
40	0x3e279266	0.1636444
41	0x3f7ab304	0.97929406
42	0xbeffa916	-0.4993369
43	0xbf0c4f69	-0.5480867
44	0xbf972bf2	-1.1810286
45	0x3eee2b81	0.46517566
46	0xbfa0a998	-1.2551756
47	0xbf340045	-0.7031291
48	0xbf6395b2	-0.8890029
49	0xbf236f7b	-0.6384198
50	0x3f0efbcb	0.55852956
51	0x3f80ccb9	1.0062476
52	0x3f6ceb55	0.9254659
53	0x3e792395	0.2432998
54	0xbe9198e5	-0.28436962
55	0x3e3ccd41	0.18437673
56	0x3e15a00f	0.14611839
57	0xbf1a54bb	-0.6028554
58	0x3ee34aa1	0.44392875
59	0xbf13cd65	-0.5773528
60	0x3fc60929	1.5471545
61	0xbec9a1d2	-0.39381272
62	0x3dca0e4d	0.09866009
63	0x3ecf6773	0.40508613
64	0xbf6d0fb6	-0.926021
65	0xbe7a98da	-0.2447237
66	0xbf213989	-0.62978417
67	0x3e266b2e	0.16251823
68	0xbf384ff5	-0.71997005
69	0xbf18db39	-0.5970951
70	0xbf0fa4a8	-0.5611062
71	0x3ec03dc1	0.37547114
72	0xbf095b11	-0.5365458
73	0xbf1710dd	-0.59010106
74	0xbf184e92	-0.5949489
75	0xbcb6ca64	-0.022313304
76	0xbef23a44	-0.47310078
77	0xbf109d4a	-0.56490004
78	0xbd768841	-0.060188536
79	0x3ebc27b2	0.36749035
80	0x3f455270	0.77078915
81	0x3e964c73	0.293552
82	0xbfbe7a7e	-1.4881132
83	0xbed89c23	-0.42306623
84	0x3e90b1eb	0.2826074
85	0xbe9f2af0	-0.31087446
86	0xbf0211ce	-0.5080842
87	0xbf1bc5a8	-0.60848475
88	0x3ef09447	0.46988127
89	0xbf41fde1	-0.75778013
90	0xbee55b89	-0.44796398
91	0xbe089e01	-0.13341524
92	0x3e613a0c	0.219948
93	0x3f4feec3	0.81223696
94	0xbf1fa384	-0.6235888
95	0xbf062acd	-0.5240906
96	0x3ee3037c	0.44338596
97	0xbec748a4	-0.38922608
98	0x3ece6811	0.4031377
99	0x3eedc652	0.4644037
100	0x3f6b5a94	0.91935086
101	0xbecbfd06	-0.3984148
102	0x3e9c63b5	0.3054482
103	0xbef69877	-0.48163196
104	0xbf34e3fc	-0.70660377
105	0x3eb1140a	0.345856
106	0xbeac921a	-0.33705217
107	0xbf90fc9a	-1.1327088
108	0xbf9594ad	-1.1685997
109	0x3e9f23e2	0.31082064
110	0xbfcfbdd7	-1.622981
111	0x3ea88b34	0.32918704
112	0x3ec1ba51	0.3783746
113	0xbf55e64a	-0.8355452
114	0xbedbe5af	-0.42948672
115	0xbed45089	-0.41467693
116	0x3e2d07b9	0.16897477
117	0xbeb041d4	-0.34425223
118	0x3f5276cd	0.82212526
119	0xbf743348	-0.9539075
120	0xbf3dab3e	-0.7408942
121	0xbf5b3288	-0.8562398
122	0xbf10fb8e	-0.5663384
123	0xbebe246f	-0.37137172
124	0xbf40d003	-0.753174
125	0x3e37af18	0.17937887
126	0x3ed04110	0.4067464
127	0x3de7d94c	0.11320743
128	0x3e8c1b36	0.2736451
129	0xbbbb3a23	-0.0057137175
130	0x3ef1e130	0.47242117
131	0xbf3be602	-0.7339784
132	0x3ed0f816	0.40814275
133	0xbe7dbba7	-0.24778615
134	0xbf6532c0	-0.89530563
135	0xbf23316c	-0.63747287
136	0xbf78574c	-0.97008204
137	0x3e8a7014	0.27038634
138	0x3f157648	0.5838361
139	0x3f5e5f09	0.8686376
140	0xbf166993	-0.58754843
141	0xbf63afd9	-0.889402
142	0x3b892e50	0.004186429
143	0xbefde6f3	-0.49590263
144	0x3ead160d	0.33805886
145	0x3f061c8c	0.5238731
146	0x3f1b54b0	0.606761
147	0xbf030f47	-0.51195186
148	0xbf7fd1d9	-0.9992958
149	0xbed64491	-0.41849187
150	0x3e2693ce	0.1626732
151	0x3e447e55	0.19188817
152	0xbe8187d2	-0.25298935
153	0xbf0a8173	-0.54103774
154	0x3f8c3167	1.0952576
155	0xbf28c456	-0.65924585
156	0x3de4f191	0.11178888
157	0xbed1f27a	-0.41005307
158	0xbf729156	-0.94753015
159	0x3e139134	0.1441086
160	0x3d05b18d	0.03264003
161	0xbea7dbcb	-0.32784876
162	0xbf3d58aa	-0.73963416
163	0xbf1357c1	-0.57555777
164	0xbe4b12b3	-0.19831352
165	0xbf4f22e9	-0.80912644
166	0x3ef89719	0.48552778
167	0x3d85d82f	0.065353744
168	0x3e3ed7a5	0.1863695
169	0x3f6ae567	0.9175629
170	0xbf1f4e4b	-0.6222884
171	0xbee4e932	-0.44709164
172	0xbf8801d8	-1.0625563
173	0x3f2ef6b4	0.6834519
174	0xbf90aa17	-1.1301907
175	0xbf89f999	-1.0779296
176	0xbf8446a2	-1.0334055
177	0xbf1f3057	-0.62183136
178	0x3f19fe79	0.6015392
179	0x3f94fa4d	1.1638886
180	0x3f765108	0.96217394
181	0x3e240849	0.16018786
182	0xbf18668a	-0.5953146
183	0x3d8ab6b9	0.06773133
184	0xbb6a9f67	-0.0035800578
185	0xbef6a52b	-0.48172888
186	0x3f643114	0.8913739
187	0xbf185f51	-0.5952044
188	0x3fb6d3e6	1.4283416
189	0xbec0558a	-0.3756526
190	0x3ec47602	0.38371283
191	0x3ee28bf6	0.44247407
192	0xbf60c907	-0.87806743
193	0xbeaff595	-0.34367052
194	0xbf0449cb	-0.516751
195	0xbe331e26	-0.1749197
196	0xbf380543	-0.7188303
197	0xbf0e5506	-0.55598485
198	0xbeac6ff2	-0.33679157
199	0x3e78b3d8	0.24287355
200	0xbf17871f	-0.59190553
201	0xbf3f3dab	-0.7470347
202	0xbf0f4472	-0.55963814
203	0x3bec5702	0.0072125206
204	0xbeb57aa8	-0.35445142
205	0xbf11b6e0	-0.5691967
206	0xbd6623f5	-0.056186635
207	0x3ed268ee	0.4109568
208	0x3f50549e	0.81379116
209	0x3e4bb68b	0.19893853
210	0xbfb72a80	-1.4309845
211	0xbeb4a697	-0.35283348
212	0x3d8b7af0	0.06810558
213	0xbe81cee8	-0.2535317
214	0xbebbaf2c	-0.36657083
215	0xbf48267c	-0.7818372
216	0x3ee79926	0.4523403
217	0xbf18601e	-0.59521663
218	0xbf514c67	-0.81757206
219	0xbeab66a1	-0.33476737
220	0x3df8cc30	0.12148321
221	0x3e76ae0c	0.24089831
222	0xbf3a5c07	-0.7279667
223	0xbf1e9c7a	-0.61957514
224	0x3ec55fc9	0.3854964
225	0xbf137f6d	-0.5761631
226	0x3ef17fab	0.47167715
227	0x3f107452	0.5642749
228	0x3f94a223	1.161198
229	0xbeb12e54	-0.34605658
230	0x3e4d61e3	0.20056872
231	0xbec4b01a	-0.38415605
232	0xbf4a17ac	-0.7894237
233	0x3e918412	0.28421074
234	0xbe9260f6	-0.285896
235	0xbfd56d43	-1.6673969
236	0xbf1b7f40	-0.60741043
237	0x3ed6b907	0.4193804
238	0xbfc7aa5e	-1.5598867
239	0x3eaa4472	0.33255345
240	0x3eb36345	0.35036674
241	0xbf2f79c5	-0.6854518
242	0xbed776e1	-0.42082885
243	0xbe8b6fde	-0.27233785
244	0x3f3a26cf	0.7271547
245	0xbe9d7d22	-0.3075953
246	0x3f85a889	1.0442058
247	0xbf5716a5	-0.8401893
248	0xbf37a8fb	-0.7174222
249	0xbf2d86fb	-0.6778409
250	0xbf15f0f3	-0.58570784
251	0x3e79149c	0.24324268
252	0xbf580313	-0.8437969
253	0x3e603527	0.21895276
254	0x3ee909df	0.45515344
255	0x3e368b7b	0.17826645

model.4.bias f4 [5]
0	0x3d19b522	0.037526257
1	0xbd70357f	-0.058644768
2	0xbe15251c	-0.14564937
3	0xbe4e755e	-0.2016196
4	0xbe0f51ae	-0.13996002
