map/log/simple_tag_cond_elign_adv/final_world_model_7.pkl (torch, 4311 bytes, 6 tensors)

model.0.weight f4 [5, 48]
-0.022606429 0.0099339485 -0.025336163 -0.001277523 1.0301271e-05 0.0012201697 -0.011533826 0.45691845
-0.007181668 0.0026204335 -0.19288418 -0.046263248 -0.2049445 -0.044850834 -0.18300772 -0.04001972
-0.20777456 -0.048205968 -0.032603595 0.030997425 -0.022869831 0.022368457 -0.02187023 0.022538634
0.031078761 0.28588194 -0.00218732 0.012104033 -0.01243197 0.011787348 0.005224843 0.009023431
-0.00274352 0.008870372 0.06820158 0.03846189 0.053580917 0.026569923 0.059917588 0.02629403
0.49286383 0.23006478 -0.010553931 0.01539011 -0.007244559 0.029782424 0.03490446 -3.099139e-05
-0.56989795 0.12182959 0.04239633 0.41383222 0.01526273 -0.0020346683 0.008022111 0.33009902
0.009243663 -0.0032002192 0.100344345 0.038840044 0.064219445 0.0027173238 0.09009795 0.027728342
0.088349745 -0.003411957 -0.001820352 0.0016117621 0.030551601 0.005327421 0.0019761797 -0.004157694
-0.07247159 0.004688405 -0.012108753 0.008208042 -0.0071661384 0.012056376 0.017855592 -0.004638983
0.00746614 -0.0063595013 -0.021686155 -0.022279043 -0.023033287 -0.0012005671 -0.019715106 -0.0038086076
-0.2135402 -0.038834997 0.00052884297 0.020251984 0.0024928472 0.009498824 -0.012324159 -0.00475531
-0.19338204 0.039556075 0.024885822 0.14236863 0.004459432 -0.012300348 -0.0049958606 0.52501047
0.004176628 -0.0021512816 0.008491603 0.018985393 0.0038318287 0.0022111144 0.007127093 0.022324406
0.012983929 0.01609624 -0.0755594 -0.007503524 -0.0710278 -0.0057694954 -0.075570665 -0.0052569075
-0.63792217 -0.020577557 -0.02724985 -0.011411243 -0.02894317 0.0036640684 -0.015427628 -0.010744763
-0.021424951 -0.0083042 -0.02216476 -0.014601434 -0.02437236 -0.005488748 -0.02352962 -0.003992259
-0.2252607 -0.036211077 -0.056918744 0.005192752 -0.060152717 -0.0027981412 -0.013369557 -0.00038548373
-0.20271072 0.04727578 0.0036825154 0.14956015 0.0007546 -0.001307287 -0.0031514876 0.47764498
-0.0041936687 0.0036004975 -0.11435388 -0.06536538 -0.12879929 -0.076629326 -0.104200445 -0.062540926
-0.12142168 -0.07583154 -0.028331108 -0.05026756 -0.013863472 -0.059279166 -0.013329753 -0.054559
0.02385816 -0.3406185 -0.009387009 -0.0106589245 -0.013581115 -0.015276756 0.011588274 -0.022176843
-0.0036142964 -0.021283405 0.041839678 0.009519358 0.038892906 0.013345401 0.03926123 0.009999452
0.29465708 0.061181422 -0.007017425 -0.03503861 -0.0072310967 -0.03392621 0.017744225 -0.0003141133
0.033811256 -0.02351405 -0.025972156 -0.08179875 -0.0034653295 -0.0029511543 -0.011806112 0.31450886
-0.00034827954 -0.0067720427 0.046982694 -0.24012388 0.06384295 -0.23596072 0.06323655 -0.24599907
0.072175466 -0.26009548 0.019401088 -0.024397628 0.014269298 -0.022929432 0.0099510625 0.0003072435
-0.044848677 0.19515418 0.009532014 -0.022680579 -0.022116547 -0.009805705 0.009044429 -0.009668909
0.019540437 0.000441899 -0.025202837 0.084129944 -0.020671543 0.08883189 -0.0134028755 0.07827704
-0.13592988 0.66702 -0.0019795487 0.0070261327 -0.00450351 0.005213376 0.025826419 0.0016118947
00000000: 1e31 b9bc 00c2 223c c98d cfbc 8f72 a7ba
00000010: 9fd3 2c37 1aee 9f3a 5ff8 3cbc 37f1 e93e
00000020: 3354 ebbb 94bb 2b3b 6e83 45be 887e 3dbd
00000030: f9dc 51be 82b5 37bd 6066 3bbe b8eb 23bd
00000040: dbc2 54be 9f73 45bd 598b 05bd 50ee fd3c
00000050: 8359 bbbc 0e3e b73c 3229 b3bc f1a2 b83c
00000060: e398 fe3c 1e5f 923e 2459 0fbb fe4f 463c
00000070: 76af 4bbc b91f 413c 2935 ab3b 03d7 133c
00000080: a1cc 33bb 0955 113c 45ad 8b3d 378a 1d3d
00000090: aa77 5b3d 2ba9 d93c 256c 753d 9466 d73c
000000a0: a658 fc3e 1a96 6b3e 65ea 2cbc cd26 7c3c
000000b0: c463 edbb 45fa f33c fbf7 0e3d c0fc 01b8
000000c0: d5e4 11bf cb81 f93d c6a7 2d3d d1e1 d33e
000000d0: 8810 7a3c 1258 05bb 2c6f 033c bd02 a93e
000000e0: bc72 173c c5ba 51bb 5681 cd3d bd16 1f3d
000000f0: 7c85 833d 2115 323b 4685 b83d 8c26 e33c
00000100: b6f0 b43d 249b 5fbb e198 eeba c341 d33a
00000110: 5a47 fa3c a591 ae3b cb82 013b 443d 88bb
00000120: fc6b 94bd 31a1 993b cb63 46bc 067b 063c
00000130: edd1 eabb 1b88 453c e445 923c 9c02 98bb
00000140: 86a6 f43b 5d63 d0bb 2aa7 b1bc 8a82 b6bc
00000150: 4eb0 bcbc 595c 9dba 9381 a1bc d599 79bb
00000160: 48aa 5abe 7211 1fbd 0da2 0a3a 7de7 a53c
00000170: 095f 233b f5a0 1b3c 45eb 49bc 6ed2 9bbb
00000180: f105 46be 8d05 223d 5add cb3c 15c9 113e
00000190: 6d20 923b 6687 49bc 51b4 a3bb 1667 063f
000001a0: 18dc 883b 84fc 0cbb 5d20 0b3c 4187 9b3c
000001b0: 6b1f 7b3b 58e8 103b 648a e93b ace1 b63c
000001c0: 8cba 543c 43dc 833c e3be 9abd 1fe0 f5bb
000001d0: 0677 91bd 090e bdbb cbc4 9abd 2342 acbb
000001e0: de4e 23bf 4492 a8bc 143b dfbc 39f6 3abc
000001f0: 3a1a edbc de20 703b 29c4 7cbc cd0a 30bc
00000200: 6183 afbc 570e 08bc df92 b5bc da3a 6fbc
00000210: 8ba8 c7bc f5da b3bb 31c1 c0bc 7fd1 82bb
00000220: beaa 66be 1152 14bd a123 69bd f627 aa3b
00000230: b262 76bd 0561 37bb fd0b 5bbc c01a cab9
00000240: 6693 4fbe 40a4 413d 5b56 713b 4c26 193e
00000250: 59d0 453a 4659 abba 3089 4ebb e28d f43e
00000260: 0b6b 89bb 53f6 6b3b 5e32 eabd 49de 85bd
00000270: f6e3 03be d6ef 9cbd 0b67 d5bd 7515 80bd
00000280: eeab f8bd 914d 9bbd a416 e8bc 5be5 4dbd
00000290: 9e23 63bc b6ce 72bd 0965 5abc 4279 5fbd
000002a0: 3072 c33c 8c65 aebe f8cb 19bc c5a2 2ebc
000002b0: 5383 5ebc 5c4b 7abc bedc 3d3c 36ac b5bc
000002c0: d5dd 6cbb 895a aebc 1560 2b3d 15f7 1b3c
000002d0: 2b4e 1f3d aba6 5a3c 62d0 203d bed4 233c
000002e0: 4bdd 963e 5f99 7a3d 6df2 e5bb a584 0fbd
000002f0: d6f2 ecbb 36f6 0abd 565c 913c 93af a4b9
00000300: ac7d 0a3d 89a0 c0bc 8fc3 d4bc 1a86 a7bd
00000310: 951a 63bb 2768 41bb 6c6e 41bc 4e07 a13e
00000320: 4a99 b6b9 03e8 ddbb ed70 403d 09e3 75be
00000330: 18c0 823d b09f 71be 2a82 813d 2ee7 7bbe
00000340: bbd0 933d 3c2b 85be 08ef 9e3c 89dd c7bc
00000350: c6c9 693c 81d6 bbbc c809 233c 8615 a139
00000360: 3fb3 37bd 7fd6 473e 2a2c 1c3c 9fcc b9bc
00000370: c32d b5bc 1ca8 20bc 162f 143c 586a 1ebc
00000380: 4413 a03c aeae e739 2e76 cebc 524c ac3d
00000390: 5e57 a9bc 7eed b53d bc97 5bbc b64f a03d
000003a0: 3431 0bbe d3c1 2a3f 51bb 01bb 793b e63b
000003b0: 2e92 93bb f8d4 aa3b ed91 d33c 3646 d33a

model.0.bias f4 [5]
0.47684917 0.394779 0.42598093 0.48756832 0.5192687
00000000: 9325 f43e 7920 ca3e 2c1a da3e 8ea2 f93e
00000010: cbee 043f

model.2.weight f4 [5, 5]
0.5958305 0.322368 -0.105191566 -0.33626306 -0.20523301 0.4097087 -0.07421289 -0.22769026
0.5011704 0.16522698 0.32033592 -0.3286288 0.477499 -0.29720408 0.22433785 -0.007935953
0.44194654 0.064305216 -0.10008063 0.61039966 0.056844234 -0.040241756 0.5012132 0.4926507
-0.30792558
00000000: 5988 183f 6b0d a53e ad6e d7bd ac2a acbe
00000010: 9a28 52be 57c5 d13e edfc 97bd a327 69be
00000020: b44c 003f 4331 293e 1203 a43e 0942 a8be
00000030: c07a f43e 222b 98be d2b8 653e cd05 02bc
00000040: d146 e23e 74b2 833d 13f7 ccbd 2743 1c3f
00000050: 80d5 683d 8ad4 24bd 824f 003f b63c fc3e
00000060: 6ca8 9dbe

model.2.bias f4 [5]
0.3486173 -0.21960463 0.21781892 -0.21928224 0.067355834
00000000: f77d b23e 09e0 60be ec0b 5f3e 868b 60be
00000010: dbf1 893d

model.4.weight f4 [46, 5]
-0.6948029 0.08373352 0.6741667 -0.7735801 -0.56057423 0.15150887 0.050070908 -0.12826067
0.19061504 0.12295549 0.0019710322 -0.045084286 -0.029107988 0.060943868 0.03976883 0.50536245
-0.040586952 -0.51806647 0.5147693 0.43375096 0.010362997 -0.011601485 0.001806228 0.0053201
0.008286459 0.023946865 0.0133822365 -0.027588358 0.0038040276 -0.045565214 0.023668166 -0.005427958
-0.04062521 -0.0034751026 -0.015943961 -7.557201e-09 -1.141946e-08 1.2206729e-08 1.7932122e-08 -8.074052e-09
0.019021196 -0.011321359 -0.012194245 0.015270425 0.0011500868 0.015652684 -0.006220351 -0.0012724502
-0.00501829 -0.0011528409 0.029093241 0.009620183 -0.3627494 0.011995393 -0.3391893 0.56192255
-0.23932832 0.121218465 -0.024440937 -0.13798594 0.026412651 -0.0032745106 -0.3492436 0.02844601
-0.33881617 0.56775236 -0.21706904 0.13887122 -0.038388725 -0.16681243 0.014664648 0.024823742
-0.34794852 0.028328432 -0.30734372 0.55103374 -0.22915895 0.14302452 -0.028783543 -0.12386448
-0.0026080369 0.004404571 -0.36507836 0.057652067 -0.33838525 0.5431641 -0.25279173 0.16856976
-0.08410616 -0.13007669 0.06213003 0.08200658 -0.21436496 -0.021536818 -0.19653036 0.34634545
-0.096006565 0.12014575 0.041499473 -0.13330775 0.08589423 0.085171506 -0.23714435 -0.011623836
-0.20477195 0.34388083 -0.09741007 0.11697287 0.038341273 -0.13044856 0.064055406 0.094569094
-0.22966172 -0.021358905 -0.19840716 0.3204741 -0.09411851 0.12163192 0.046298683 -0.13285738
0.26906213 0.47022897 -1.4084513 -0.13652204 -1.2279142 2.0183737 -0.62136656 0.7484968
0.18653718 -0.69112706 0.06388551 0.053130183 -0.07405504 -0.011460241 -0.06438472 0.12630089
-0.0034165876 0.017007433 0.0385559 -0.073276825 0.0730193 0.058636874 -0.07772804 -0.031600926
-0.053476248 0.13717633 -0.027643958 0.065817825 0.05855519 -0.06155921 0.013932481 0.06087559
-0.08462126 -0.02498611 -0.037368193 0.110566184 -0.027531022 0.044022176 0.045612916 -0.069050014
0.04100241 0.095642835 -0.07034061 -0.05065926 -0.07269974 0.07297878 0.01015059 0.045963
0.0348797 -0.066877194 0.053427305 0.10307332 0.008800507 -0.052480232 0.01739886 -0.034562662
0.082062714 0.029837208 0.08258661 -0.041355174 0.06230384 0.0976787 -0.003594624 -0.055401593
0.031220185 -0.042653143 0.082708195 0.04191582 0.10065385 -0.03777639 0.053654905 0.102431834
0.0036538418 -0.053937566 0.033271063 -0.05339729 0.06331077 0.03145328 0.07158564 -0.03207639
0.71427613 1.3781023 0.06769149 -0.75016886 0.2952476 -0.5500462 0.9728921 0.5759882
1.1306759 -0.44333315 0.042612497 0.066937506 -0.18927121 -0.014644891 -0.16857558 0.28689995
-0.08998705 0.08371963 0.025829777 -0.094171315 0.035275687 0.060598902 -0.19251873 -0.014261975
-0.1672067 0.27274534 -0.09152087 0.09512954 0.02487984 -0.09480731
00000000: 9ade 31bf 7b7c ab3d 3096 2c3f 5809 46bf
00000010: cb81 0fbf 2425 1b3e 2717 4d3d c456 03be
00000020: 9730 433e 17d0 fb3d 6f2c 013b 4daa 38bd
00000030: e073 eebc 47a0 793d a4e4 223d 6f5f 013f
00000040: 813e 26bd 01a0 04bf ecc7 033f 9b14 de3e
00000050: 8fc9 293c 2814 3ebc f4be ec3a 3c54 ae3b
00000060: eec3 073c 372c c43c 2b41 5b3c fb00 e2bc
00000070: fe4c 793b 97a2 3abd bee3 c13c 03dd b1bb
00000080: 9f66 26bd 8cbe 63bb e99c 82bc ecd4 01b2
00000090: 512f 44b2 c3b5 5132 2709 9a32 0eb6 0ab2
000000a0: 57d2 9b3c 397d 39bc 5fca 47bc ce30 7a3c
000000b0: 82be 963a 0f3a 803c 16d4 cbbb 58c8 a6ba
000000c0: 7870 a4bb ec1a 97ba f354 ee3c f99d 1d3c
000000d0: 4aba b9be 5388 443c 38aa adbe 28da 0f3f
000000e0: 7c12 75be 6341 f83d 5c38 c8bc 304c 0dbe
000000f0: 585f d83c 2c99 56bb 0fd0 b2be 9b07 e93c
00000100: 5079 adbe 3858 113f 5947 5ebe 4234 0e3e
00000110: 7f3d 1dbd e1d0 2abe fe43 703c 295b cb3c
00000120: 4f26 b2be 0711 e83c 285c 9dbe 8c10 0d3f
00000130: a5a8 6abe 0575 123e 77cb ebbc a9ac fdbd
00000140: 99eb 2abb 3854 903b 8deb babe 9324 6c3d
00000150: d540 adbe cd0c 0b3f eb6d 81be 8d9d 2c3e
00000160: da3f acbd d332 05be 0f7c 7e3d 11f3 a73d
00000170: 7d82 5bbe fb6d b0bc 413f 49be 3154 b13e
00000180: 179f c4bd fa0e f63d 5afb 293d d481 08be
00000190: 50e9 af3d 666e ae3d f8d5 72be e771 3ebc
000001a0: bdaf 51be 2611 b03e ee7e c7bd 798f ef3d
000001b0: bd0b 1d3d 4f94 05be 7b2f 833d 71ad c13d
000001c0: 712c 6bbe dff8 aebc 3f2b 4bbe 2e15 a43e
000001d0: 35c1 c0bd 281a f93d b0a3 3d3d c40b 08be
000001e0: 83c2 893e dac1 f03e 2248 b4bf 6fcc 0bbe
000001f0: 4b2c 9dbf 092d 0140 e111 1fbf 7c9d 3f3f
00000200: 9a03 3f3e b4ed 30bf 68d6 823d 099f 593d
00000210: 2baa 97bd bcc3 3bbc 23dc 83bd 0555 013e
00000220: d4e8 5fbb 2c53 8b3c cbec 1d3d 2912 96bd
00000230: 258b 953d 382d 703d e12f 9fbd f96f 01bd
00000240: e909 5bbd f477 0c3e 9575 e2bc 7fcb 863d
00000250: 91d7 6f3d 8325 7cbd 1045 643c af58 793d
00000260: e94d adbd acaf ccbc 640f 19bd 8670 e23d
00000270: bd88 e1bc 9950 343d 9cd4 3a3d 186a 8dbd
00000280: 25f2 273d 64e0 c33d bd0e 90bd 1680 4fbd
00000290: 9ae3 94bd e675 953d a94e 263c b343 3c3d
000002a0: 04de 0e3d e9f6 88bd 97d6 5a3d 1b18 d33d
000002b0: 0030 103c 83f5 56bd 0e88 8e3c 9491 0dbd
000002c0: 7f10 a83d 296d f43c 2b23 a93d 0b64 29bd
000002d0: 5032 7f3d c50b c83d c993 6bbb c8ec 62bd
000002e0: 79c1 ff3c 10b5 2ebd ea62 a93d ecaf 2b3d
000002f0: 9b23 ce3d 6abb 1abd 3fc5 5b3d c8c7 d13d
00000300: 4b75 6f3b a3ed 5cbd 3d47 083d 1eb7 5abd
00000310: 14a9 813d 28d5 003d 7e9b 923d 8862 03bd
00000320: cdda 363f a865 b03f d6a1 8a3d 110b 40bf
00000330: b22a 973e d4cf 0cbf 750f 793f f673 133f
00000340: fdb9 903f 90fc e2be 718a 2e3d 8816 893d
00000350: 50d0 41be 20f1 6fbc 149f 2cbe 8de4 923e
00000360: 214b b8bd 3375 ab3d f898 d33c e4dc c0bd
00000370: 3d7d 103d 8e36 783d a123 45be 0fab 69bc
00000380: 3c38 2bbe 47a5 8b3e 4b6f bbbd 47d3 c23d
00000390: ced0 cb3c 562a c2bd

model.4.bias f4 [46]
1.0745773 0.054178234 0.24778408 -0.25247228 0.16560265 0.2041857 0.20858261 1.0
0.1643109 0.16193369 0.47841617 -0.13058977 0.47339374 -0.13212346 0.4321461 -0.15197402
0.46453014 -0.12712081 0.22158706 -0.13321978 0.24237455 -0.12462726 0.2384368 -0.12068586
1.5248213 -0.8215436 0.034142748 -0.042208157 0.04380694 -0.08077276 0.048421104 -0.054547053
0.050612554 -0.04695378 -0.08484721 -0.06473109 -0.08076433 -0.06891296 -0.08000135 -0.048359036
-1.0401101 -0.9434067 0.2067036 -0.11523388 0.20665246 -0.10550346
00000000: c08b 893f ffe9 5d3d 1cbb 7d3e 0c44 81be
00000010: be93 293e 0e16 513e ae96 553e 0000 803f
00000020: 1e41 283e f2d1 253e f7f2 f43e 53b9 05be
00000030: aa60 f23e 5f4b 07be 4142 dd3e 149f 1bbe
00000040: e5d6 ed3e f52b 02be b8e7 623e c46a 08be
00000050: 0931 783e 943c ffbd c728 743e 262a f7bd
00000060: 582d c33f ae50 52bf 44d9 0b3d 76e2 2cbd
00000070: e86e 333d 306c a5bd 3555 463d bb6c 5fbd
00000080: 1c4f 4f3d 9b52 40bd 60c4 adbd bc91 84bd
00000090: c567 a5bd 3d22 8dbd bfd7 a3bd 2014 46bd
000000a0: 5422 85bf 1a83 71bf 1caa 533e beff ebbd
000000b0: b49c 533e 3312 d8bd
