map/log/simple_tag_elign_team/critic1_7.pkl (torch, 94679 bytes, 6 tensors)

model.0.weight f4 [128, 46]
0	0xbd7b688f	-0.06137901
1	0xbdb3590a	-0.08757217
2	0xbe1a327c	-0.15058321
3	0x3d0c2500	0.034214973
4	0x3e197089	0.14984335
5	0xbe13916a	-0.1441094
6	0x3cbd20f9	0.023087012
7	0x3dd144c4	0.10218194
8	0x3db96b8b	0.09053715
9	0xbdde9251	-0.108677514
10	0xbe2d6241	-0.16932012
11	0x3ea6a5ce	0.32548374
12	0xbd506eca	-0.050886907
13	0x3e09205c	0.1339125
14	0x3e69d77f	0.22836111
15	0xbd705914	-0.0586787
16	0xbd664516	-0.05621823
17	0x3e55c66b	0.20876472
18	0x3d8a241d	0.06745169
19	0x3e059812	0.13046291
20	0x3da557d6	0.08073394
21	0xbd4a6f2e	-0.049422435
22	0xbdcff73c	-0.10154578
23	0x3d3b0834	0.04566212
24	0x3c08323c	0.008312758
25	0x3c649d3b	0.013953502
26	0xbdf80abe	-0.12111424
27	0x3d39c7d5	0.04535659
28	0xbe153cc2	-0.14573959
29	0x3d92c71e	0.07166885
30	0x3ee11f57	0.43969223
31	0xbd323c3e	-0.043514483
32	0x3e38cbd5	0.18046506
33	0x3c79b4bf	0.015240847
34	0xbcf7444e	-0.030183937
35	0xbd9d271a	-0.07673474
36	0xbdfb5731	-0.1227249
37	0x3e36cdbb	0.17851917
38	0x3da6649e	0.0812466
39	0x3e255745	0.16146572
40	0x3cff0676	0.03113101
41	0xbe06ee3b	-0.13176815
42	0x3d57eb0f	0.052714404
43	0xbe8a469f	-0.27007005
44	0x3d622af2	0.055216737
45	0xbd2642de	-0.040591113
46	0xbdd76469	-0.105171986
47	0x3db9f3f5	0.09079734
48	0x3ce0bf66	0.027435016
49	0xbd3d8f85	-0.04627945
50	0x3d82ac85	0.06380562
51	0x3d39a811	0.045326296
52	0x3e30a735	0.17251284
53	0xbe30cbaf	-0.17265199
54	0xbce8714e	-0.02837434
55	0x3d440340	0.047854662
56	0xbe371f4f	-0.17883037
57	0x3da32755	0.07966486
58	0xbe8d7b75	-0.27633253
59	0xbd2c9717	-0.042136278
60	0xbde3f33f	-0.1113038
61	0xbec66c4c	-0.387545
62	0x3e6f77ef	0.23385595
63	0x3db74fcc	0.08950767
64	0x3e017cb1	0.12645222
65	0xbd13b4cd	-0.036061097
66	0x3dddaa87	0.10823541
67	0x3e1b8e75	0.15191062
68	0x3e377cd2	0.17918709
69	0x3dd5762e	0.104229316
70	0x3d60c615	0.054876406
71	0x3e315dc4	0.17320925
72	0xbc4e303c	-0.012584742
73	0xbe891619	-0.26774672
74	0xbdb9b3b9	-0.090674825
75	0x3d270b65	0.04078235
76	0x3cbd2b15	0.023091832
77	0xbe602269	-0.21888126
78	0x3e136aff	0.14396285
79	0xbde45aeb	-0.11150154
80	0xbcdbd95b	-0.026837042
81	0xbba6d149	-0.0050908667
82	0x3d084396	0.03326758
83	0xbd81794c	-0.06321964
84	0x3debc324	0.115118295
85	0xbda9ca6e	-0.082905635
86	0x3d3fe839	0.046852324
87	0x3c7825f2	0.015145766
88	0x3d90f250	0.070774674
89	0xbe843144	-0.25818837
90	0xbd29ed4c	-0.04148607
91	0xbceab026	-0.028648447
92	0x3db47f4f	0.08813345
93	0xbca5aabc	-0.020223014
94	0xbc594ad8	-0.013262473
95	0xbd8f549c	-0.0699856
96	0x3e585e7d	0.21129794
97	0xbd27dbfd	-0.04098128
98	0x3d41781b	0.047233682
99	0xbe24be71	-0.16088273
100	0x3de5008e	0.111817464
101	0x3e03a8f3	0.12857418
102	0xbc091f84	-0.00836933
103	0x3ea4967f	0.3214607
104	0x3caa7a32	0.02081022
105	0x3d6b043e	0.057377093
106	0xbe8fea8a	-0.28108627
107	0xbde9e085	-0.11419777
108	0xbe65ca2d	-0.22440405
109	0x3dbb700f	0.09152233
110	0xbe0a258b	-0.13490884
111	0x3d85bdf0	0.06530368
112	0x3e98a479	0.29812983
113	0x3e87abf2	0.2649837
114	0xbe41a440	-0.18910313
115	0xbe488f42	-0.19585899
116	0x3d8236d5	0.06358115
117	0xbbd2673b	-0.0064209974
118	0xbe138839	-0.14407434
119	0xbd3f5dd3	-0.046720337
120	0xbd62f958	-0.055413574
121	0xbd95aa58	-0.07307881
122	0xbe1900fd	-0.14941783
123	0xbd763d0e	-0.06011682
124	0xbd4f6b04	-0.050639167
125	0x3cdec50f	0.027193574
126	0x3d9f6114	0.07782188
127	0x3debf7e1	0.115218885
128	0x3d199169	0.03749219
129	0x3c2d650f	0.010583176
130	0xbd42282f	-0.047401603
131	0x3d2a65f7	0.041601148
132	0xbca59e77	-0.020217163
133	0x3e61c75f	0.2204871
134	0x3e2736c1	0.1632948
135	0x3db51088	0.08841044
136	0x3dd37be0	0.10326362
137	0x3dd0bd01	0.101923
138	0xbcce3870	-0.025173396
139	0x3daf5278	0.085606515
140	0xbd1bf49b	-0.03807507
141	0xbd6673e8	-0.05626288
142	0xbd7798a7	-0.060448315
143	0xbd8eb6ba	-0.06968446
144	0x3d2e2371	0.04251427
145	0xbd1a39ad	-0.03765266
146	0x3eb108ac	0.3457693
147	0x3d1e7c49	0.038692746
148	0x3dbd58d0	0.09245455
149	0x3dd1ba6c	0.10240635
150	0xbd971b29	-0.07378227
151	0x3c3993c5	0.011326735
152	0xbe24b70e	-0.16085455
153	0x3e24b08a	0.1608297
154	0x3d5d9653	0.05409844
155	0xbd956c73	-0.07296076
156	0x3dfec567	0.12439995
157	0xbd458e19	-0.048231218
158	0xbe2958e0	-0.1653781
159	0xbd206bdf	-0.039165374
160	0x3da31f03	0.079648994
161	0xbd2de04e	-0.04245024
162	0xbe352ffc	-0.17694086
163	0xbdc21ab3	-0.09477749
164	0xbc761010	-0.015018478
165	0x3da94d27	0.08266669
166	0xbdb0cbd7	-0.08632629
167	0x3dd29129	0.10281593
168	0xbe65b1db	-0.22431128
169	0x3e95dfa0	0.29272175
170	0x3b9f5324	0.004862206
171	0xbdba1b66	-0.09087257
172	0x3cb9ec62	0.022695724
173	0xbb03b354	-0.0020095902
174	0xbd4a0902	-0.049324997
175	0x3e1b3b9f	0.15159462
176	0x3d8b8c13	0.068138264
177	0x3b18c689	0.0023311696
178	0x3cef6d6e	0.029226985
179	0x3e27d788	0.16390812
180	0x3bf68cd2	0.0075241113
181	0x3d54018c	0.051759288
182	0xbd850591	-0.06495202
183	0x3e91bcb4	0.28464282
184	0xbd782df4	-0.0605907
185	0xbd14182c	-0.036155865
186	0x3e10fccf	0.14158939
187	0xbc165aaa	-0.009176889
188	0x3e4b68f7	0.1986426
189	0xbdf79dc0	-0.12090635
190	0x3dab1c6e	0.08355032
191	0x3e3e9e8a	0.18615165
192	0xbc93493b	-0.017979255
193	0xbdd49cbc	-0.10381457
194	0xbdaa3c5c	-0.08312294
195	0xbc257362	-0.01009831
196	0x3de17ddd	0.11010335
197	0x3e2679e4	0.16257435
198	0xbe4c0932	-0.19925383
199	0x3d0c2999	0.034219358
200	0xbdc7abb6	-0.09749548
201	0xbba9ac48	-0.005178008
202	0xbd5c17a0	-0.053733468
203	0xbdfc7345	-0.123266734
204	0xbc8f7930	-0.017513841
205	0x3dc26aad	0.09493003
206	0xbda67df8	-0.081294954
207	0x3db45c39	0.088066526
208	0xbb562b30	-0.003267955
209	0xbbe18d78	-0.0068833195
210	0x3d6d6aed	0.0579633
211	0xbd5e81d4	-0.054323032
212	0x3bda9527	0.0066706124
213	0x3d62e4c6	0.055393957
214	0x3ce0e691	0.027453693
215	0x3e00b79f	0.12570046
216	0xbd0bbfc6	-0.034118436
217	0x3dc3ddf8	0.095638216
218	0xbd25ad33	-0.04044838
219	0x3d7a00cc	0.061035916
220	0xbdac3818	-0.084091365
221	0xbe35915c	-0.17731231
222	0x3d18b110	0.037278235
223	0x3d5c56cb	0.05379371
224	0x3d03b02f	0.032150444
225	0x3d3fe393	0.04684789
226	0xbe0cabb4	-0.13737375
227	0xbe328d35	-0.17436679
228	0x3e1f26e4	0.1554218
229	0x3e36e25a	0.17859784
230	0x3da43d13	0.080194615
231	0xbd1e5652	-0.03865654
232	0x3e644e55	0.22295506
233	0x3ccada02	0.024762157
234	0xbd31de05	-0.043424625
235	0x3b2edf77	0.0026683488
236	0x3cba3d62	0.022734348
237	0xbda0e9e0	-0.07857108
238	0x3cf435e3	0.029810851
239	0xbd8a728f	-0.067601316
240	0xbb59b24f	-0.0033217852
241	0x3e25c03d	0.16186614
242	0x3d2ca9f7	0.04215428
243	0x3c927254	0.017876782
244	0xbcc49d4c	-0.024000786
245	0xbd109477	-0.035297837
246	0x3cb9a1f5	0.022660235
247	0xbc56a037	-0.013099722
248	0xbd2be895	-0.041969854
249	0xbc366933	-0.01113348
250	0xbe1b05ae	-0.15138885
251	0xbcac4e0f	-0.021033315
252	0x3d942f7f	0.07235622
253	0xbd49fc02	-0.0493126
254	0x3c1c761f	0.009549647
255	0xbe533b4c	-0.20628089

model.0.bias f4 [128]
0	0x3d8251aa	0.063632324
1	0xbd36d41a	-0.04463587
2	0x3d13058d	0.035893966
3	0xbd5bd649	-0.053671155
4	0x3d96407e	0.0733652
5	0x39e94f26	0.00044500193
6	0xbc8ad35f	-0.016946493
7	0x3d9323b9	0.07184548
8	0xbda5a43d	-0.080879666
9	0x3dc4e1f3	0.09613409
10	0xbd7250a8	-0.05915895
11	0xbc8493a6	-0.016183686
12	0x3d4e9f9e	0.05044519
13	0xbd21e995	-0.0395294
14	0xbc8149e8	-0.015782312
15	0x3e0feae0	0.14054441
16	0x3ca49cfb	0.020094385
17	0x3db2b785	0.0872641
18	0x3bb2e860	0.00545983
19	0x3c409ffa	0.011756891
20	0x3cc15d23	0.023603981
21	0x3c8fa701	0.017535688
22	0xbcef60e0	-0.029220998
23	0xbd699f0e	-0.057036452
24	0xbd4f0b88	-0.050548106
25	0x3d9a98c5	0.0754867
26	0xbd8ac452	-0.067757264
27	0x3de5709d	0.1120312
28	0xbe0086ce	-0.12551424
29	0x3d76b871	0.06023449
30	0xbdbc6a08	-0.09199911
31	0xbbffa5e2	-0.007801757
32	0xbc9621c1	-0.018326642
33	0x3dc689b8	0.096942365
34	0xbb620116	-0.003448551
35	0x3d354689	0.04425672
36	0x3d8aa325	0.067693986
37	0xbe5fc68e	-0.21853086
38	0xbd1d9a83	-0.038477432
39	0x3d332cd6	0.04374393
40	0x3d8be0ef	0.06830012
41	0xbbda68bc	-0.0066653173
42	0x3da24483	0.07923224
43	0xbdb9239d	-0.09039996
44	0xba619a59	-0.00086060684
45	0x3d25a1fb	0.04043768
46	0x3df31e76	0.11871044
47	0x3cdfa9cb	0.027302643
48	0x3b9f7849	0.004866634
49	0x3d5663c8	0.052341253
50	0x3c386daa	0.011256615
51	0x3ddb7d3b	0.10717245
52	0x3da193e9	0.0788954
53	0x3da2e161	0.07953144
54	0xbd183e41	-0.037168745
55	0xbd891b79	-0.06694693
56	0x3d858f10	0.06521428
57	0x3d5eeaf8	0.054423302
58	0xbcd190bc	-0.02558171
59	0xba1f0f07	-0.0006067608
60	0x3dbfea68	0.09370881
61	0x3de48e82	0.11159994
62	0x3d0b2509	0.033970866
63	0xbd85bc6a	-0.06530078
64	0xbbb98a07	-0.005662206
65	0xbc559905	-0.013036971
66	0x3d5d5b1d	0.05404197
67	0x3d7cde07	0.06173518
68	0xbc9dd670	-0.01926729
69	0xbcd12ba5	-0.025533507
70	0xbdc3ad7c	-0.09554574
71	0xbd1f89dd	-0.038949836
72	0xbcfa2ae7	-0.030538036
73	0xbcf33e4b	-0.02969279
74	0xbd9e50d1	-0.07730258
75	0xbd4180dd	-0.047242034
76	0x3d21dfb2	0.039519973
77	0xbd74f01a	-0.05979929
78	0xbdac138f	-0.08402168
79	0xbcc9e8f5	-0.024647215
80	0x3cb23b4a	0.021756787
81	0x3d28fd41	0.041257147
82	0xbb1eb50f	-0.0024216806
83	0x3aeeb8fe	0.0018213091
84	0x3bb64b91	0.0055632074
85	0xbd13ecb6	-0.036114417
86	0x3c1bded6	0.009513577
87	0xbbca5a7f	-0.0061753388
88	0x3d5e148b	0.05421881
89	0xbdb9814d	-0.09057865
90	0xbc21ae96	-0.009868285
91	0x3d5ddc52	0.054165192
92	0xbd808eb6	-0.0627722
93	0x3d41a937	0.047280516
94	0x3cb2a18b	0.021805545
95	0xbc1b90eb	-0.009495
96	0xbc9bb9da	-0.01900952
97	0xbd8e1a5f	-0.06938624
98	0xbd72cb26	-0.05927577
99	0xbda554c7	-0.080728106
100	0x3c262b70	0.010142192
101	0x3d772bd3	0.06034453
102	0x3e00d673	0.12581806
103	0xbcf541c3	-0.029938584
104	0xbd0b67a1	-0.034034375
105	0xbd162df8	-0.036664933
106	0xbd337229	-0.043810043
107	0xbd2bbd19	-0.041928384
108	0xbdc73996	-0.097277805
109	0xbcb40e44	-0.021979459
110	0xbd38b014	-0.045089796
111	0xbcf5c2a3	-0.030000037
112	0xbd5f2074	-0.05447431
113	0xbd54a7b3	-0.051917743
114	0xbdb256d6	-0.08707969
115	0x3c7a8622	0.015290769
116	0x3d50b43d	0.05095314
117	0xbd4e5222	-0.050371297
118	0xbce45246	-0.027871262
119	0xbc20025e	-0.009766189
120	0xbda04635	-0.07825891
121	0xbb14bb58	-0.0022694673
122	0xbc6df77f	-0.01452434
123	0x3d558609	0.05212978
124	0xbcf17af3	-0.029477572
125	0x3d6fc5e3	0.05853833
126	0x3d98cf34	0.07461396
127	0x3d84d41a	0.06485768

model.2.weight f4 [128, 128]
0	0x3cf7e729	0.030261593
1	0x3e1e0b84	0.1543408
2	0x3e337547	0.17525207
3	0x3dd1be63	0.102413915
4	0x3cb0bd09	0.021574514
5	0xbdf70efa	-0.120634034
6	0xbcdea81a	-0.027179766
7	0x3e6fac3f	0.2340555
8	0xbe55abd0	-0.20866323
9	0xbd828a7c	-0.0637407
10	0xbdbc3ca9	-0.091912575
11	0x3d8a5409	0.0675431
12	0xbcbc0f07	-0.022956384
13	0xbd7c94a1	-0.06166518
14	0x3d1de57e	0.03854894
15	0x3e866c8e	0.26254696
16	0xbc188308	-0.009308584
17	0x3d2c0445	0.04199626
18	0x3de10bd1	0.10988582
19	0xbd960917	-0.073259525
20	0xbe1508eb	-0.14554183
21	0x3db499b5	0.0881838
22	0xbe893fc5	-0.26806465
23	0xbdde7d60	-0.10863757
24	0xbda92c1a	-0.08260365
25	0x3e4c566d	0.19954844
26	0xbcbacfdd	-0.022804195
27	0x3e8d690e	0.27619213
28	0xbd5a6f1c	-0.05332862
29	0x3e219274	0.15778524
30	0x3dda75a4	0.106669694
31	0xbd0e563c	-0.03475021
32	0x3d4b145a	0.049579956
33	0x3e2bdc09	0.16783156
34	0xbe55aa23	-0.20865683
35	0x3dabd14a	0.08389528
36	0x3db85be1	0.090018995
37	0xbe016107	-0.12634669
38	0xbd58ddfa	-0.05294607
39	0x3cb5f8ff	0.022213457
40	0x3d1e182e	0.03859728
41	0x3d8f0b51	0.0698458
42	0xbe10ba6c	-0.14133614
43	0xbdcdef54	-0.10055414
44	0x3d0fcd83	0.0351081
45	0x3d084681	0.033270363
46	0x3ca57e96	0.020201962
47	0xbbcd1ec1	-0.0062597697
48	0xbdc3c74f	-0.095594995
49	0x3dab4455	0.08362643
50	0x3e6370d6	0.22211012
51	0x3e116106	0.14197168
52	0x3db6c2a8	0.089238465
53	0xbdf9ac3d	-0.12191055
54	0xbda81e79	-0.08208937
55	0xbd8c996e	-0.06865202
56	0x3e2bfda7	0.1679598
57	0xbcabf6cc	-0.020991705
58	0xbbbd660a	-0.0057799863
59	0x3e71f33f	0.23627947
60	0x3e8a7f83	0.2705041
61	0x3d0001d4	0.031251743
62	0xbdc42e9b	-0.09579202
63	0xbcbfad0f	-0.02339795
64	0xbe04f73c	-0.12984937
65	0xbca56235	-0.02018843
66	0xbde15c4e	-0.11003934
67	0x3d730533	0.05933113
68	0x3d998e1b	0.074978076
69	0x3af68e1b	0.0018810661
70	0x3db93397	0.09043043
71	0x3e133ea5	0.14379366
72	0x3c23a390	0.009987727
73	0xbd9a4947	-0.07533508
74	0x3cc88f24	0.024482317
75	0xbd52e0e8	-0.05148402
76	0x3e2eeaa4	0.17081696
77	0xbc96b035	-0.018394569
78	0x3dc9a168	0.09845239
79	0xbcc229a6	-0.0237015
80	0x3e1d70e2	0.15375093
81	0xbdb84495	-0.08997456
82	0xbdbfa644	-0.093578845
83	0xbe8b603f	-0.27221867
84	0xbd9834f3	-0.07431974
85	0xbcd5a0db	-0.026077678
86	0x3d56c304	0.052432075
87	0xbeb018e4	-0.3439399
88	0x3d99cea4	0.07510117
89	0x3d183a9d	0.037165273
90	0x3d67bbd1	0.0565756
91	0x3e0ce524	0.13759285
92	0xbddd9cdf	-0.108209364
93	0x3d63a9e4	0.055581942
94	0xbe111f01	-0.14171983
95	0xbe4eb974	-0.20187932
96	0xbd1f0b8e	-0.03882938
97	0xbd25e666	-0.04050293
98	0xbe14ad26	-0.14519176
99	0xbc5456b7	-0.012960128
100	0x3e01c5af	0.12673067
101	0x3dc5106e	0.09622274
102	0x3e8a2a47	0.2698538
103	0xbcc11ee2	-0.023574296
104	0xbe48aab7	-0.19596373
105	0xbdf78ec3	-0.120877765
106	0xbd92c548	-0.07166535
107	0xbd2cf1ae	-0.04222267
108	0xbdb5c9fa	-0.088764146
109	0xbe1e3fe0	-0.15454054
110	0x3d234b73	0.039866876
111	0xbdce9765	-0.1008747
112	0xbd18ba62	-0.037287124
113	0x3c441e11	0.011970059
114	0xbd858503	-0.065195106
115	0x3d3b1c62	0.045681365
116	0xbd464950	-0.04840976
117	0xbe585eb3	-0.21129875
118	0x3d58ab65	0.05289783
119	0xbd7a8842	-0.0611651
120	0x3e570c24	0.21000725
121	0x3dd8fdaa	0.105952576
122	0xbd2331dd	-0.039842475
123	0xbd002dd7	-0.031293716
124	0x3d719b2b	0.05898587
125	0xbbb6cc1a	-0.00557853
126	0xbd5c1232	-0.05372829
127	0xbe1fdf44	-0.15612513
128	0x3cde259c	0.027117543
129	0x3ceea016	0.02912907
130	0xbd32eb59	-0.043681476
131	0xbd670628	-0.056402355
132	0xbd58f445	-0.05296733
133	0xbde860c9	-0.11346585
134	0xbd76b9a2	-0.060235627
135	0xbb172aa4	-0.0023066187
136	0xbde8ece7	-0.113733105
137	0xbc3296fd	-0.010900256
138	0x3cb001ae	0.021485176
139	0x3d225465	0.039631266
140	0xbdfe6bb5	-0.12422887
141	0x3d3ed05d	0.04658543
142	0xbd0b9a4b	-0.034082692
143	0x3e175254	0.147775
144	0x3e0eeffb	0.13958733
145	0x3c51ad8e	0.012797726
146	0xbd8074cc	-0.06272277
147	0xbdc1daf4	-0.0946559
148	0x3d91af5f	0.071135275
149	0xbe628c8a	-0.22123924
150	0xbd4ad7b5	-0.04952212
151	0xbe0e05e4	-0.13869435
152	0x3dfbd717	0.122968845
153	0xbdae7fff	-0.08520507
154	0xbd00764b	-0.031362813
155	0x3e81d024	0.2535411
156	0xbc957530	-0.018244356
157	0xbd0ca3b0	-0.034335792
158	0x3e08d319	0.13361777
159	0xbd95c74e	-0.07313405
160	0xbdd24058	-0.10266179
161	0x3e573c42	0.2101908
162	0x3d87cb9a	0.06630631
163	0x3dcb6c2f	0.09932744
164	0x3e078f1b	0.13238184
165	0x3dbd3745	0.092390575
166	0xbe3c61a3	-0.1839662
167	0xbd8e356b	-0.069437824
168	0xbd86651f	-0.06562256
169	0x3e161c1e	0.14659163
170	0x3d9d2725	0.07673482
171	0x3d16cdce	0.036817364
172	0x3d1cb8dd	0.038262237
173	0x3d7a0387	0.06103852
174	0xbdd79e99	-0.10528297
175	0x3ce2e90f	0.027699022
176	0x3d266563	0.040624034
177	0xbd303732	-0.04302139
178	0x3d972e1e	0.07381843
179	0xbd134623	-0.03595556
180	0x3d211c04	0.03933336
181	0xbe3bac65	-0.18327482
182	0xbcd46336	-0.025926214
183	0xbcf8b41a	-0.030359317
184	0xbdf7ad70	-0.120936275
185	0xbd417320	-0.047228932
186	0xbdfabced	-0.12243066
187	0x3de377c8	0.11106831
188	0x3c0e23eb	0.008675556
189	0x3e10cea9	0.14141335
190	0x3e5a463e	0.21315858
191	0xbdfedb58	-0.1244418
192	0xbd0e86e3	-0.034796607
193	0xbe386f4e	-0.1801121
194	0x3d3f4e57	0.04670557
195	0x3dba600f	0.09100353
196	0xbc229f8a	-0.009925732
197	0xbd2d95cf	-0.042379197
198	0xbe0bf3c5	-0.1366721
199	0x3ba13f24	0.004920857
200	0x3e1ae623	0.15126853
201	0x3cde79bf	0.027157662
202	0xbe1eba8d	-0.15500851
203	0xbd8af768	-0.0678547
204	0xba209daf	-0.00061270123
205	0x3d91aef9	0.071134515
206	0x3d612097	0.05496272
207	0xbba9969e	-0.0051754257
208	0x3e1a3d3c	0.15062422
209	0xbd43d949	-0.04781464
210	0xbe77aa1b	-0.24185984
211	0x3e511ba7	0.20420705
212	0x3ccd3d0e	0.025053527
213	0xbd3650ec	-0.044510767
214	0xbe166b85	-0.14689453
215	0xbe0eb73f	-0.1393709
216	0xbb965e76	-0.0045888973
217	0xbd75bf59	-0.059996936
218	0xbda72563	-0.08161428
219	0x3d53bee2	0.051695712
220	0xbe18d1c6	-0.14923772
221	0x3d8f4620	0.06995797
222	0xbe123faa	-0.14282098
223	0xbe0e163b	-0.13875668
224	0xbd0bf80d	-0.034172107
225	0xbe4a9a24	-0.19785362
226	0xbd17846e	-0.03699153
227	0xbd73517f	-0.059403893
228	0x3ca60498	0.020265862
229	0x3e1c7618	0.15279424
230	0xbd2733a2	-0.040820725
231	0xbcb0dcb1	-0.021589609
232	0x3dc26660	0.09492183
233	0xbdafc9b3	-0.08583393
234	0xbd23cded	-0.039991308
235	0x3d2381f5	0.03991886
236	0x3cd91e35	0.026503662
237	0xbdb8e49d	-0.090279795
238	0x3e3cdbc3	0.18443207
239	0x3d5a1198	0.053239435
240	0xbc6e2e90	-0.014537469
241	0xbdd98801	-0.10621644
242	0xbe073269	-0.13202824
243	0xbd76ca21	-0.06025136
244	0xbcca1690	-0.024668962
245	0xbe30d383	-0.17268185
246	0xbdafffb7	-0.085936956
247	0xba91476a	-0.0011083905
248	0x3d1cac60	0.038250327
249	0xbd10636d	-0.03525107
250	0x3d284593	0.041081976
251	0xbdd6ae1d	-0.10482428
252	0x3e063b9d	0.13108678
253	0xbe12ed90	-0.14348435
254	0x3e043b20	0.1291318
255	0x3e09d12c	0.13458699

model.2.bias f4 [128]
0	0x3d8cd1b3	0.068759345
1	0x3cd4c965	0.025974939
2	0xbb06818d	-0.0020523996
3	0x3c1df596	0.009641072
4	0xbcee69c8	-0.029103175
5	0x3d45d3c1	0.048297647
6	0xbb8fdbd9	-0.0043902216
7	0xbcf2f5be	-0.029658195
8	0xbc3c1369	-0.011479237
9	0xbd119bcc	-0.03554897
10	0x3cddc877	0.027073128
11	0xbd68ae5a	-0.0568069
12	0xbc8b7e55	-0.017028013
13	0x3c35f5df	0.0111059835
14	0xbcbb37df	-0.02285379
15	0xbcb69a80	-0.022290468
16	0x3ab533a6	0.0013824597
17	0xbd6b0c62	-0.057384856
18	0xbd4ae52c	-0.04953496
19	0xbc5694c6	-0.013096994
20	0xbc7d224d	-0.0154500725
21	0xbd209845	-0.039207716
22	0xbcbf22c4	-0.023332007
23	0xbc5154a9	-0.012776532
24	0xbd14ec7c	-0.03635834
25	0x3d4e9da3	0.050443303
26	0xbb8fe94d	-0.0043918253
27	0x3c23b1c5	0.009991114
28	0x3be8b659	0.0071018157
29	0x3bd87a51	0.006606378
30	0x3d7644cf	0.060124215
31	0x3c79f7a4	0.015256796
32	0xbc58b73d	-0.013227281
33	0xbc62446d	-0.013810259
34	0x3d6c9c4b	0.05776624
35	0xbc7aa433	-0.015297937
36	0xbd5c7167	-0.053819086
37	0x3c7a8351	0.015290097
38	0xbd284f4d	-0.041091252
39	0xbd729e42	-0.059232958
40	0xb9ab4d1f	-0.0003267312
41	0x3c9b15a8	0.018931225
42	0xbb126352	-0.0022337032
43	0x3d610598	0.054936975
44	0x3d859c16	0.06523912
45	0x3d179fbd	0.037017573
46	0xba9cb791	-0.0011956563
47	0x3d8f22b4	0.06989041
48	0xbd8d73c7	-0.069068484
49	0x3d56406f	0.052307542
50	0xbb7dc947	-0.0038724707
51	0x3cf833f6	0.030298214
52	0x3d75090f	0.059823092
53	0xbc8f96db	-0.017527988
54	0x3c114141	0.008865655
55	0xbca8afdd	-0.02059167
56	0x3b73c4ca	0.0037196153
57	0xbc0553f7	-0.008137695
58	0x3c250d09	0.010073909
59	0x3d732613	0.059362482
60	0x3d1cbe6d	0.03826754
61	0x3aadd54f	0.0013262423
62	0xbd5a7ff5	-0.053344686
63	0x3b330c8f	0.0027320718
64	0xbb572ace	-0.003283191
65	0x3d8a420e	0.0675088
66	0xbd887054	-0.0666205
67	0xbb0e68dd	-0.0021729984
68	0xbd44848c	-0.04797797
69	0x3c7623b3	0.01502316
70	0x3d156775	0.036475617
71	0x3d24a083	0.04019214
72	0x3c426170	0.011864051
73	0x3b7f8190	0.0038987137
74	0xbb90a201	-0.0044138436
75	0xbcfdc845	-0.030979285
76	0xbd55fc24	-0.052242413
77	0xbc8799d9	-0.016552852
78	0xbbfccfdd	-0.007715209
79	0xbc55155d	-0.013005582
80	0x3cab7576	0.020930033
81	0xbc1abe2e	-0.009444756
82	0x3dc1be00	0.09460068
83	0x3c38410c	0.011245977
84	0x3d92bb1d	0.07164595
85	0xbd374d3e	-0.0447514
86	0xbcf2352d	-0.029566372
87	0x3d9e1064	0.0771797
88	0x3d5caf52	0.053878136
89	0x3d764b34	0.060130313
90	0xbd0e5e04	-0.03475763
91	0xbcaa00c5	-0.02075232
92	0x3d0b8b91	0.034068648
93	0xbccc5255	-0.024941603
94	0xbd22fd11	-0.039792124
95	0x3da17a39	0.0788464
96	0x3c2ac279	0.010422342
97	0xbb4561e5	-0.0030118164
98	0xbd3fc3f0	-0.04681772
99	0xbd5d2d05	-0.053998012
100	0x3d97d9e1	0.07414604
101	0xbc188fe2	-0.009311648
102	0x3be627ca	0.007023786
103	0x3d7580b3	0.05993719
104	0x3d8305c5	0.06397585
105	0xbc876dd8	-0.01653187
106	0x3d933f57	0.071898155
107	0xbd42c7d1	-0.04755384
108	0x3d65e2ed	0.056124616
109	0x3c78ba21	0.015181095
110	0xbc52d871	-0.012868986
111	0x3d7a20c6	0.06106641
112	0xbc612276	-0.013741126
113	0x3d913b56	0.070913956
114	0xbcd47cbe	-0.025938388
115	0xbd0b99fd	-0.0340824
116	0xbd204d23	-0.039136063
117	0xba173521	-0.00057681097
118	0x3cd3bd3f	0.025847076
119	0xbd03c176	-0.03216692
120	0x3c6b44a1	0.014359624
121	0xbd4910e7	-0.049088385
122	0x3d330e4a	0.0437148
123	0x3d81b949	0.063341685
124	0x3d3f1183	0.04664756
125	0x3c949e83	0.01814199
126	0x3d036dc0	0.032087088
127	0xbd7c7422	-0.06163419

model.4.weight f4 [5, 128]
0	0x3e5c99bc	0.2154302
1	0x3e4d64a3	0.20057921
2	0xbe23d826	-0.16000423
3	0xbd11402e	-0.035461597
4	0xbde8e41b	-0.11371633
5	0x3e0b20a0	0.13586664
6	0xbdad1d27	-0.08452826
7	0xbda395ec	-0.0798758
8	0xbe4453ba	-0.19172564
9	0x3e140e3b	0.14458553
10	0x3ca7bb6a	0.020475108
11	0xbe8f4ede	-0.27989858
12	0xbea4a4fc	-0.32157123
13	0xbe643d08	-0.22288907
14	0xbe3b553b	-0.18294232
15	0xbedda2fc	-0.4328841
16	0x3dfc0424	0.12305477
17	0xbec7028b	-0.38869128
18	0xbea57a9d	-0.3232011
19	0xbe5dd5d6	-0.21663603
20	0x3ea4fff7	0.32226536
21	0xbe91f138	-0.28504348
22	0xbd829f05	-0.06377987
23	0xbd358d22	-0.044324048
24	0xbe0972e4	-0.13422734
25	0x3e301efa	0.17199317
26	0xbe064f8a	-0.13116279
27	0x3e157db2	0.1459873
28	0xbd95d8c6	-0.07316737
29	0xbdef4adb	-0.116841994
30	0x3e16ef71	0.14739777
31	0xbbbe409f	-0.0058060433
32	0xbe294b99	-0.16532744
33	0xbdf7f860	-0.12107921
34	0x3da47550	0.08030188
35	0x3cc5019a	0.024048615
36	0xbf134308	-0.57524157
37	0x3ce4db5b	0.027936628
38	0xbeae1512	-0.3400045
39	0xbecd5d58	-0.40110278
40	0xbe7b943a	-0.24568263
41	0x3e91458b	0.2837337
42	0xbcc964ba	-0.024584163
43	0x3a07f589	0.0005186429
44	0x3e10eb76	0.14152321
45	0x3e644399	0.22291411
46	0xbdc5f7c3	-0.096663974
47	0x3e6bb67d	0.23018833
48	0xbf0860bc	-0.53272605
49	0xbc15af8c	-0.009136092
50	0xbcf3b134	-0.029747583
51	0x3d9f681b	0.077835284
52	0x3da12b6a	0.07869609
53	0x3e396329	0.18104233
54	0xbdc88600	-0.097911835
55	0xbe1b17ce	-0.151458
56	0xbd3af89b	-0.045647245
57	0x3e06d6d5	0.1316789
58	0x3b027c6c	0.0019910587
59	0xbcd9eb3a	-0.026601423
60	0x3bc40b57	0.005982797
61	0xbe29f4c0	-0.16597271
62	0xbe81ce2b	-0.25352606
63	0xbe80e00c	-0.25170934
64	0xbe7f7424	-0.24946648
65	0x3d983bfb	0.07433315
66	0xbe643975	-0.22287543
67	0x3e52c72d	0.20583792
68	0xbee6829b	-0.4502152
69	0xbcaf4e03	-0.021399504
70	0x3decd34f	0.115637414
71	0x3dc753ad	0.09732757
72	0x3e4a10a0	0.19732904
73	0x3d9b95d9	0.075969405
74	0xbdca4ed3	-0.09878316
75	0xbe337f0f	-0.17528938
76	0xbea005ff	-0.31254575
77	0xbd90786a	-0.07054217
78	0x3dbc849a	0.09204979
79	0x3eb9255e	0.3616132
80	0x3e1b8469	0.15187229
81	0xbe1d12af	-0.15339158
82	0x3e1b6ae5	0.15177496
83	0x3e51119c	0.20416874
84	0x3eb4c5da	0.353072
85	0xbe0f89c0	-0.14017391
86	0xbdaeb7c8	-0.08531147
87	0x3e7f9c7a	0.24962035
88	0x3d71da90	0.059046328
89	0x3d013998	0.031549066
90	0x3e7e4f15	0.24834855
91	0xbecf14a5	-0.40445438
92	0x3d68143d	0.056659926
93	0xbdc89370	-0.097937465
94	0xbda9b5c5	-0.08286623
95	0x3e238d64	0.15971905
96	0xbdb52790	-0.088454366
97	0x3b260fe8	0.002533907
98	0xbefff7d3	-0.49993762
99	0xbec19bce	-0.37814182
100	0x3d28fc1b	0.04125605
101	0xbe3e5df9	-0.18590535
102	0xbe744610	-0.23854852
103	0x3e13933a	0.14411631
104	0x3dc93c36	0.098259374
105	0xbea99b4b	-0.33126292
106	0x3dc3e8d7	0.09565895
107	0xbedb6622	-0.4285136
108	0x3d8a939c	0.067664355
109	0xbe8eaf96	-0.27868336
110	0xbeba1408	-0.36343408
111	0x3cb271b2	0.02178273
112	0xbe344ccb	-0.17607419
113	0x3e38ad22	0.18034795
114	0xbe844a67	-0.25838014
115	0xbe133005	-0.14373787
116	0xbe619a8b	-0.2203161
117	0xbd431069	-0.04762307
118	0xbe6db77f	-0.2321453
119	0xbec802ba	-0.3906458
120	0x3e13e7f8	0.14443958
121	0xbe63bbe0	-0.22239637
122	0x3e8049d0	0.25056314
123	0x3d013c78	0.031551808
124	0x3caebdef	0.021330802
125	0xbcae59bb	-0.021283021
126	0x3d6af66e	0.05736392
127	0xbeb63e26	-0.3559429
128	0x3e8cd5d0	0.27506876
129	0x3e053842	0.13009742
130	0x3e7a350e	0.24434301
131	0x3cbaa230	0.022782415
132	0xbe68ee9a	-0.2274727
133	0x3e9d691d	0.30744258
134	0xbdc621d1	-0.09674419
135	0xbe3b8e97	-0.18316112
136	0xbdfba7b6	-0.12287848
137	0xbe14d714	-0.14535171
138	0x3dc8106f	0.097687595
139	0xbe8a779b	-0.27044377
140	0xbe153d0e	-0.14574072
141	0xbd8e121f	-0.0693705
142	0x3cc3fa18	0.023922965
143	0xbec5bb8d	-0.38619652
144	0xbe5d98bd	-0.21640296
145	0xbe96cd53	-0.29453525
146	0xbec57155	-0.38563028
147	0xbf0f96c8	-0.5608945
148	0x3dc46c4d	0.09590969
149	0xbeacc5be	-0.33744615
150	0xbc2c1f40	-0.010505497
151	0x3c815772	0.015788767
152	0xbe883247	-0.2660086
153	0x3e523489	0.20527853
154	0xbe5c8f50	-0.21539044
155	0x3dc6d7ba	0.09709115
156	0xbdca325f	-0.09872889
157	0xbeac13d6	-0.33608884
158	0xbce83512	-0.028345618
159	0x3e58d09e	0.21173331
160	0xbeacfd8a	-0.33787185
161	0xbd131ec2	-0.035918005
162	0x3d683576	0.05669161
163	0xbe176a26	-0.14786586
164	0xbead3019	-0.33825758
165	0x3dbe65f5	0.092967905
166	0xbe128509	-0.14308561
167	0xbe23efa5	-0.16009386
168	0xbda5e587	-0.081004195
169	0x3c48ccfb	0.012255902
170	0xbdbc37eb	-0.09190353
171	0x3e1c414d	0.15259285
172	0x3da5840f	0.08081829
173	0xbe2bf731	-0.16793515
174	0x3c8e272a	0.01735266
175	0x3e008462	0.125505
176	0xbe31de67	-0.17369996
177	0xbda66026	-0.081238076
178	0xbdf16b46	-0.11788039
179	0x3da4aa3e	0.080402836
180	0x3d4a5632	0.04939861
181	0xba8b84fb	-0.001064449
182	0xbe5c0117	-0.2148479
183	0x3d571b17	0.05251607
184	0xbe12b09b	-0.14325182
185	0x3d5ab5f5	0.053396184
186	0xbd0e69a2	-0.034768708
187	0x3e4248f0	0.18973136
188	0x3e0f3f88	0.13989079
189	0xbe60d325	-0.21955545
190	0xbebb45e2	-0.36576754
191	0xbec660cd	-0.38745728
192	0xbeaa45f0	-0.33256483
193	0x3dbf2d27	0.09334784
194	0xbeefe6cd	-0.46855775
195	0x3e0e3b88	0.13889897
196	0xbe7763ec	-0.24159211
197	0xbe974b71	-0.29549745
198	0x3df676af	0.12034356
199	0x3e526894	0.20547706
200	0xbd14a956	-0.036294304
201	0x3e976824	0.2957164
202	0x3e00099a	0.12503663
203	0xbe6188ea	-0.22024885
204	0xbe074d6e	-0.13213131
205	0xbe69022a	-0.22754732
206	0xbebe1f19	-0.371331
207	0x3e25f24b	0.16205709
208	0xbded861c	-0.11597845
209	0xbe9d4e5d	-0.3072385
210	0x3ea944b9	0.33060244
211	0xbe2cf8f1	-0.16891839
212	0x3e5c444c	0.21510428
213	0xbe83eea9	-0.2576802
214	0x3e0a9ff0	0.13537574
215	0xbc8336a0	-0.016017258
216	0x3e035f97	0.12829433
217	0x3d4e9d2c	0.05044286
218	0x3ece8ce8	0.40341878
219	0xbec7f5a0	-0.39054585
220	0x3e0980ec	0.13428086
221	0x3e790be0	0.24320936
222	0xbee1d74b	-0.44109568
223	0x3e28f161	0.16498329
224	0xbe1790c4	-0.14801317
225	0xbe40b3c8	-0.18818581
226	0xbed33678	-0.41252494
227	0xbe915f4f	-0.28393027
228	0x3ddaae43	0.10677769
229	0xbe18078f	-0.14846633
230	0xbe53813c	-0.20654768
231	0xbccfd769	-0.02537127
232	0x3c0f58d2	0.008749204
233	0xbe4ea383	-0.20179562
234	0x3e8bebe4	0.27328408
235	0xbed25eba	-0.41087896
236	0x3e1ff83a	0.15622035
237	0xbe80087d	-0.25006476
238	0xbe19d354	-0.15022022
239	0x3e46db95	0.19419701
240	0xbee18495	-0.44046465
241	0x3dc03d19	0.093866535
242	0xbe9bdab5	-0.30440298
243	0xbe644b98	-0.22294462
244	0xbd0c621e	-0.03427326
245	0xbd2f28f1	-0.042763654
246	0x3c0ecdff	0.0087161055
247	0xbdaca60c	-0.084301084
248	0xbdfe0401	-0.124031074
249	0xbeb0637e	-0.34450907
250	0x3de5553d	0.111978985
251	0x3e3dcbc0	0.18534756
252	0x3e5c917a	0.2153987
253	0x3e405d1d	0.1878552
254	0x3e11ac9a	0.14225999
255	0xbea982c8	-0.3310759

model.4.bias f4 [5]
0	0x3c0eb0e4	0.008709166
1	0xbbca0f6d	-0.0061663897
2	0xbc99e147	-0.018784178
3	0xbc57df17	-0.013175747
4	0x3be34649	0.006935869
