map/log/simple_tag_elign_team/final_critic2_7.pkl (torch, 94679 bytes, 6 tensors)

model.0.weight f4 [128, 46]
-0.16868883 0.22664517 -0.2649169 0.09174206 -0.10931272 -0.06494375 -0.085504845 -0.009462673
0.27686805 -0.22137113 -0.1823198 0.06247375 -0.60941625 -0.3280008 0.66009504 0.28859398
0.21637157 0.20208803 0.06972559 0.5257458 -0.1228017 -0.30306223 -0.21665588 -0.09724156
0.3648614 -0.054907914 -0.2655885 -0.07185846 -0.17054035 -0.26820615 0.34678483 0.20038131
-0.37083554 -0.19725426 -0.0027253167 0.3813424 0.13470934 -8.2774124e-05 0.17290126 0.15652771
0.54499346 0.12548901 0.018050352 0.13899215 0.099281244 0.19032405 -0.06708869 -0.2601513
0.2167881 0.2055097 0.0051305005 -0.22266601 -0.058290657 0.049339008 0.02419995 0.16822375
-0.25423786 -0.5139491 0.13455524 -0.012277737 -0.12603316 0.6894089 -0.035586186 0.16876644
0.27450582 -0.1282128 -0.4007642 0.2868017 0.34616253 -0.13159126 0.19801822 -0.084276326
-0.046967626 0.23316382 0.050499257 -0.01861382 -0.3418897 0.26217383 -0.2956643 0.08489105
0.041328683 -0.04246144 0.23274767 0.1913911 0.11613614 0.21914777 -0.30639687 0.1417015
0.06402845 -0.09675741 -0.08746147 0.19332099 0.03845363 0.022287901 0.06464423 -0.008648182
-0.0046947342 0.055341713 -0.0033520244 0.0075586466 0.0052717975 -0.057533275 0.23478155 0.9324358
0.3112507 0.9946736 0.32263163 0.9155605 -0.029827371 -0.027785841 -0.090711415 0.057518367
-0.06398882 0.0369473 -0.053525865 -0.038042285 -0.2324219 -0.9428643 0.041549128 0.10632116
-0.053414125 0.1060965 0.042086165 0.17035565 0.0035536317 0.0014393899 -0.00012965329 0.01576335
0.064601324 -0.05475214 0.027181543 -0.01995111 -0.04099544 -0.13205905 -0.006310364 0.003901069
0.052127298 0.034557443 0.04582662 0.122394904 0.011262691 0.14871606 0.2050429 0.13170406
0.06450241 -0.21745661 -0.011426451 0.10476466 -0.5774672 -0.09104891 0.045001708 -0.07079574
-0.02591317 0.15339512 -0.1751198 -0.1393543 0.12670673 -0.10428411 -0.008328672 0.013697624
-0.09736738 -0.40119997 1.0345706 0.11589169 -0.23884094 -0.12576833 0.13457708 0.4627091
-0.016766207 0.19769159 -0.21348691 -0.022616206 0.3940314 -0.16108069 0.17689101 -0.30903456
0.40136606 -0.004515052 0.24510892 -0.01886656 0.21713968 0.039546717 -0.013125312 0.05756048
-0.12572101 -0.021240218 0.14221881 0.10743794 0.04620493 0.0048984257 0.065515466 -0.066553526
-0.038049556 0.096805684 -0.3675161 -0.19514446 -0.63072246 0.2819644 0.14784639 -0.27672496
-0.27762038 0.0051856297 -0.011906812 -0.0047526574 -0.15271142 -0.15322201 0.07275123 0.1035388
0.01050763 0.23802374 0.0023102085 0.22884883 -0.31403217 -0.35046294 0.6138932 0.938526
0.58585906 0.2493044 0.06631234 -0.062071834 -0.031836856 0.152161 0.14393687 -0.17510536
-0.32055485 -0.1402639 -0.05454537 0.18617399 -0.060365926 0.08584265 -0.73572046 0.2822744
0.16409902 0.009763666 -0.19394234 -0.044506934 -0.01905352 -0.113763444 -0.18878868 0.13044766
0.3514907 0.29346213 -0.2165625 -0.08735025 -0.17046693 0.13799503 0.28646603 -0.11575627
-0.12527663 0.0079672765 -0.046208918 -0.1656846 0.013550563 0.047328316 -0.2319577 -0.44794682
00000000: c4bc 2cbe ac15 683e 30a3 87be 43e3 bb3d
00000010: 59df dfbd 3b01 85bd 2a1d afbd 5409 1bbc
00000020: a6c1 8d3e 1daf 62be 0bb2 3abe 7ae4 7f3d
00000030: b402 1cbf b9ef a7be fdfb 283f 97c2 933e
00000040: 8290 5d3e 2af0 4e3e 4acc 8e3d 4797 063f
00000050: 757f fbbd f92a 9bbe 0adb 5dbe 9526 c7bd
00000060: 1dcf ba3e 1fe7 60bd 37fb 87be 872a 93bd
00000070: 21a2 2ebe 5152 89be c88d b13e c230 4d3e
00000080: 28de bdbe 05fd 49be 3a9b 32bb 503f c33e
00000090: 3ff1 093e 0597 adb8 070d 313e cd48 203e
000000a0: b184 0b3f 3180 003e 55de 933c f553 0e3e
000000b0: f753 cb3d 4fe4 423e cc65 89bd 8d32 85be
000000c0: b3fd 5d3e 2371 523e c21d a83b 8f02 64be
000000d0: 2fc2 6ebd b317 4a3d f93e c63c d942 2c3e
000000e0: 772b 82be 2b92 03bf d9c8 093e 9028 49bc
000000f0: d60e 01be 1a7d 303f d2c2 11bd 1cd1 2c3e
00000100: 078c 8c3e 374a 03be f730 cdbe acd7 923e
00000110: 373c b13e dcbf 06be 4ac5 4a3e 1199 acbd
00000120: 2061 40bd 7fc2 6e3e 4fd8 4e3d 037c 98bc
00000130: 2b0c afbe a63b 863e 5061 97be 5cdb ad3d
00000140: 4448 293d 0cec 2dbd 6855 6e3e 07fc 433e
00000150: c9d8 ed3d 4668 603e 0de0 9cbe 331a 113e
00000160: 5921 833d c028 c6bd 001f b3bd f0f5 453e
00000170: 8e81 1d3d 1e95 b63c 3264 843d 1bb1 0dbc
00000180: 49d6 99bb fead 623d a3ad 5bbb 86ae f73b
00000190: 0bbf ac3b 03a8 6bbd 936a 703e 1db4 6e3f
000001a0: 405c 9f3e eea2 7e3f f92f a53e 2c62 6a3f
000001b0: 8858 f4bc 229f e3bc e8c6 b9bd 6198 6b3d
000001c0: 920c 83bd 0d56 173d f03d 5bbd 3ad2 1bbd
000001d0: 0200 6ebe 8e5f 71bf 6b2f 2a3d e9be d93d
000001e0: c5c8 5abd 1f49 d93d 8b62 2c3d b671 2e3e
000001f0: 0ce4 683b e9a9 bc3a 8af3 07b9 2422 813c
00000200: b34d 843d c843 60bd d4ab de3c 8370 a3bc
00000210: d6ea 27bd 7d3a 07be 2cc7 cebb 14a9 7f3b
00000220: 6f83 553d 1b8c 0d3d b2b4 3b3d 2eaa fa3d
00000230: 2687 383c 0649 183e c4f6 513e 6edd 063e
00000240: d719 843d f2ac 5ebe 0236 3bbc db8e d63d
00000250: e4d4 13bf da77 babd b653 383d 5bfd 90bd
00000260: db47 d4bc 9c13 1d3e 9b52 33be e5b2 0ebe
00000270: 69bf 013e e892 d5bd fb74 08bc 006c 603c
00000280: 8d68 c7bd 156a cdbe cf6c 843f 9f58 ed3d
00000290: b892 74be 6ac9 00be 93ce 093e 35e8 ec3e
000002a0: 4959 89bc aa6f 4a3e 509c 5abe 9f45 b9bc
000002b0: 7cbe c93e 56f2 24be eb22 353e c739 9ebe
000002c0: da7f cd3e 00f3 93bb d5fd 7a3e 0b8e 9abc
000002d0: dd59 5e3e bdfb 213d 8c0b 57bc 8ac4 6b3d
000002e0: 02bd 00be f7ff adbc cfa1 113e 6c08 dc3d
000002f0: 6141 3d3d f982 a03b f92c 863d 374d 88bd
00000300: dad9 1bbd 0f42 c63d 122b bcbe f3d3 47be
00000310: 0777 21bf a35d 903e 0b65 173e e5ae 8dbe
00000320: 4224 8ebe 37ec a93b ca14 43bc 2ebc 9bbb
00000330: 6260 1cbe 3be6 1cbe 99fe 943d 260c d43d
00000340: 3228 2c3c 7fbc 733e de66 173b 5957 6a3e
00000350: d3c8 a0be e16f b3be 1b28 1d3f 3d43 703f
00000360: dcfa 153f a749 7f3e c4ce 873d 093f 7ebd
00000370: 5d67 02bd 18d0 1b3e 3064 133e d24e 33be
00000380: c41f a4be 57a1 0fbe f76a 5fbd 65a4 3e3e
00000390: 4342 77bd 45ce af3d 2d58 3cbf 4586 903e
000003a0: 9309 283e c9f7 1f3c d298 46be e74c 36bd
000003b0: 2116 9cbc cffc e8bd d251 41be 1294 053e
000003c0: 97f6 b33e ab40 963e 8fc2 5dbe b0e4 b2bd
000003d0: e28e 2ebe 924e 0d3e adab 923e a011 edbd
000003e0: 8448 00be 2e89 023c 9045 3dbd 39a9 29be
000003f0: 2e03 5e3c 56db 413d 5286 6dbe 4959 e5be

model.0.bias f4 [128]
-0.057655368 -0.059948087 -0.077105165 -0.23562314 -0.08580081 -0.14007294 0.07309536 -0.10967679
-0.03702016 -0.2254497 -0.10405279 -0.2694599 0.2018078 0.2758463 0.013949019 -0.23897727
-0.040081043 -0.20966318 -0.33708215 -0.24411364 -0.07973061 -0.23300278 0.20493837 -0.2639583
-0.12551554 -0.08051246 0.046145763 -0.15336846 -0.18709171 -0.20859602 -0.3654402 -0.29371002
-0.045752663 -0.2397529 -0.34596735 -0.10856225 0.04737679 -0.34172887 0.06301911 0.07041389
-0.08539143 0.01829587 0.25058433 0.009225715 -0.074378915 -0.13071986 0.11729809 -0.039862346
-0.11776451 -0.0981549 -0.013241388 -0.08848195 -0.13732219 -0.05617381 -0.07715057 0.18694286
-0.35616872 -0.1131272 -0.11347418 -0.19826946 -0.094943404 0.08137125 -0.35038453 -0.11545314
-0.13892536 0.36800575 -0.16010074 0.02060977 0.08484333 -0.17081603 -0.13211128 0.01267528
-0.08100605 0.09243709 -0.15418215 0.036040813 -0.118756406 -0.09295837 -0.17596762 -0.038482346
0.05756457 0.03200156 0.19586363 -0.2739183 0.028864078 0.066033565 0.01855773 -0.08303809
-0.105778985 0.12584813 0.22701788 -0.11618824 -0.20678778 -0.17448777 -0.44982895 -0.22970928
0.010209226 -0.14797196 -0.20588186 0.04916634 -0.12569775 -0.061096724 -0.038654648 0.2586428
-0.19485797 -0.18276805 -0.10848162 -0.2570322 -0.0073729106 -0.12847492 -0.061646327 -0.13807507
-0.25837716 -0.08577614 -0.0053777783 -0.0743102 0.15170571 -0.06777904 -0.09923942 -0.14694819
-0.118254125 -0.022711791 -0.029913604 0.007173315 0.29788432 0.14052628 -0.2166385 0.23657626
00000000: 0928 6cbd 208c 75bd 50e9 9dbd 3147 71be
00000010: 56b8 afbd 486f 0fbe 05b3 953d 3a9e e0bd
00000020: 74a2 17bd 49dc 66be a119 d5bd a6f6 89be
00000030: b4a6 4e3e ba3b 8d3e 6d8a 643c 75b6 74be
00000040: 052c 24bd f2b1 56be 0896 acbe edf8 79be
00000050: cd49 a3bd 4898 6ebe 5ddb 513e 8b25 87be
00000060: 2587 00be b7e3 a4bd 5703 3d3d 9f0c 1dbe
00000070: f894 3fbe 329a 55be fa1a bbbe 2961 96be
00000080: 2567 3bbd c981 75be a222 b1be e355 debd
00000090: 2a0e 423d 16f7 aebe 2a10 813d 2835 903d
000000a0: b4e1 aebd 38e1 953c 974c 803e 7427 173c
000000b0: f953 98bd 6ddb 05be fb39 f03d b346 23bd
000000c0: 852e f1bd 7005 c9bd 68f2 58bc 0636 b5bd
000000d0: 309e 0cbe 8216 66bd 1e01 9ebd f36d 3f3e
000000e0: bf5b b6be 3caf e7bd 2765 e8bd 2607 4bbe
000000f0: b071 c2bd f8a5 a63d 9a65 b3be b272 ecbd
00000100: 7342 0ebe 406b bc3e 73f1 23be d2d5 a83c
00000110: 57c2 ad3d 66ea 2ebe 2e48 07be faab 4f3c
00000120: 80e6 a5bd a84f bd3d ede1 1dbe 889f 133d
00000130: 8f36 f3bd f560 bebd db30 34be aa9f 1dbd
00000140: d4c8 6b3d 1114 033d 7a90 483e 053f 8cbe
00000150: 5c74 ec3c 9b3c 873d 6106 983c e00f aabd
00000160: a7a2 d8bd 55de 003e 6077 683e 1af4 edbd
00000170: 2dc0 53be ecac 32be fb4f e6be e938 6bbe
00000180: 9944 273c f685 17be b2d2 52be a562 493d
00000190: e9b6 00be 8f40 7abd 5654 1ebd d46c 843e
000001a0: d988 47be 8c27 3bbe 9d2b debd b999 83be
000001b0: 7598 f1bb ee8e 03be dc80 7cbd 8d63 0dbe
000001c0: 034a 84be 67ab afbd 1338 b0bb f22f 98bd
000001d0: be58 1b3e bdcf 8abd 093e cbbd 9679 16be
000001e0: 382f f2bd 140e babc 600d f5bc 210e eb3b
000001f0: 4b84 983e 1fe6 0f3e 7cd6 5dbe 0c41 723e

model.2.weight f4 [128, 128]
-0.16418047 -0.21736422 -1.2342325 0.0082414625 0.097383775 -0.025269086 0.2166945 0.08246821
-0.061809726 0.17264421 0.07771064 -0.26403853 -0.14896789 -0.17155683 -0.022526816 0.014172606
0.07223595 0.10711143 0.06839404 0.03243205 0.073118925 -0.36471617 -0.2543069 0.014048007
0.29383343 0.11021394 0.69546926 -0.5495181 0.14122587 0.03146206 -0.32287174 0.39244214
-0.1445541 0.33621868 0.2953153 -0.090650514 -0.14447561 1.2755804 -0.28229016 0.23197694
-0.20261088 -0.31626695 0.11662554 0.45348737 -0.23100543 -0.12977909 -0.55810905 0.3459606
0.5294011 -0.18050154 0.2970255 0.20079947 0.43520373 0.9013791 -0.23293929 -0.3311442
1.7880652 0.192285 -0.10502708 -0.29202798 -0.09058727 -1.1905345 0.17779958 -0.70251906
-1.4205728 0.033561185 0.17873563 -0.62257266 -0.3177942 0.3055032 -0.5691742 -0.0005171244
0.0076242806 -0.735893 -0.3513356 -0.030195022 0.10706316 -0.116262764 0.2906506 0.4513635
-0.12761684 0.54228806 0.17612343 0.19449693 -0.45424846 0.081091985 0.06366086 0.2509148
-0.11273827 -0.35024935 -0.80475163 0.1070743 0.46090052 0.3475857 -0.69017804 0.11250586
0.30750528 0.3282284 0.042992055 -0.07174065 0.26709637 0.20992456 -0.18876229 -0.0107379155
-0.02338007 0.3977053 -0.025838006 0.8985148 -0.0013541712 0.117543675 0.2883039 -0.13141425
-0.1156207 -0.56017166 -0.49507234 -0.09629226 -1.1242267 0.2725332 0.30045193 -0.09358898
0.3702483 0.01481528 0.037255917 0.378179 -0.116586894 0.32447177 0.12825264 0.15007393
0.017330796 -0.3195937 0.23360565 -0.35802665 -0.47098678 -0.13138655 -0.34083515 -0.05052218
0.355533 0.27933916 -0.1159099 -0.04116907 -0.4082666 -0.2761242 0.22527501 0.37047842
0.44613782 0.1740818 0.020354835 0.16020325 0.72941434 0.08409319 -0.13652845 0.2676551
0.34657958 0.013189372 0.18341386 -0.13656642 0.33789045 0.30020395 0.13570781 -0.3358115
-0.5992632 -0.23336048 0.91003984 -0.15723698 -0.27870014 -0.47664785 -0.12934068 -0.09017295
-0.49857312 -0.26200038 -0.23666194 0.2640192 0.28543776 0.22025278 -0.19044231 0.17144807
-0.009893107 0.32543337 0.86778283 0.42107794 -0.50252753 1.1970226 -0.13041262 -0.7986296
1.9618679 0.038264688 -0.026652018 0.2854254 0.25131854 -0.18387297 0.035883073 -0.5521088
-0.31874877 -0.29452 0.06278371 -0.32879683 -0.5238301 -0.5143433 -0.34907377 -0.44248694
-0.018719958 -0.21226914 -0.1078221 -0.36244816 -0.2617018 0.35665807 0.2068301 -0.11545164
-0.042455096 0.23257667 -0.090787895 0.05137414 0.12858504 -0.39476648 -0.058071002 0.32345858
0.03721978 -0.8233634 -0.8233805 0.24234319 -0.09430455 0.060637057 -0.09424176 1.404269
0.08492501 0.19516943 0.21456851 -0.30319306 -0.0651653 -0.37471285 0.6509761 -0.2537654
-0.19191284 0.05276401 0.06782348 0.8812653 -0.75246304 0.047015205 0.34386468 0.33076677
0.50357324 -0.22145067 -0.089453176 0.21805868 -0.026202148 0.091167785 0.25024885 0.21658221
-0.23401415 -0.79637736 0.21077971 0.0073841657 -0.19314323 0.20420991 0.018265745 -0.4482941
00000000: ed1e 28be ba94 5ebe 55fb 9dbf 3307 073c
00000010: 2571 c73d 1d01 cfbc 2ae5 5d3e 18e5 a83d
00000020: 322c 7dbd a5c9 303e c226 9f3d 0f30 87be
00000030: 0a8b 18be 98ac 2fbe 288a b8bc 3834 683c
00000040: 71f0 933d 3d5d db3d 2d12 8c3d 78d7 043d
00000050: 60bf 953d 14bc babe 8434 82be 9d29 663c
00000060: 5671 963e d9b7 e13d 460a 323f 38ad 0cbf
00000070: 849d 103e 5cde 003d 724f a5be 2dee c83e
00000080: fd05 14be db24 ac3e 9133 973e faa6 b9bd
00000090: 6af1 13be 3846 a33f 5688 90be 5d8b 6d3e
000000a0: 3a79 4fbe beed a1be 5fd9 ee3d 7f2f e83e
000000b0: b08c 6cbe cfe4 04be 3ce0 0ebf bf21 b13e
000000c0: d586 073f 65d5 38be ba13 983e 609e 4d3e
000000d0: 06d3 de3e c8c0 663f a387 6ebe bc8b a9be
000000e0: 52df e43f 5ce6 443e 7018 d7bd b184 95be
000000f0: d285 b9bd 6f63 98bf 1811 363e 4ad8 33bf
00000100: 54d5 b5bf 7477 093d 7906 373e ec60 1fbf
00000110: ecb5 a2be ea6a 9c3e 66b5 11bf a28f 07ba
00000120: 1ad5 f93b 7c63 3cbf 42e2 b3be 8d5b f7bc
00000130: ee43 db3d 2c1b eebd 28d0 943e 1e19 e73e
00000140: fdad 02be 64d3 0a3f b359 343e 342a 473e
00000150: 4193 e8be 8e13 a63d a060 823d e877 803e
00000160: 52e3 e6bd e253 b3be 3404 4ebf c549 db3d
00000170: 27fb eb3e c1f6 b13e 82af 30bf 7969 e63d
00000180: 5571 9d3e 8e0d a83e 7018 303d c3ec 92bd
00000190: dbc0 883e 77f6 563e e74a 41be 15ee 2fbc
000001a0: 9087 bfbc 07a0 cb3e 3aaa d3bc 1105 663f
000001b0: 727e b1ba bdba f03d 929c 933e 7591 06be
000001c0: 8cca ecbd 6967 0fbf 1f7a fdbe e034 c5bd
000001d0: a9e6 8fbf 7989 8b3e d6d4 993e 94ab bfbd
000001e0: 2f91 bd3e cabb 723c a999 183d aea0 c13e
000001f0: 1cc5 eebd 2a21 a63e a954 033e fbac 193e
00000200: 50f9 8d3c c9a1 a3be 5236 6f3e 454f b7be
00000210: 2e25 f1be 328a 06be f281 aebe 58f0 4ebd
00000220: 6c08 b63e 8b05 8f3e 2b62 edbd e6a0 28bd
00000230: 5208 d1be 2760 8dbe 7eae 663e 59af bd3e
00000240: 2d6c e43e 8042 323e 2fbf a63c 520c 243e
00000250: e6ba 3a3f 0d39 ac3d 1dce 0bbe 170a 893e
00000260: e172 b13e 3c18 583c d8d0 3b3e 11d8 0bbe
00000270: faff ac3e 55b4 993e fdf6 0a3e 7cef abbe
00000280: 5069 19bf 0df6 6ebe 5ff8 683f bb02 21be
00000290: c9b1 8ebe 300b f4be e271 04be 98ac b8bd
000002a0: fa44 ffbe ea24 86be 8257 72be 862d 873e
000002b0: e624 923e f289 613e 4f03 43be 1590 2f3e
000002c0: b316 22bc 349f a63e 0427 5e3f 8797 d73e
000002d0: a5a5 00bf 0938 993f e38a 05be fd72 4cbf
000002e0: 7d1e fb3f 6fbb 1c3d 5555 dabc 4723 923e
000002f0: d3ac 803e 3249 3cbe 21fa 123d 0157 0dbf
00000300: 0a33 a3be 53cb 96be bf94 803d 0f58 a8be
00000310: bb19 06bf 01ac 03bf ccb9 b2be a68d e2be
00000320: 995a 99bc 155d 59be d5d1 dcbd ce92 b9be
00000330: c7fd 85be e39b b63e 45cb 533e e971 ecbd
00000340: 65e5 2dbd 9428 6e3e 01ef b9bd b16d 523d
00000350: ccab 033e d51e cabe dcdb 6dbd 5d9c a53e
00000360: c573 183d f2c7 52bf 10c9 52bf d028 783e
00000370: be22 c1bd 905e 783d d301 c1bd 16bf b33f
00000380: 2aed ad3d 7fda 473e d9b7 5b3e 1f3c 9bbe
00000390: 6375 85bd 5dda bfbe 5fa6 263f 8aed 81be
000003a0: cd84 44be 131f 583d 09e7 8a3d 9a9a 613f
000003b0: 6ba1 40bf 0493 403d 080f b03e 435a a93e
000003c0: 2dea 003f f7c3 62be 3a33 b7bd c64a 5f3e
000003d0: e3a5 d6bc 2db6 ba3d 9e20 803e bac7 5d3e
000003e0: 68a1 6fbe 63df 4bbf a3d6 573e dff6 f13b
000003f0: 57c7 45be 671c 513e 0ba2 953c ce86 e5be

model.2.bias f4 [128]
0.1560623 -0.25698146 0.18471469 0.23494348 0.21930793 0.09945487 -0.056199104 -0.71524924
0.12087089 0.20967732 -0.0344354 -0.6715062 0.20160244 -0.15279543 0.26731932 0.20996572
0.16448738 0.069073536 -0.17481665 0.09359551 0.22825414 0.24531794 0.11723883 0.036316678
-0.12510295 0.10504037 0.17664652 -0.0007552416 0.2907801 0.061459526 -0.42202336 0.012520601
0.19237575 -0.17898388 -0.10518629 -0.09328552 0.10640272 0.28454253 0.2682557 -0.3420778
0.051322643 0.022763265 -0.43285564 0.04731816 -0.24756087 0.1713834 0.1672519 0.023879955
0.115243256 -0.20152785 0.16055062 -0.07081838 0.248448 0.20957 -0.02703555 0.15455063
0.19594674 0.31576717 0.13693343 -0.03706406 0.079930104 0.19418076 0.20092262 0.24118948
0.294725 0.06530082 0.17598787 0.23190418 0.06848752 0.030446948 -0.5525896 -0.00735466
-0.38728768 0.19556145 0.28693795 0.19350006 0.20618117 -0.22837973 -0.05643985 0.111673094
0.10669848 0.12875333 -0.010266841 0.22954597 0.09091418 0.22844404 0.27685368 0.039929654
0.31574836 0.41594568 -0.29439923 0.16181144 -0.72365904 -0.10271523 0.063097306 0.19582623
0.2665779 0.0023102183 0.18224056 0.21536444 0.26195934 -0.53043693 0.047500417 -0.042129412
-0.09853331 0.07066257 0.112891085 0.28490263 0.24755318 0.1896839 0.028619543 0.3123321
0.29625058 0.04559091 -0.15207401 0.24296339 0.23326114 0.2065294 0.038861834 -0.1919031
0.2271892 0.25436148 0.008264821 0.24407601 -0.0102692535 0.24000032 0.02959063 -0.05263442
00000000: ccce 1f3e 1393 83be d925 3d3e 0695 703e
00000010: 4292 603e ffae cb3d 0831 66bd 931a 37bf
00000020: 288b f73d a7b5 563e 220c 0dbd d5e7 2bbf
00000030: df70 4e3e 6876 1cbe 14de 883e 4101 573e
00000040: 616f 283e 6d76 8d3d 2303 33be 01af bf3d
00000050: 74bb 693e a034 7b3e e91a f03d ccc0 143d
00000060: fd1a 00be 681f d73d d3e2 343e 68fb 45ba
00000070: 21e1 943e fcbc 7b3d 7213 d8be 3523 4d3c
00000080: 26fe 443e 8d47 37be e96b d7bd 7b0c bfbd
00000090: abe9 d93d 8faf 913e d058 893e d224 afbe
000000a0: b137 523d 077a ba3c 419f ddbe b0d0 413d
000000b0: 9980 7dbe 217f 2f3e 1544 2b3e e59f c33c
000000c0: a804 ec3d 515d 4ebe 6267 243e 3a09 91bd
000000d0: 2769 7e3e 8599 563e a879 ddbc 8542 1e3e
000000e0: 43a6 483e 3cac a13e 4738 0c3e 7cd0 17bd
000000f0: 65b2 a33d 52d7 463e a9be 4d3e 60fa 763e
00000100: 32e6 963e 70bc 853d 2a36 343e 4a78 6d3e
00000110: 2f43 8c3d e16b f93c 8376 0dbf 5cff f0bb
00000120: 924a c6be 4341 483e 88e9 923e e124 463e
00000130: 2821 533e 60dc 69be 792d 67bd ddb4 e43d
00000140: bc84 da3d ead7 033e 4136 28bc 190e 6b3e
00000150: 3731 ba3d 3ced 693e c4bf 8d3e 478d 233d
00000160: c5a9 a13e d5f6 d43e 7fbb 96be e6b1 253e
00000170: b841 39bf 5d5c d2bd 2939 813d ac86 483e
00000180: e67c 883e 0867 173b 459d 3a3e 7f88 5c3e
00000190: 891f 863e b7ca 07bf cc8f 423d e48f 2cbd
000001a0: d5cb c9bd 8ab7 903d 7133 e73d c2de 913e
000001b0: 957e 7d3e 7f3c 423e 8873 ea3c fee9 9f3e
000001c0: 28ae 973e 89bd 3a3d 4ab9 1bbe 65cb 783e
000001d0: 02dc 6e3e 717c 533e 962d 1f3d 3f82 44be
000001e0: 49a4 683e ab3b 823e 2c69 073c 10ef 793e
000001f0: 5f40 28bc a5c2 753e 0d68 f23c 3197 57bd

model.4.weight f4 [5, 128]
-1.3079709 -0.8539692 -2.3152502 -2.54813 -1.844881 -0.5368742 0.027932556 -2.643402
0.07443504 0.06620213 -0.18157017 -1.4085419 -1.7806813 0.5312379 0.15310065 -0.5645348
-1.6026554 0.81544656 -1.1987835 0.50061846 -0.49679065 -1.6841769 -0.62792206 0.17652366
-0.18075885 -0.41332233 -1.6256235 -0.0028157667 -1.583609 0.020026023 -0.6753716 0.07629571
-0.44791478 1.1054511 0.29673257 0.21236992 -1.112669 -2.3103356 -2.1423466 -1.1591905
-0.10639491 0.07950228 -1.902848 -0.2601384 1.9310004 0.116869494 -2.2383838 -0.03297723
0.14661646 0.94801515 -2.173123 0.29836538 -0.28680804 -1.2633317 -0.023303222 0.29058087
-0.6797511 -1.507369 -1.470997 0.040120784 -0.09151208 0.06657417 -0.2441235 -1.3148991
-1.3398641 -0.33754203 -0.6492462 -1.1895638 -0.105003916 -0.056568727 -2.1142397 -0.1850171
0.97133607 -0.121057265 -0.6673297 -0.6556699 -1.5325155 0.3784005 1.0339442 -0.7900562
0.09478337 -1.2071242 0.046402737 -0.730751 0.020263888 0.16366282 -1.035089 0.2550734
-0.39714676 -0.32629552 0.8284437 -1.646964 -1.5790625 -0.104545146 -0.07325317 -2.589322
0.096203975 0.14868537 0.22117713 -2.2760086 -1.679998 -0.84852976 -0.23522525 -0.14374655
0.033837598 -0.30413815 -0.33820468 -1.9946762 -1.5837542 0.072281845 0.0876425 -1.6290463
-1.7071456 -1.3365959 0.26040095 -1.0015163 -2.643813 -0.6051543 -0.7362052 -1.3114884
-2.1103814 -0.08848201 -0.209711 -1.3440537 0.3589778 -1.733074 0.019230472 -0.046675522
-2.1422582 -1.5670868 -3.0838199 -2.5586135 -1.4416633 0.7076979 -0.1416173 -1.7352433
-0.07133259 0.12972333 0.11103762 -1.5744867 -1.5351155 0.62564564 -0.7678504 -0.19109993
-0.32612872 -1.1179518 -1.1861786 0.441118 -0.6046969 -3.507467 -0.19310811 0.14749874
0.3910623 -0.14412224 -0.702302 0.110910475 -1.1071068 0.029122459 -0.9199296 0.4756868
0.12393849 -0.8817834 0.25046045 -0.04312911 -1.5604086 -1.0932676 -0.33207637 -0.9187685
-0.2923263 0.21984144 -1.7534373 -0.7535938 1.7032777 0.38247627 -0.6626762 0.042827852
0.22606601 0.99285245 -0.075437024 -1.2329715 -0.32379013 -0.8523065 -0.07512329 0.22988035
-1.2499654 -1.6717939 -2.7003455 0.32075295 -0.12822971 0.18587708 -0.60817885 -1.3292638
-2.4544861 -0.186319 -0.96208346 -3.322468 -0.4721466 0.03434376 -2.2326045 -0.2902486
0.8556734 -0.3436438 -1.9492224 -0.38512993 -1.0646974 0.6294356 0.6197884 0.28418288
0.22973132 0.33719274 -0.1675118 -0.25465894 0.14948526 0.16237728 -3.0272875 0.33958453
-0.48611265 -0.30941528 -0.31343 -3.257103 -2.1483517 0.06480297 -0.26515275 -0.11887604
-0.105096124 -0.71494144 -0.07310503 -1.3961408 -2.2884715 -0.66748565 0.27813995 0.9513457
0.013352443 0.57438374 -1.5203143 -1.1746696 -0.59059465 0.22402875 -0.18850975 -2.823018
-1.1918817 -1.2259008 0.7303088 -0.4420046 -3.627915 -0.40098235 -0.43352014 -1.6154753
-0.46655318 0.69514817 -0.057150673 -2.9102325 0.31383005 -1.2211893 0.10768108 0.3761316
00000000: 976b a7bf ba9d 5abf 0f2d 14c0 9014 23c0
00000010: 1025 ecbf 9670 09bf d1d2 e43c 802d 29c0
00000020: 6671 983d fb94 873d 88ed 39be 1a4b b4bf
00000030: 5ded e3bf 35ff 073f 6bc6 1c3e 5a85 10bf
00000040: d023 cdbf 1bc1 503f bd71 99bf 8828 003f
00000050: 585b febe 1c93 d7bf 80bf 20bf 9ec2 343e
00000060: d918 39be fc9e d3be 6e14 d0bf ba88 38bb
00000070: b3b3 cabf 9d0d a43c 27e5 2cbf ed40 9c3d
00000080: 1655 e5be 6c7f 8d3f 55ed 973e 8077 593e
00000090: f06b 8ebf 8adc 13c0 351c 09c0 5b60 94bf
000000a0: 93e5 d9bd 17d2 a23d 8690 f3bf dc30 85be
000000b0: 052b f73f 4659 ef3d ae41 0fc0 2213 07bd
000000c0: a022 163e 1fb1 723f 7214 0bc0 59c3 983e
000000d0: 81d8 92be dab4 a1bf 66e6 bebc 04c7 943e
000000e0: 2b04 2ebf 78f1 c0bf a149 bcbf b155 243d
000000f0: af6a bbbd 0a58 883d 83fb 79be 9d4e a8bf
00000100: ab80 abbf 4fd2 acbe 0035 26bf a043 98bf
00000110: 4b0c d7bd 9cb4 67bd b44f 07c0 1f75 3dbe
00000120: 7ba9 783f dfec f7bd 1fd6 2abf fcd9 27bf
00000130: 7829 c4bf b6bd c13e 4958 843f 2041 4abf
00000140: c91d c23d 0c83 9abf cc10 3e3d 7f12 3bbf
00000150: 7400 a63c 3a97 273e cc7d 84bf fb98 823e
00000160: d256 cbbe 3510 a7be e314 543f b7cf d2bf
00000170: b81e cabf c41b d6bd c205 96bd 74b7 25c0
00000180: 9706 c53d fa40 183e 427c 623e 20aa 11c0
00000190: 2d0a d7bf 3f39 59bf e3de 70be 4c32 13be
000001a0: 4b99 0a3d ffb7 9bbe 2a29 adbe 8d51 ffbf
000001b0: 75b8 cabf 8108 943d e97d b33d 9784 d0bf
000001c0: bf83 dabf 9315 abbf 4653 853e b031 80bf
000001d0: 3b34 29c0 64eb 1abf f277 3cbf dade a7bf
000001e0: 7d10 07c0 0e36 b5bd 7bbe 56be f409 acbf
000001f0: f0cb b73e 5ed5 ddbf 3989 9d3c d52e 3fbd
00000200: c21a 09c0 4d96 c8bf 4e5d 45c0 53c0 23c0
00000210: 6c88 b8bf b12b 353f 2004 11be 741c debf
00000220: d216 92bd 31d6 043e b167 e33d c888 c9bf
00000230: aa7e c4bf 502a 203f d891 44bf b3af 43be
00000240: 58fa a6be 0b19 8fbf b3d4 97bf 38da e13e
00000250: 6bcd 1abf 577a 60c0 22be 45be e909 173e
00000260: 5139 c83e c894 13be 10ca 33bf 0825 e33d
00000270: adb5 8dbf 3992 ee3c 8280 6bbf 388d f33e
00000280: 77d3 fd3d 8fbc 61bf 5a3c 803e 26a8 30bd
00000290: 78bb c7bf 31f0 8bbf ea05 aabe 6a34 6bbf
000002a0: cbab 95be 1d1e 613e a270 e0bf 86eb 40bf
000002b0: 0105 da3f eed3 c33e 26a5 29bf 426c 2f3d
000002c0: d97d 673e 942b 7e3f ba7e 9abd 03d2 9dbf
000002d0: d2c7 a5be c230 5abf 3dda 99bd c165 6b3e
000002e0: defe 9fbf 58fd d5bf 76d2 2cc0 bb39 a43e
000002f0: a64e 03be 9056 3e3e 9cb1 1bbf 5125 aabf
00000300: 4d16 1dc0 68ca 3ebe 1a4b 76bf 51a3 54c0
00000310: 33bd f1be 0bac 0c3d fee2 0ec0 779b 94be
00000320: 690d 5b3f 15f2 afbe 1f80 f9bf c02f c5be
00000330: 0148 88bf b122 213f 74aa 1e3f 6b80 913e
00000340: b03e 6b3e 87a4 ac3e 3788 2bbe a862 82be
00000350: aa12 193e 3b46 263e 14bf 41c0 06de ad3e
00000360: c2e3 f8be ae6b 9ebe e679 a0be 6074 50c0
00000370: 987e 09c0 6bb7 843d 1ac2 87be 4875 f3bd
00000380: a33c d7bd 6706 37bf 17b8 95bd beb4 b2bf
00000390: 5176 12c0 57e0 2abf 5c68 8e3e 648b 733f
000003a0: 35c4 5a3c d00a 133f a999 c2bf 935b 96bf
000003b0: 3631 17bf cb67 653e b308 41be 54ac 34c0
000003c0: 948f 98bf 51ea 9cbf 84f5 3a3f 6d4e e2be
000003d0: c22f 68c0 8f4d cdbe 5af6 ddbe e5c7 cebf
000003e0: 0fe0 eebe 3bf5 313f d316 6abd 4041 3ac0
000003f0: 55ae a03e ee4f 9cbf e687 dc3d 5294 c03e

model.4.bias f4 [5]
-0.067372866 -0.28998658 -0.14268598 -0.31798467 -0.19378687
00000000: c9fa 89bd 1f79 94be 461c 12be e3ce a2be
00000010: 1170 46be
