map/log/simple_tag_elign_team/world_model_3.pkl (torch, 4311 bytes, 6 tensors)

model.0.weight f4 [5, 47]
00000000: c727 3b3e 00ba 153e bcfe 353e 2e2b 2b3e
00000010: 0990 f53c 1bcb 853e 2ba1 b53e caf5 1f3e
00000020: 8aa7 08bc 6d69 4d3e b500 38bd 7e24 293d
00000030: 5f20 dcbd c83a 15bd e913 43be 8fe1 893d
00000040: fdd5 42be 0e2d c5be 12fc 3dbe 5685 a73c
00000050: 1b1b bfbd 4f81 20bd 2aea 62be 7bd2 7f3d
00000060: c409 babc e899 f33c a034 d8bd 319c 493d
00000070: 6ad6 d9bd b3f9 e13d 3ac0 93bd a0b9 a2bd
00000080: 10e3 f3bc b8be 193e 6998 9cba 119e 4cbd
00000090: ad69 f13b e574 d93c 02f0 403d 5782 bdbb
000000a0: 3aab 54bd 3c08 4fbd 4b28 07bd e42f bdbd
000000b0: 639e 03be 9be4 da3d ca0a 703c 1239 123e
000000c0: 4854 113b 16a7 d63d f18a 313e f67e 3f3c
000000d0: 8384 563e 0bfa 6e3e fdfb 023e c3fd 4abe
000000e0: 4f14 023e d424 c7bc 4148 8d3d a3ea 50bd
000000f0: a5d7 54b9 d68c 01be 1ad9 a83d bef2 ad3c
00000100: 3f74 8f3e 1669 8fbd 7412 6f3d cf6a e53c
00000110: 744d 173d e056 05be 79ba 443d 56ef ba3d
00000120: 8676 00bd d89a 8ebd acd2 783d 5930 a9bd
00000130: 695c b83d 939a 61bd 2b0b 6fbd d86e 2a3d
00000140: 3d89 1a3e ae9a 593c ccaf 9dbd 7fe2 78bc
00000150: e566 ba3c 008f 153d 3f58 17bc b025 18bd
00000160: 4754 14bd 3f61 b73c c433 20bd 03c6 9fbb
00000170: f606 d33d 46e2 603c 19a8 11bd 3f91 d93d
00000180: 3b99 e03d d418 db3e 6508 093e 391f fd3c
00000190: 71ed 5b3d 2495 5b3d 753e 993e 6908 f6bc
000001a0: d441 863c 97ad 003d 6e6b 91bd 53e6 0c3d
000001b0: e98b 25bc add4 eebc f8a4 7dbe 2f4e c03e
000001c0: f93c 90bd 86a5 523c 7051 00be 3d7a f93b
000001d0: d7a8 debc f809 193d 1f38 17be 4f16 d53d
000001e0: e018 2abb 13b1 a8bc 1998 123d 18b0 1cbd
000001f0: 45a4 e4bb ec9f ff3c 3fa5 59bd 3c22 d53d
00000200: 9e5d 57bc 1f40 fc3d 6215 373d 6729 babb
00000210: f1c0 64bd d27c 76bc f21a 043c 2aab 9bbc
00000220: 231b 71bd b367 fa3d 5acd 17be aa15 5e3c
00000230: 4fca a13b d73f 7a3d a070 18be c44d 94bd
00000240: bc5e 9c3c 9d34 3139 43cc 55be a980 d4bd
00000250: 816c 87bd c009 843d f8a5 b93d 8aac 0abe
00000260: f14a c0bb d624 8cbd 1273 343d 834c 2f3d
00000270: d947 f5bc ce14 55bd 1493 84bc fc21 83bc
00000280: 2fc7 013c 0c58 033c b5dc 64bc 9a08 223d
00000290: 90b5 da3c e669 833c ca1a 413c d593 ac3c
000002a0: af84 a4bb c1eb 7abc 5457 3abd 6009 e63c
000002b0: 7b1f 173d a716 193d 11fd 3cbd 51e1 eb3c
000002c0: 27a1 fcbc e9ca d13d 6200 13bc e7fb b93c
000002d0: f5ee 07bd d1f0 2b3c 0211 1b3d e38f 09bd
000002e0: 13df b4bc 41c6 973d a837 843d ff51 1abc
000002f0: fca7 35be 0072 933e 3e31 993e b26b 433e
00000300: a3b4 733b 5e3f 0c3f 33bf 9b3e 8aea 883e
00000310: fceb 40be a561 86be 409d 853e 0669 633d
00000320: a9cc cbbd 77a3 c8bc 45fb c7bd d82e bdbd
00000330: 887f 0d3e 3c2b 89bc 71dc fd3c d40d 3dbd
00000340: 6e2f e9bc ff01 a9bd 6cbd 5f3c 35c1 50bd
00000350: fa22 ccbc bd7d 1ebe efcd bcbc de58 68bc
00000360: 739d 643c 1ad2 99bc 2fdf 37bd 3fff 75bb
00000370: 4e4b 56be bdc5 d33d 90ad d5bb 9618 9f3d
00000380: 848e 39bc 6c4f 3dbd e808 e3bd 5396 ae3b
00000390: c197 6bbc 90bd e6bd a75a c13d 85ae 4b3d
000003a0: 4b16 39be d584 c4bd 92ab df3b
0.18276893 0.14621735 0.17772955 0.1671569 0.029975908 0.2613152 0.35474524 0.15621105
-0.008340726 0.20059748 -0.04492255 0.041294567 -0.10748362 -0.03643301 -0.19050564 0.06732475
-0.19026943 -0.38510936 -0.18553188 0.020449322 -0.09331342 -0.03918582 -0.22159639 0.06245659
-0.022709735 0.029736474 -0.105569124 0.04922122 -0.10636599 0.110339545 -0.07214399 -0.079455614
-0.029771358 0.1501416 -0.0011947277 -0.04995543 0.007367334 0.026544997 0.04710389 -0.00578336
-0.051921107 -0.050544962 -0.03299741 -0.0923765 -0.12853388 0.10688134 0.01465101 0.14279583
0.002217548 0.10481088 0.17338158 0.011687985 0.20948987 0.23337571 0.12791438 -0.19823365
0.1270306 -0.024309553 0.06898547 -0.051005017 -0.0002029823 -0.12651381 0.08244534 0.021233913
0.28018376 -0.070024654 0.058367208 0.028005032 0.0369391 -0.13021421 0.048029397 0.09127681
-0.031363033 -0.06963128 0.060747787 -0.08261175 0.09002001 -0.055079054 -0.05836026 0.041609615
0.15091415 0.013281507 -0.07699546 -0.01519072 0.022754142 0.03651333 -0.009237348 -0.037145317
-0.036213186 0.022385238 -0.039111868 -0.0048758998 0.10304062 0.013725823 -0.0355607 0.106234066
0.109667264 0.4279238 0.13382109 0.030898677 0.05369324 0.05360903 0.29930463 -0.030033307
0.016388811 0.03141555 -0.07100569 0.03439934 -0.010104158 -0.029154146 -0.24769962 0.3755965
-0.070428796 0.012856847 -0.12531066 0.007613449 -0.027180118 0.037363023 -0.14767502 0.10404646
-0.0025954768 -0.020592248 0.035789583 -0.038253874 -0.0069775903 0.031204186 -0.053136107 0.1040692
-0.013144879 0.12316918 0.044698127 -0.005681205 -0.055848066 -0.015044408 0.008063065 -0.019002516
-0.05886377 0.1222681 -0.14824429 0.01355497 0.004937447 0.06109604 -0.14886713 -0.07241395
0.019088142 0.00016899635 -0.20878701 -0.103761025 -0.06612492 0.06447172 0.09064859 -0.13542381
-0.0058683087 -0.068429634 0.044055052 0.042797577 -0.029941486 -0.052021794 -0.016183414 -0.016007416
0.007921024 0.0080165975 -0.013968636 0.039558984 0.026697904 0.016041707 0.011786172 0.021066586
-0.0050207 -0.015314997 -0.04549344 0.028080642 0.036895256 0.03737512 -0.04613978 0.028793963
-0.030838562 0.1024378 -0.008972259 0.022703124 -0.03318687 0.010494427 0.037858017 -0.033584487
-0.022079026 0.07410861 0.06455928 -0.009418963 -0.17739862 0.28797913 0.2992038 0.19084051
0.0037186525 0.5478419 0.3041931 0.2674144 -0.18840021 -0.26246372 0.26096535 0.05552008
-0.09951145 -0.024492009 -0.09764723 -0.0923745 0.1381818 -0.016744249 0.030988904 -0.046155766
-0.028464999 -0.08252334 0.013656002 -0.050965507 -0.024919022 -0.15477653 -0.023047416 -0.014181344
0.013953554 -0.018776942 -0.04489058 -0.0037536172 -0.20927164 0.1034045 -0.0065209344 0.07768361
-0.011325482 -0.04621832 -0.11085683 0.0053279786 -0.014379443 -0.11266625 0.09441119 0.04972698
-0.1807491 -0.09595648 0.0068258727

model.0.bias f4 [5]
00000000: 42d3 643e f49e 0a3e c731 d33e 19eb 90bd
00000010: 9485 f33d
0.22346213 0.13537198 0.41248915 -0.07076091 0.118907124

model.2.weight f4 [5, 5]
00000000: dc8a cfbd 5e3b d0bd 0326 2c3f ce21 99be
00000010: d637 993e e76f c63e 5083 4ebf 4064 733e
00000020: 8dc5 c53e 0e83 84bd b5aa ddbc a29e 81be
00000030: 0959 9f39 926c 1e3e 4f0c dcbe 7181 0c3f
00000040: 67ed 91be 794e 473d d81e 153e 7404 823e
00000050: f283 863e 3d21 8d3e 5b11 3d3f 4315 0f3f
00000060: 10a3 cbbe
-0.10133907 -0.101675734 0.672455 -0.29908603 0.29925412 0.3875725 -0.80669117 0.23768711
0.38627282 -0.06470309 -0.027058939 -0.2531634 0.0003039318 0.15471104 -0.4297814 0.5488501
-0.28501436 0.04865882 0.14562547 0.25394022 0.2627254 0.2756442 0.7385461 0.5589182
-0.39772844

model.2.bias f4 [5]
00000000: d36f ae3e 26dc 9c3e c5b1 aabd 189b a23e
00000010: ce37 62bd
0.3406969 0.3063671 -0.08334688 0.31758952 -0.055229

model.4.weight f4 [46, 5]
00000000: dc2e ebbe 4486 38be 9bd7 da3e 32e8 413e
00000010: f609 e43e b587 663e 5524 c13a e262 7fbe
00000020: 9969 a53e 3e60 16be 63de 683e be85 80be
00000030: 4703 813e e545 b23e fcc6 2cbd 4628 873e
00000040: f48d 8b3e bb2c 00be 350b af3e 4615 ab3e
00000050: bace f03d d189 233d d5ad 8cbe 1826 98bd
00000060: 2d07 273e 6535 963e 9646 2dbf a1cf 733e
00000070: 5318 383f 785b 73be 1553 90bd 0fa1 15bf
00000080: 9173 c0bd e9b9 393f 1ad6 3e3e f6d6 143e
00000090: a136 bdbe 066b a4be 4ba5 b13e 6855 dabc
000000a0: 007c 1d3e 2634 4a3f ba61 cdbd 7538 c1be
000000b0: 8e0d 8d3e 6c45 0cbf 8a92 e2bd ce48 c23e
000000c0: ce71 4a3e ca69 083f b0c5 b63e cdec e7bd
000000d0: c10e 073e f284 693c 5fab afbe db90 9f3d
000000e0: c2c3 32be ff63 b13e 62bc 453c d5ac 543d
000000f0: bd4a 53bd 5218 5f3d 1c19 62be e349 1ebe
00000100: 0b89 86bd 998d 863d 4078 a7bd 8a20 49bd
00000110: 29bd 9abd 8f00 993d 3b27 0b3e 3472 883e
00000120: b657 833e aef9 afbe 5718 1abe ac03 4dbe
00000130: 6346 2fbe 83a0 60bc c6f5 423d 8b61 663e
00000140: 4db9 a53d c9a4 a9be 3c22 c43e 91dd b0bc
00000150: 9b25 ecbe 02a5 653f 9c65 8fbf 3d6f 8dbe
00000160: feba 5abf c3b9 0d3f 7550 323e 3f5a a2ba
00000170: 858b 8b3e 08d3 43be b9bd 84be 008f 35bc
00000180: 0478 08be 96f8 d53e fb4a 83b9 d12b 113e
00000190: 37be 8bbd d555 33be eab2 d3be 3f17 b9bd
000001a0: 5810 c2bd 6887 01bd b891 c8bd 6c8f 3bbe
000001b0: ccea 25be 3d41 de3d b02b 2a3e 5210 e43d
000001c0: 4107 a1bc 825a 69be 3f88 6cbe f4c5 c5bd
000001d0: f4b8 c0bd 0d2f c93e d3f5 113d 02ab 523e
000001e0: 8207 21be cd0c 92be ad99 29bd 8762 ba3c
000001f0: 6758 febc 5b1f 80bd 8350 593e 3ef1 d1be
00000200: f2ae 12be a38b 853e 561a db3d da76 113e
00000210: 3057 bfbe 7760 1abe e270 cfbd e268 d8bd
00000220: de13 c5bd f9b6 9cbc 7c37 833d 4408 803d
00000230: 0345 6f3e 2f71 233e 2e82 abbe 1a87 2bbe
00000240: c56d 15be 94b3 56be a2c8 6bbe a1c7 ba3e
00000250: 4bd6 7d3e 3132 263e cbfb 1d3d 2492 933d
00000260: 8129 01be 0bad efbd 50c2 cdbc a1fb 403e
00000270: 62d0 0b3e 1fad 2dbe 35c0 1bbe 0605 e2bd
00000280: 11d0 8abe b878 85bd 8c41 d6be 91e9 19be
00000290: 7652 a03e 4829 17bd 6cf6 b1be 701e 9c3e
000002a0: 6210 b93e 6b85 7f3e ead0 3dbd 684a 0ebd
000002b0: fc06 3dbe 74a4 153c ff3f 3c3d 0517 e33e
000002c0: 0aa1 b13e 66ab d5be 9d69 54be 949b 41be
000002d0: 5046 863d 8eb6 b83d a638 4abe 8e7c 183c
000002e0: cc8b 393d 417b f6bd 345c 24bc 1bfd 7bbe
000002f0: ceca b03c dce6 a63d 6d57 d2be 4510 b7bd
00000300: 4d43 8bbe cc87 dc3d f29b 813e 7a3f f3bc
00000310: 88f9 b53c 3f73 14be 122e b63a de23 49bd
00000320: 27c2 d13d 6f79 9e3d 9127 a9be 6beb a8bd
00000330: 57c0 4bbd 4beb adbd ade6 e43d 72b7 c53e
00000340: c61e f0bd 0703 1a3d 863d 953d d7aa 00be
00000350: a49a c13d 4357 0c3c 2c95 16be fc59 9e3e
00000360: 732b 4c3c c894 9dbe b682 2cbe 1d74 01bd
00000370: 14cb 4dbe 79da 79bd a418 9dbe 9c01 21be
00000380: cce4 30bb 6bf4 47be 8a74 2ebe d420 8d3e
00000390: cf92 a83d b7f6 933e
-0.45934188 -0.18019968 0.4274262 0.18936232 0.4453885 0.22512706 0.0014735559 -0.24940065
0.32307127 -0.14685151 0.22741084 -0.25102037 0.25197813 0.3481895 -0.042181954 0.26397914
0.2725674 -0.12517063 0.34188238 0.33414668 0.1175818 0.039926354 -0.27476373 -0.07429141
0.16311331 0.29337612 -0.6768583 0.23809673 0.71912116 -0.23765361 -0.07047097 -0.5844888
-0.093970425 0.725493 0.18636361 0.14535126 -0.3695574 -0.32112902 0.3469642 -0.026652053
0.15379333 0.7898582 -0.100284055 -0.37738386 0.27549404 -0.5479343 -0.11063106 0.3794617
0.19769976 0.5328642 0.356977 -0.11324463 0.13189222 0.014252888 -0.34310433 0.07791301
-0.17457488 0.34646603 0.01206884 0.051922638 -0.051584948 0.054466553 -0.22079891 -0.15457873
-0.065691076 0.06569976 -0.08177233 -0.049103297 -0.07555611 0.0747081 0.13589184 0.2664963
0.25652856 -0.34370178 -0.15048347 -0.20020932 -0.17116694 -0.013710144 0.04759767 0.22498147
0.08091984 -0.33133534 0.3830737 -0.021590026 -0.4612244 0.89704907 -1.1202884 -0.2762393
-0.8544158 0.55361575 0.17413504 -0.0012386515 0.27254882 -0.19123471 -0.25925997 -0.011081457
-0.13327032 0.4179122 -0.00025042132 0.14176871 -0.0682339 -0.17513211 -0.41347438 -0.09037637
-0.094757736 -0.031623274 -0.09793419 -0.1831643 -0.16202849 0.10852287 0.16618228 0.11135925
-0.01965678 -0.22788432 -0.23098849 -0.09656897 -0.09410277 0.3929371 0.035634827 0.20573047
-0.1572552 -0.2852539 -0.041406322 0.02275206 -0.031048013 -0.062559806 0.21222119 -0.41004366
-0.14324549 0.26083097 0.106983826 0.14205495 -0.37371206 -0.15075861 -0.101289526 -0.1056688
-0.0962293 -0.019130217 0.06407067 0.062515765 0.2336617 0.15961145 -0.33497757 -0.16750756
-0.14592655 -0.20966941 -0.23025754 0.3648043 0.24788778 0.16230084 0.038570207 0.072056085
-0.12613489 -0.11702927 -0.02511707 0.18845989 0.1365371 -0.16960572 -0.1521004 -0.110361144
-0.27111867 -0.06517166 -0.41846883 -0.15030505 0.31312913 -0.036904603 -0.34758317 0.30491972
0.36145312 0.24953239 -0.046341814 -0.034738928 -0.18459696 0.009133447 0.04595947 0.443535
0.34693176 -0.4173233 -0.20743413 -0.18907005 0.0655638 0.090191945 -0.19748172 0.00930704
0.045299336 -0.120352276 -0.010031749 -0.24608271 0.02158108 0.08149502 -0.41082326 -0.0893865
-0.27199784 0.10768089 0.2531429 -0.029693354 0.022213712 -0.14497088 0.0013899228 -0.04910647
0.1024211 0.07738005 -0.33038 -0.082480274 -0.049743976 -0.08492144 0.111768104 0.3861652
-0.117246196 0.037600543 0.07287125 -0.1256517 0.094533235 0.008565727 -0.14705342 0.30928028
0.012461531 -0.30777574 -0.16846737 -0.031604875 -0.20097 -0.060999367 -0.30682862 -0.1572327
-0.0026991842 -0.19526832 -0.17036644 0.27564108 0.082311265 0.28899166

model.4.bias f4 [46]
00000000: b351 4d3e a4dc 49be 0e88 61be 8ecb 743d
00000010: cb01 52bc 36bf 3dbe 63a3 43be e1bb 8dbd
00000020: a6f4 7abe 46cb 3a3e c1aa b2bd 18b2 6abd
00000030: b86e 3c3e b7d4 0dbd 5b9d f83d 6f75 723d
00000040: c73c ad3e b979 92be 19ea 103e 0fa6 e9bc
00000050: 072a 893e 3dca e73d 52d2 fa3d 71bf 48bd
00000060: 0533 913e c204 e9bd ce05 6e3c 7cca 5b3d
00000070: 60b6 a4bd c65c 18bc f8f8 383d 586c 70bd
00000080: e2a0 283e 3159 96be 230d 8d3c 793d 91be
00000090: 1cf8 30be 1c3e 4f3d bc2d 343e 5030 8f3d
000000a0: c488 12bd 87f8 ea3d ab9f 8c3d 759e 31be
000000b0: 3fe3 b23e 69f6 a1bc
0.20050697 -0.19713074 -0.22024557 0.059764437 -0.01281781 -0.18529972 -0.19105296 -0.06920601
-0.24507388 0.18241605 -0.08723975 -0.05729875 0.18401611 -0.03462669 0.12139388 0.059194025
0.33835432 -0.28608492 0.14151801 -0.028521566 0.26789877 0.11317871 0.12247147 -0.049010698
0.28359237 -0.113778606 0.014527751 0.0536599 -0.08042598 -0.009299463 0.04515931 -0.058697075
0.16467622 -0.29364923 0.017218178 -0.28367212 -0.17282146 0.05059634 0.17595571 0.06991637
-0.03577496 0.11473184 0.06866392 -0.17345603 0.34939 -0.019770818
